name: "ImgNetwork"
#Image data
layer {
  name: "data/img"
  type: "Data"
  top: "data/img"
  include {
    phase: TRAIN
  }
  transform_param {
#    mean_file: "/home/lod/master-thesis/LMDB-datasets/prepared_dataSets/mean/img_5_2_mean.binaryproto"
    scale: 0.003921569
  }
  data_param {
    source: "/home/lod/master-thesis/LMDB-datasets/prepared_dataSets/dataSet_5c_300_5_2_train/img_train_db"
    batch_size: 1
    backend: LMDB
  }
}
layer {
  name: "data/img"
  type: "Data"
  top: "data/img"
  top: "label"
  include {
    phase: TEST
  }
  transform_param {
    scale: 0.003921569
  }
  data_param {
#    source: "/home/lod/master-thesis/LMDB-datasets/prepared_dataSets/dataSet_5c_150_5_2_val/img_val_db"
    source: "/home/lod/master-thesis/LMDB-datasets/prepared_dataSets/dataSet_5c_250_5_2_eval/img_eval_db"
    batch_size: 1
    backend: LMDB
  }
}


# --------- encoding part ---------

layer {
  name: "img_data/bn_1"
  type: "BatchNorm"
  bottom: "data/img"
  top: "img_data/bn_1"
  batch_norm_param {
    moving_average_fraction: 0.9
  }
}

layer {
  name: "conv1"
  type: "Convolution"
  bottom: "img_data/bn_1"
  top: "conv1"
  param { lr_mult: 1 decay_mult: 1 }
  param { lr_mult: 2 decay_mult: 0 }
  convolution_param {
    num_output: 64
    kernel_size: 3
    stride: 2
    weight_filler { type: "xavier" }
    bias_filler { type: "constant" value: 0 }
  }
}
layer {
  name: "relu1conv1"
  type: "PReLU"
  bottom: "conv1"
  top: "conv1"
}
#layer {
#  name: "pool1"
#  type: "Pooling"
#  bottom: "conv1"
#  top: "pool1"
#  pooling_param {
#    pool:  MAX
#    kernel_size: 2
#    stride: 2
#  }
#}
layer {
  name: "conv2_r"
  type: "Convolution"
  bottom: "conv1"
  top: "conv2_r"
  param { lr_mult: 1 decay_mult: 1 }
  param { lr_mult: 2 decay_mult: 0 }
  convolution_param {
    num_output: 128
    kernel_size: 3
    stride: 2
    weight_filler { type: "xavier" }
    bias_filler { type: "constant" value: 0 }
  }
}
layer {
  name: "reluconv2"
  type: "PReLU"
  bottom: "conv2_r"
  top: "conv2_r"
}
#layer {
#  name: "pool2"
#  type: "Pooling"
#  bottom: "conv2"
#  top: "pool2"
#  top: "pool2_mask"
#  pooling_param {
#    pool: MAX
#    kernel_size: 2
#    stride: 2
#  }
#}
layer {
  name: "conv3_r"
  type: "Convolution"
  bottom: "conv2_r"
  top: "conv3_r"
  param { lr_mult: 1 decay_mult: 1 }
  param { lr_mult: 2 decay_mult: 0 }
  convolution_param {
    num_output: 256
    kernel_size: 3
    #pad: 1
    stride: 2
    weight_filler { type: "xavier" }
    bias_filler { type: "constant" value: 0 }
  }
}
layer {
  name: "reluconv3"
  type: "PReLU"
  bottom: "conv3_r"
  top: "conv3_r"
}

#layer {
#  name: "pool3"
#  type: "Pooling"
#  bottom: "conv3"
#  top: "pool3"
#  top: "pool2_mask"
#  pooling_param {
#    pool: MAX
#    kernel_size: 2
#    stride: 2
#  }
#}
################
layer {
  name: "conv4_r"
  type: "Convolution"
  bottom: "conv3_r"
  top: "conv4_r"
  param { lr_mult: 1 decay_mult: 1 }
  param { lr_mult: 2 decay_mult: 0 }
  convolution_param {
    num_output: 512
    kernel_size: 3
    #pad: 1
    stride: 2
    weight_filler { type: "xavier" }
    bias_filler { type: "constant" value: 0 }
  }
}
layer {
  name: "reluconv4"
  type: "PReLU"
  bottom: "conv4_r"
  top: "conv4_r"
}


layer {
  name: "conv5_r"
  type: "Convolution"
  bottom: "conv4_r"
  top: "conv5_r"
  param { lr_mult: 1 decay_mult: 1 }
  param { lr_mult: 2 decay_mult: 0 }
  convolution_param {
    num_output: 512
    kernel_size: 3
    stride: 2
    weight_filler { type: "xavier" }
    bias_filler { type: "constant" value: 0 }
  }
}
layer {
  name: "reluconv5"
  type: "PReLU"
  bottom: "conv5_r"
  top: "conv5_r"
}

layer {
  name: "deconv4"
  type: "Deconvolution"
  bottom: "conv5_r"
  top: "deconv4"
  param { lr_mult: 1 decay_mult: 1 }
  param { lr_mult: 2 decay_mult: 0 }
  convolution_param {
    num_output: 512
    kernel_size: 1 
    stride: 1
    weight_filler { type: "xavier" }
    bias_filler { type: "constant" value: 0 }
  }
}
layer {
  name: "reludeconv4"
  type: "PReLU"
  bottom: "deconv4"
  top: "deconv4"
}

layer {
  name: "deconv3"
  type: "Deconvolution"
  bottom: "deconv4"
  top: "deconv3"
  param { lr_mult: 1 decay_mult: 1 }
  param { lr_mult: 2 decay_mult: 0 }
  convolution_param {
    num_output: 512
    kernel_size: 3
    stride: 2
    weight_filler { type: "xavier" }
    bias_filler { type: "constant" value: 0 }
  }
}
layer {
  name: "reludeconv3"
  type: "PReLU"
  bottom: "deconv3"
  top: "deconv3"
}

#layer {
#  name: "unpool4"
#  type: "UNPOOLING"
#  bottom: "deconv4"
#  bottom: "pool2_mask"
#  top: "unpool4"
#  unpooling_param {
#     unpool: MAX
#     kernel_size: 2
#     stride: 2
#     unpool_size: 16
#  }
#}


###############




layer {
  name: "deconv2"
  type: "Deconvolution"
  bottom: "deconv3"
  top: "deconv2" 
  param { lr_mult: 1 decay_mult: 1 }
  param { lr_mult: 2 decay_mult: 0 }
  convolution_param {
    num_output:256 
    kernel_size: 3
    stride: 2
    weight_filler { type: "xavier" }
    bias_filler { type: "constant" value: 0 }
  }
}
layer {
  name: "reludeconv2"
  type: "PReLU"
  bottom: "deconv2"
  top: "deconv2"
}

#layer {
#  name: "unpool3"
#  type: "UNPOOLING"
#  bottom: "deconv3"
#  bottom: "pool2_mask"
##  top: "unpool3"
#  unpooling_param {
##     unpool: MAX
#     kernel_size: 2
#     stride: 2
#     unpool_size: 40
#  }
#}
layer {
  name: "deconv1"
  type: "Deconvolution"
  bottom: "deconv2"
  top: "deconv1"
  param { lr_mult: 1 decay_mult: 1 }
  param { lr_mult: 2 decay_mult: 0 }
  convolution_param {
    num_output: 128
    kernel_size: 3
    stride: 2
#    pad: 1
    weight_filler { type: "xavier" }
    bias_filler { type: "constant" value: 0 }
  }
}
layer {
  name: "deconv1relu"
  type: "PReLU"
  bottom: "deconv1"
  top: "deconv1"
}

#layer {
#  name: "unpool2"
#  type: "UNPOOLING"
#  bottom: "deconv2"
#  bottom: "pool1_mask"
#  top: "unpool2"
#  unpooling_param {
#    unpool: MAX
#    kernel_size: 2
#    stride: 2
#    unpool_size: 86
#  }
#}

layer {
  name: "deconv0"
  type: "Deconvolution"
  bottom: "deconv1"
  top: "deconv0"
  param { lr_mult: 1 decay_mult: 1 }
  param { lr_mult: 2 decay_mult: 0 }
  convolution_param {
    num_output: 64
    kernel_size: 3
    stride: 2
    weight_filler { type: "xavier" }
    bias_filler { type: "constant" value: 0 }
  }
}
layer {
  name: "deconv0relu"
  type: "PReLU"
  bottom: "deconv0"
  top: "deconv0"
}
layer {
  name: "deconv/last"
  type: "Deconvolution"
  bottom: "deconv0"
  top: "deconv/last"
  param { lr_mult: 1 decay_mult: 1 }
  param { lr_mult: 2 decay_mult: 0 }
  convolution_param {
    num_output: 3
    kernel_size: 3
    stride: 2
    weight_filler { type: "xavier" }
    bias_filler { type: "constant" value: 0 }
  }
}
layer {
  name: "deconvlastrelu"
  type: "PReLU"
  bottom: "deconv/last"
  top: "deconv/last"
}

layer {
  name: "output"
  type: "Deconvolution"
  bottom: "deconv/last"
  top: "output"
  param { lr_mult: 1 decay_mult: 1 }
  param { lr_mult: 2 decay_mult: 0 }
  convolution_param {
    num_output: 3
    kernel_size: 5
    stride: 1
    weight_filler { type: "xavier" }
    bias_filler { type: "constant" value: 0 }
  }
}


layer {
  name: "outputrelu"
  type: "PReLU"
  bottom: "output"
  top: "output"
}



# --------- calculate loss ---------
#layer {
#  name: "loss"
#  type: "SigmoidCrossEntropyLoss"
#  bottom: "output"
#  bottom: "img_data/bn"
#  top: "cross_entropy_loss"
#  loss_weight: 0.5
#}
#layer {
#  name: "deconv1neursig"
#  type: "Sigmoid"
#  bottom: "deconv0"
#  top: "deconv1neursig"
#}
layer {
  name: "loss"
  type: "EuclideanLoss"
  bottom: "output"
  bottom: "data/img"
  top: "l2_error"
  loss_weight: 1
}

