…
  name: "data/img"
  type: "Data"
  top: "data/img"
  top: "label"
  include {
    phase: TRAIN
  }
  transform_param {
    scale: 0.0039215689
  }
  data_param {
    source: "/home/lod/master-thesis/LMDB-datasets/prepared_dataSets/dataSet_5c_300_5_2_train/img_train_db"
    batch_size: 1
    backend: LMDB
  }
}
layer {
  name: "data"
  type: "Data"
  top: "data"
  include {
    phase: TRAIN
  }
  data_param {
    source: "/home/lod/master-thesis/LMDB-datasets/prepared_dataSets/dataSet_5c_300_5_2_train/nir_train_db"
    batch_size: 1
    backend: LMDB
  }
}
layer {
  name: "nir_data/bn"
  type: "BatchNorm"
  bottom: "data"
  top: "nir_data/bn"
  batch_norm_param {
    moving_average_fraction: 0.9
  }
}
layer {
  name: "conv1_nir"
  type: "Convolution"
  bottom: "nir_data/bn"
  top: "conv1_nir"
  param {
    lr_mult: 1
    decay_mult: 1
  }
  param {
    lr_mult: 2
    decay_mult: 0
  }
  convolution_param {
    num_output: 235
    kernel_size: 1
    stride: 1
    weight_filler {
      type: "xavier"
    }
    bias_filler {
      type: "constant"
      value: 0
    }
  }
}
layer {
  name: "nir_relu/conv1"
  type: "PReLU"
  bottom: "conv1_nir"
  top: "conv1_nir"
}
layer {
  name: "nir/fc1"
  type: "InnerProduct"
  bottom: "conv1_nir"
  top: "nir/fc1"
  param {
    lr_mult: 1
    decay_mult: 1
  }
  param {
    lr_mult: 2
    decay_mult: 0
  }
  inner_product_param {
    num_output: 616
    weight_filler {
      type: "xavier"
    }
    bias_filler {
      type: "constant"
      value: 0
    }
  }
}
layer {
  name: "relu_nir/fc1"
  type: "PReLU"
  bottom: "nir/fc1"
  top: "nir/fc1"
}
layer {
  name: "nir/fc2"
  type: "InnerProduct"
  bottom: "nir/fc1"
  top: "nir/fc2"
  param {
    lr_mult: 1
    decay_mult: 1
  }
  param {
    lr_mult: 2
    decay_mult: 0
  }
  inner_product_param {
    num_output: 400
    weight_filler {
      type: "xavier"
    }
    bias_filler {
      type: "constant"
      value: 0
    }
  }
}
layer {
  name: "relu/fc2"
  type: "PReLU"
  bottom: "nir/fc2"
  top: "nir/fc2"
}
layer {
  name: "img_data/bn"
  type: "BatchNorm"
  bottom: "data/img"
  top: "img_data/bn"
  batch_norm_param {
    moving_average_fraction: 0.9
  }
}
layer {
  name: "conv1"
  type: "Convolution"
  bottom: "img_data/bn"
  top: "conv1"
  param {
    lr_mult: 0.0001
    decay_mult: 1
  }
  param {
    lr_mult: 0.0002
    decay_mult: 0
  }
  convolution_param {
    num_output: 96
    kernel_size: 11
    stride: 4
    weight_filler {
      type: "xavier"
    }
    bias_filler {
      type: "constant"
      value: 0
    }
  }
}
layer {
  name: "relu1conv1"
  type: "PReLU"
  bottom: "conv1"
  top: "conv1"
}
layer {
  name: "pool1"
  type: "Pooling"
  bottom: "conv1"
  top: "pool1"
  pooling_param {
    pool: MAX
    kernel_size: 3
    stride: 2
  }
}
layer {
  name: "conv2"
  type: "Convolution"
  bottom: "pool1"
  top: "conv2"
  param {
    lr_mult: 0.001
    decay_mult: 1
  }
  param {
    lr_mult: 0.002
    decay_mult: 0
  }
  convolution_param {
    num_output: 256
    pad: 2
    kernel_size: 5
    group: 2
    stride: 1
    weight_filler {
      type: "xavier"
    }
    bias_filler {
      type: "constant"
      value: 0
    }
  }
}
layer {
  name: "reluconv2"
  type: "PReLU"
  bottom: "conv2"
  top: "conv2"
}
layer {
  name: "pool2"
  type: "Pooling"
  bottom: "conv2"
  top: "pool2"
  pooling_param {
    pool: MAX
    kernel_size: 3
    stride: 2
  }
}
layer {
  name: "conv3"
  type: "Convolution"
  bottom: "pool2"
  top: "conv3"
  param {
    lr_mult: 0.01
    decay_mult: 1
  }
  param {
    lr_mult: 0.02
    decay_mult: 0
  }
  convolution_param {
    num_output: 384
    pad: 1
    kernel_size: 3
    stride: 1
    weight_filler {
      type: "xavier"
    }
    bias_filler {
      type: "constant"
      value: 0
    }
  }
}
layer {
  name: "reluconv3"
  type: "PReLU"
  bottom: "conv3"
  top: "conv3"
}
layer {
  name: "conv4"
  type: "Convolution"
  bottom: "conv3"
  top: "conv4"
  param {
    lr_mult: 0.1
    decay_mult: 1
  }
  param {
    lr_mult: 0.2
    decay_mult: 0
  }
  convolution_param {
    num_output: 384
    pad: 1
    kernel_size: 3
    group: 2
    stride: 1
    weight_filler {
      type: "xavier"
    }
    bias_filler {
      type: "constant"
      value: 0
    }
  }
}
layer {
  name: "reluconv4"
  type: "PReLU"
  bottom: "conv4"
  top: "conv4"
}
layer {
  name: "conv5"
  type: "Convolution"
  bottom: "conv4"
  top: "conv5"
  param {
    lr_mult: 1
    decay_mult: 1
  }
  param {
    lr_mult: 2
    decay_mult: 0
  }
  convolution_param {
    num_output: 256
    pad: 1
    kernel_size: 3
    group: 2
    stride: 1
    weight_filler {
      type: "xavier"
    }
    bias_filler {
      type: "constant"
      value: 0
    }
  }
}
layer {
  name: "reluconv5"
  type: "PReLU"
  bottom: "conv5"
  top: "conv5"
}
layer {
  name: "pool3"
  type: "Pooling"
  bottom: "conv5"
  top: "pool3"
  pooling_param {
    pool: MAX
    kernel_size: 3
    stride: 2
  }
}
layer {
  name: "img/flatten"
  type: "Flatten"
  bottom: "pool3"
  top: "img/flatten"
}
layer {
  name: "img/fc1"
  type: "InnerProduct"
  bottom: "img/flatten"
  top: "img/fc1"
  param {
    lr_mult: 1
    decay_mult: 1
  }
  param {
    lr_mult: 2
    decay_mult: 0
  }
  inner_product_param {
    num_output: 4096
    weight_filler {
      type: "xavier"
    }
    bias_filler {
      type: "constant"
      value: 0
    }
  }
}
layer {
  name: "img_relu/fc1"
  type: "PReLU"
  bottom: "img/fc1"
  top: "img/fc1"
}
layer {
  name: "img/fc2"
  type: "InnerProduct"
  bottom: "img/fc1"
  top: "img/fc2"
  param {
    lr_mult: 1
    decay_mult: 1
  }
  param {
    lr_mult: 2
    decay_mult: 0
  }
  inner_product_param {
    num_output: 4096
    weight_filler {
      type: "xavier"
    }
    bias_filler {
      type: "constant"
      value: 0
    }
  }
}
layer {
  name: "img_relu/fc2"
  type: "PReLU"
  bottom: "img/fc2"
  top: "img/fc2"
}
layer {
  name: "img/fc3_r"
  type: "InnerProduct"
  bottom: "img/fc2"
  top: "img/fc3"
  param {
    lr_mult: 1
    decay_mult: 1
  }
  param {
    lr_mult: 2
    decay_mult: 0
  }
  inner_product_param {
    num_output: 600
    weight_filler {
      type: "xavier"
    }
    bias_filler {
      type: "constant"
      value: 0
    }
  }
}
layer {
  name: "img_relu_r/fc3"
  type: "PReLU"
  bottom: "img/fc3"
  top: "img/fc3"
}
layer {
  name: "img_nir/concat"
  type: "Concat"
  bottom: "img/fc3"
  bottom: "nir/fc2"
  top: "img_nir/concat"
  concat_param {
    axis: 1
  }
}
layer {
  name: "img/fc4"
  type: "InnerProduct"
  bottom: "img_nir/concat"
  top: "img/fc4"
  param {
    lr_mult: 1
    decay_mult: 1
  }
  param {
    lr_mult: 2
    decay_mult: 0
  }
  inner_product_param {
    num_output: 4096
    weight_filler {
      type: "xavier"
    }
    bias_filler {
      type: "constant"
      value: 0
    }
  }
}
layer {
  name: "img_relu/fc4"
  type: "PReLU"
  bottom: "img/fc4"
  top: "img/fc4"
}
layer {
  name: "img/fc5"
  type: "InnerProduct"
  bottom: "img/fc4"
  top: "img/fc5"
  param {
    lr_mult: 1
    decay_mult: 1
  }
  param {
    lr_mult: 2
    decay_mult: 0
  }
  inner_product_param {
    num_output: 4096
    weight_filler {
      type: "xavier"
    }
    bias_filler {
      type: "constant"
      value: 0
    }
  }
}
layer {
  name: "img_relu/fc5"
  type: "PReLU"
  bottom: "img/fc5"
  top: "img/fc5"
}
layer {
  name: "img/fc6r"
  type: "InnerProduct"
  bottom: "img/fc5"
  top: "img/fc6"
  param {
    lr_mult: 1
    decay_mult: 1
  }
  param {
    lr_mult: 2
    decay_mult: 0
  }
  inner_product_param {
    num_output: 1000
    weight_filler {
      type: "xavier"
    }
    bias_filler {
      type: "constant"
      value: 0
    }
  }
}
layer {
  name: "img_relu/fc6r"
  type: "PReLU"
  bottom: "img/fc6"
  top: "img/fc6"
}
layer {
  name: "img/fc7"
  type: "InnerProduct"
  bottom: "img/fc6"
  top: "img/fc7"
  param {
    lr_mult: 1
    decay_mult: 1
  }
  param {
    lr_mult: 2
    decay_mult: 0
  }
  inner_product_param {
    num_output: 100
    weight_filler {
      type: "xavier"
    }
    bias_filler {
      type: "constant"
      value: 0
    }
  }
}
layer {
  name: "img_relu/fc7"
  type: "PReLU"
  bottom: "img/fc7"
  top: "img/fc7"
}
layer {
  name: "img/fc8"
  type: "InnerProduct"
  bottom: "img/fc7"
  top: "img/fc8"
  param {
    lr_mult: 1
    decay_mult: 1
  }
  param {
    lr_mult: 2
    decay_mult: 0
  }
  inner_product_param {
    num_output: 5
    weight_filler {
      type: "xavier"
    }
    bias_filler {
      type: "constant"
      value: 0
    }
  }
}
layer {
  name: "img_relu/fc8"
  type: "PReLU"
  bottom: "img/fc8"
  top: "img/fc8"
}
layer {
  name: "loss"
  type: "SoftmaxWithLoss"
  bottom: "img/fc8"
  bottom: "label"
  top: "loss"
}
I0707 07:07:13.192924  1973 layer_factory.hpp:77] Creating layer data/img
I0707 07:07:13.193037  1973 db_lmdb.cpp:35] Opened lmdb /home/lod/master-thesis/LMDB-datasets/prepared_dataSets/dataSet_5c_300_5_2_train/img_train_db
I0707 07:07:13.193063  1973 net.cpp:84] Creating Layer data/img
I0707 07:07:13.193073  1973 net.cpp:380] data/img -> data/img
I0707 07:07:13.193097  1973 net.cpp:380] data/img -> label
I0707 07:07:13.194505  1973 data_layer.cpp:45] output data size: 1,3,227,227
I0707 07:07:13.197970  1973 net.cpp:122] Setting up data/img
I0707 07:07:13.197988  1973 net.cpp:129] Top shape: 1 3 227 227 (154587)
I0707 07:07:13.198001  1973 net.cpp:129] Top shape: 1 (1)
I0707 07:07:13.198007  1973 net.cpp:137] Memory required for data: 618352
I0707 07:07:13.198015  1973 layer_factory.hpp:77] Creating layer data
I0707 07:07:13.198078  1973 db_lmdb.cpp:35] Opened lmdb /home/lod/master-thesis/LMDB-datasets/prepared_dataSets/dataSet_5c_300_5_2_train/nir_train_db
I0707 07:07:13.198097  1973 net.cpp:84] Creating Layer data
I0707 07:07:13.198105  1973 net.cpp:380] data -> data
I0707 07:07:13.199051  1973 data_layer.cpp:45] output data size: 1,235,11,56
I0707 07:07:13.200817  1973 net.cpp:122] Setting up data
I0707 07:07:13.200832  1973 net.cpp:129] Top shape: 1 235 11 56 (144760)
I0707 07:07:13.200837  1973 net.cpp:137] Memory required for data: 1197392
I0707 07:07:13.200842  1973 layer_factory.hpp:77] Creating layer nir_data/bn
I0707 07:07:13.200871  1973 net.cpp:84] Creating Layer nir_data/bn
I0707 07:07:13.200879  1973 net.cpp:406] nir_data/bn <- data
I0707 07:07:13.200893  1973 net.cpp:380] nir_data/bn -> nir_data/bn
I0707 07:07:13.202044  1973 net.cpp:122] Setting up nir_data/bn
I0707 07:07:13.202057  1973 net.cpp:129] Top shape: 1 235 11 56 (144760)
I0707 07:07:13.202062  1973 net.cpp:137] Memory required for data: 1776432
I0707 07:07:13.202085  1973 layer_factory.hpp:77] Creating layer conv1_nir
I0707 07:07:13.202106  1973 net.cpp:84] Creating Layer conv1_nir
I0707 07:07:13.202112  1973 net.cpp:406] conv1_nir <- nir_data/bn
I0707 07:07:13.202121  1973 net.cpp:380] conv1_nir -> conv1_nir
I0707 07:07:13.415246  1973 net.cpp:122] Setting up conv1_nir
I0707 07:07:13.415277  1973 net.cpp:129] Top shape: 1 235 11 56 (144760)
I0707 07:07:13.415282  1973 net.cpp:137] Memory required for data: 2355472
I0707 07:07:13.415300  1973 layer_factory.hpp:77] Creating layer nir_relu/conv1
I0707 07:07:13.415313  1973 net.cpp:84] Creating Layer nir_relu/conv1
I0707 07:07:13.415320  1973 net.cpp:406] nir_relu/conv1 <- conv1_nir
I0707 07:07:13.415328  1973 net.cpp:367] nir_relu/conv1 -> conv1_nir (in-place)
I0707 07:07:13.415506  1973 net.cpp:122] Setting up nir_relu/conv1
I0707 07:07:13.415518  1973 net.cpp:129] Top shape: 1 235 11 56 (144760)
I0707 07:07:13.415521  1973 net.cpp:137] Memory required for data: 2934512
I0707 07:07:13.415529  1973 layer_factory.hpp:77] Creating layer nir/fc1
I0707 07:07:13.415539  1973 net.cpp:84] Creating Layer nir/fc1
I0707 07:07:13.415544  1973 net.cpp:406] nir/fc1 <- conv1_nir
I0707 07:07:13.415551  1973 net.cpp:380] nir/fc1 -> nir/fc1
I0707 07:07:13.922017  1973 net.cpp:122] Setting up nir/fc1
I0707 07:07:13.922049  1973 net.cpp:129] Top shape: 1 616 (616)
I0707 07:07:13.922051  1973 net.cpp:137] Memory required for data: 2936976
I0707 07:07:13.922062  1973 layer_factory.hpp:77] Creating layer relu_nir/fc1
I0707 07:07:13.922071  1973 net.cpp:84] Creating Layer relu_nir/fc1
I0707 07:07:13.922075  1973 net.cpp:406] relu_nir/fc1 <- nir/fc1
I0707 07:07:13.922082  1973 net.cpp:367] relu_nir/fc1 -> nir/fc1 (in-place)
I0707 07:07:13.922157  1973 net.cpp:122] Setting up relu_nir/fc1
I0707 07:07:13.922165  1973 net.cpp:129] Top shape: 1 616 (616)
I0707 07:07:13.922168  1973 net.cpp:137] Memory required for data: 2939440
I0707 07:07:13.922179  1973 layer_factory.hpp:77] Creating layer nir/fc2
I0707 07:07:13.922191  1973 net.cpp:84] Creating Layer nir/fc2
I0707 07:07:13.922197  1973 net.cpp:406] nir/fc2 <- nir/fc1
I0707 07:07:13.922204  1973 net.cpp:380] nir/fc2 -> nir/fc2
I0707 07:07:13.924073  1973 net.cpp:122] Setting up nir/fc2
I0707 07:07:13.924085  1973 net.cpp:129] Top shape: 1 400 (400)
I0707 07:07:13.924088  1973 net.cpp:137] Memory required for data: 2941040
I0707 07:07:13.924096  1973 layer_factory.hpp:77] Creating layer relu/fc2
I0707 07:07:13.924104  1973 net.cpp:84] Creating Layer relu/fc2
I0707 07:07:13.924109  1973 net.cpp:406] relu/fc2 <- nir/fc2
I0707 07:07:13.924114  1973 net.cpp:367] relu/fc2 -> nir/fc2 (in-place)
I0707 07:07:13.924180  1973 net.cpp:122] Setting up relu/fc2
I0707 07:07:13.924187  1973 net.cpp:129] Top shape: 1 400 (400)
I0707 07:07:13.924191  1973 net.cpp:137] Memory required for data: 2942640
I0707 07:07:13.924196  1973 layer_factory.hpp:77] Creating layer img_data/bn
I0707 07:07:13.924204  1973 net.cpp:84] Creating Layer img_data/bn
I0707 07:07:13.924208  1973 net.cpp:406] img_data/bn <- data/img
I0707 07:07:13.924214  1973 net.cpp:380] img_data/bn -> img_data/bn
I0707 07:07:13.924372  1973 net.cpp:122] Setting up img_data/bn
I0707 07:07:13.924381  1973 net.cpp:129] Top shape: 1 3 227 227 (154587)
I0707 07:07:13.924384  1973 net.cpp:137] Memory required for data: 3560988
I0707 07:07:13.924393  1973 layer_factory.hpp:77] Creating layer conv1
I0707 07:07:13.924405  1973 net.cpp:84] Creating Layer conv1
I0707 07:07:13.924412  1973 net.cpp:406] conv1 <- img_data/bn
I0707 07:07:13.924418  1973 net.cpp:380] conv1 -> conv1
I0707 07:07:13.926533  1973 net.cpp:122] Setting up conv1
I0707 07:07:13.926546  1973 net.cpp:129] Top shape: 1 96 55 55 (290400)
I0707 07:07:13.926551  1973 net.cpp:137] Memory required for data: 4722588
I0707 07:07:13.926563  1973 layer_factory.hpp:77] Creating layer relu1conv1
I0707 07:07:13.926570  1973 net.cpp:84] Creating Layer relu1conv1
I0707 07:07:13.926574  1973 net.cpp:406] relu1conv1 <- conv1
I0707 07:07:13.926580  1973 net.cpp:367] relu1conv1 -> conv1 (in-place)
I0707 07:07:13.927387  1973 net.cpp:122] Setting up relu1conv1
I0707 07:07:13.927399  1973 net.cpp:129] Top shape: 1 96 55 55 (290400)
I0707 07:07:13.927404  1973 net.cpp:137] Memory required for data: 5884188
I0707 07:07:13.927410  1973 layer_factory.hpp:77] Creating layer pool1
I0707 07:07:13.927435  1973 net.cpp:84] Creating Layer pool1
I0707 07:07:13.927443  1973 net.cpp:406] pool1 <- conv1
I0707 07:07:13.927448  1973 net.cpp:380] pool1 -> pool1
I0707 07:07:13.927500  1973 net.cpp:122] Setting up pool1
I0707 07:07:13.927507  1973 net.cpp:129] Top shape: 1 96 27 27 (69984)
I0707 07:07:13.927511  1973 net.cpp:137] Memory required for data: 6164124
I0707 07:07:13.927515  1973 layer_factory.hpp:77] Creating layer conv2
I0707 07:07:13.927525  1973 net.cpp:84] Creating Layer conv2
I0707 07:07:13.927529  1973 net.cpp:406] conv2 <- pool1
I0707 07:07:13.927536  1973 net.cpp:380] conv2 -> conv2
I0707 07:07:13.931016  1973 net.cpp:122] Setting up conv2
I0707 07:07:13.931030  1973 net.cpp:129] Top shape: 1 256 27 27 (186624)
I0707 07:07:13.931033  1973 net.cpp:137] Memory required for data: 6910620
I0707 07:07:13.931041  1973 layer_factory.hpp:77] Creating layer reluconv2
I0707 07:07:13.931048  1973 net.cpp:84] Creating Layer reluconv2
I0707 07:07:13.931052  1973 net.cpp:406] reluconv2 <- conv2
I0707 07:07:13.931058  1973 net.cpp:367] reluconv2 -> conv2 (in-place)
I0707 07:07:13.931177  1973 net.cpp:122] Setting up reluconv2
I0707 07:07:13.931186  1973 net.cpp:129] Top shape: 1 256 27 27 (186624)
I0707 07:07:13.931190  1973 net.cpp:137] Memory required for data: 7657116
I0707 07:07:13.931195  1973 layer_factory.hpp:77] Creating layer pool2
I0707 07:07:13.931202  1973 net.cpp:84] Creating Layer pool2
I0707 07:07:13.931206  1973 net.cpp:406] pool2 <- conv2
I0707 07:07:13.931212  1973 net.cpp:380] pool2 -> pool2
I0707 07:07:13.931244  1973 net.cpp:122] Setting up pool2
I0707 07:07:13.931252  1973 net.cpp:129] Top shape: 1 256 13 13 (43264)
I0707 07:07:13.931255  1973 net.cpp:137] Memory required for data: 7830172
I0707 07:07:13.931259  1973 layer_factory.hpp:77] Creating layer conv3
I0707 07:07:13.931270  1973 net.cpp:84] Creating Layer conv3
I0707 07:07:13.931275  1973 net.cpp:406] conv3 <- pool2
I0707 07:07:13.931282  1973 net.cpp:380] conv3 -> conv3
I0707 07:07:13.937093  1973 net.cpp:122] Setting up conv3
I0707 07:07:13.937106  1973 net.cpp:129] Top shape: 1 384 13 13 (64896)
I0707 07:07:13.937111  1973 net.cpp:137] Memory required for data: 8089756
I0707 07:07:13.937119  1973 layer_factory.hpp:77] Creating layer reluconv3
I0707 07:07:13.937126  1973 net.cpp:84] Creating Layer reluconv3
I0707 07:07:13.937130  1973 net.cpp:406] reluconv3 <- conv3
I0707 07:07:13.937136  1973 net.cpp:367] reluconv3 -> conv3 (in-place)
I0707 07:07:13.937242  1973 net.cpp:122] Setting up reluconv3
I0707 07:07:13.937250  1973 net.cpp:129] Top shape: 1 384 13 13 (64896)
I0707 07:07:13.937254  1973 net.cpp:137] Memory required for data: 8349340
I0707 07:07:13.937259  1973 layer_factory.hpp:77] Creating layer conv4
I0707 07:07:13.937270  1973 net.cpp:84] Creating Layer conv4
I0707 07:07:13.937274  1973 net.cpp:406] conv4 <- conv3
I0707 07:07:13.937281  1973 net.cpp:380] conv4 -> conv4
I0707 07:07:13.942665  1973 net.cpp:122] Setting up conv4
I0707 07:07:13.942678  1973 net.cpp:129] Top shape: 1 384 13 13 (64896)
I0707 07:07:13.942683  1973 net.cpp:137] Memory required for data: 8608924
I0707 07:07:13.942692  1973 layer_factory.hpp:77] Creating layer reluconv4
I0707 07:07:13.942698  1973 net.cpp:84] Creating Layer reluconv4
I0707 07:07:13.942703  1973 net.cpp:406] reluconv4 <- conv4
I0707 07:07:13.942708  1973 net.cpp:367] reluconv4 -> conv4 (in-place)
I0707 07:07:13.942808  1973 net.cpp:122] Setting up reluconv4
I0707 07:07:13.942818  1973 net.cpp:129] Top shape: 1 384 13 13 (64896)
I0707 07:07:13.942821  1973 net.cpp:137] Memory required for data: 8868508
I0707 07:07:13.942827  1973 layer_factory.hpp:77] Creating layer conv5
I0707 07:07:13.942837  1973 net.cpp:84] Creating Layer conv5
I0707 07:07:13.942842  1973 net.cpp:406] conv5 <- conv4
I0707 07:07:13.942848  1973 net.cpp:380] conv5 -> conv5
I0707 07:07:13.946833  1973 net.cpp:122] Setting up conv5
I0707 07:07:13.946846  1973 net.cpp:129] Top shape: 1 256 13 13 (43264)
I0707 07:07:13.946851  1973 net.cpp:137] Memory required for data: 9041564
I0707 07:07:13.946873  1973 layer_factory.hpp:77] Creating layer reluconv5
I0707 07:07:13.946885  1973 net.cpp:84] Creating Layer reluconv5
I0707 07:07:13.946890  1973 net.cpp:406] reluconv5 <- conv5
I0707 07:07:13.946897  1973 net.cpp:367] reluconv5 -> conv5 (in-place)
I0707 07:07:13.946983  1973 net.cpp:122] Setting up reluconv5
I0707 07:07:13.946992  1973 net.cpp:129] Top shape: 1 256 13 13 (43264)
I0707 07:07:13.946995  1973 net.cpp:137] Memory required for data: 9214620
I0707 07:07:13.947000  1973 layer_factory.hpp:77] Creating layer pool3
I0707 07:07:13.947007  1973 net.cpp:84] Creating Layer pool3
I0707 07:07:13.947011  1973 net.cpp:406] pool3 <- conv5
I0707 07:07:13.947017  1973 net.cpp:380] pool3 -> pool3
I0707 07:07:13.947051  1973 net.cpp:122] Setting up pool3
I0707 07:07:13.947058  1973 net.cpp:129] Top shape: 1 256 6 6 (9216)
I0707 07:07:13.947062  1973 net.cpp:137] Memory required for data: 9251484
I0707 07:07:13.947065  1973 layer_factory.hpp:77] Creating layer img/flatten
I0707 07:07:13.947077  1973 net.cpp:84] Creating Layer img/flatten
I0707 07:07:13.947082  1973 net.cpp:406] img/flatten <- pool3
I0707 07:07:13.947088  1973 net.cpp:380] img/flatten -> img/flatten
I0707 07:07:13.947115  1973 net.cpp:122] Setting up img/flatten
I0707 07:07:13.947124  1973 net.cpp:129] Top shape: 1 9216 (9216)
I0707 07:07:13.947126  1973 net.cpp:137] Memory required for data: 9288348
I0707 07:07:13.947130  1973 layer_factory.hpp:77] Creating layer img/fc1
I0707 07:07:13.947139  1973 net.cpp:84] Creating Layer img/fc1
I0707 07:07:13.947142  1973 net.cpp:406] img/fc1 <- img/flatten
I0707 07:07:13.947149  1973 net.cpp:380] img/fc1 -> img/fc1
I0707 07:07:14.138507  1973 net.cpp:122] Setting up img/fc1
I0707 07:07:14.138536  1973 net.cpp:129] Top shape: 1 4096 (4096)
I0707 07:07:14.138540  1973 net.cpp:137] Memory required for data: 9304732
I0707 07:07:14.138551  1973 layer_factory.hpp:77] Creating layer img_relu/fc1
I0707 07:07:14.138561  1973 net.cpp:84] Creating Layer img_relu/fc1
I0707 07:07:14.138566  1973 net.cpp:406] img_relu/fc1 <- img/fc1
I0707 07:07:14.138572  1973 net.cpp:367] img_relu/fc1 -> img/fc1 (in-place)
I0707 07:07:14.138643  1973 net.cpp:122] Setting up img_relu/fc1
I0707 07:07:14.138651  1973 net.cpp:129] Top shape: 1 4096 (4096)
I0707 07:07:14.138655  1973 net.cpp:137] Memory required for data: 9321116
I0707 07:07:14.138669  1973 layer_factory.hpp:77] Creating layer img/fc2
I0707 07:07:14.138679  1973 net.cpp:84] Creating Layer img/fc2
I0707 07:07:14.138685  1973 net.cpp:406] img/fc2 <- img/fc1
I0707 07:07:14.138692  1973 net.cpp:380] img/fc2 -> img/fc2
I0707 07:07:14.223413  1973 net.cpp:122] Setting up img/fc2
I0707 07:07:14.223443  1973 net.cpp:129] Top shape: 1 4096 (4096)
I0707 07:07:14.223446  1973 net.cpp:137] Memory required for data: 9337500
I0707 07:07:14.223456  1973 layer_factory.hpp:77] Creating layer img_relu/fc2
I0707 07:07:14.223466  1973 net.cpp:84] Creating Layer img_relu/fc2
I0707 07:07:14.223471  1973 net.cpp:406] img_relu/fc2 <- img/fc2
I0707 07:07:14.223477  1973 net.cpp:367] img_relu/fc2 -> img/fc2 (in-place)
I0707 07:07:14.223551  1973 net.cpp:122] Setting up img_relu/fc2
I0707 07:07:14.223559  1973 net.cpp:129] Top shape: 1 4096 (4096)
I0707 07:07:14.223562  1973 net.cpp:137] Memory required for data: 9353884
I0707 07:07:14.223568  1973 layer_factory.hpp:77] Creating layer img/fc3_r
I0707 07:07:14.223577  1973 net.cpp:84] Creating Layer img/fc3_r
I0707 07:07:14.223582  1973 net.cpp:406] img/fc3_r <- img/fc2
I0707 07:07:14.223587  1973 net.cpp:380] img/fc3_r -> img/fc3
I0707 07:07:14.235878  1973 net.cpp:122] Setting up img/fc3_r
I0707 07:07:14.235895  1973 net.cpp:129] Top shape: 1 600 (600)
I0707 07:07:14.235899  1973 net.cpp:137] Memory required for data: 9356284
I0707 07:07:14.235908  1973 layer_factory.hpp:77] Creating layer img_relu_r/fc3
I0707 07:07:14.235913  1973 net.cpp:84] Creating Layer img_relu_r/fc3
I0707 07:07:14.235918  1973 net.cpp:406] img_relu_r/fc3 <- img/fc3
I0707 07:07:14.235924  1973 net.cpp:367] img_relu_r/fc3 -> img/fc3 (in-place)
I0707 07:07:14.236001  1973 net.cpp:122] Setting up img_relu_r/fc3
I0707 07:07:14.236019  1973 net.cpp:129] Top shape: 1 600 (600)
I0707 07:07:14.236023  1973 net.cpp:137] Memory required for data: 9358684
I0707 07:07:14.236028  1973 layer_factory.hpp:77] Creating layer img_nir/concat
I0707 07:07:14.236037  1973 net.cpp:84] Creating Layer img_nir/concat
I0707 07:07:14.236042  1973 net.cpp:406] img_nir/concat <- img/fc3
I0707 07:07:14.236047  1973 net.cpp:406] img_nir/concat <- nir/fc2
I0707 07:07:14.236052  1973 net.cpp:380] img_nir/concat -> img_nir/concat
I0707 07:07:14.236078  1973 net.cpp:122] Setting up img_nir/concat
I0707 07:07:14.236085  1973 net.cpp:129] Top shape: 1 1000 (1000)
I0707 07:07:14.236088  1973 net.cpp:137] Memory required for data: 9362684
I0707 07:07:14.236093  1973 layer_factory.hpp:77] Creating layer img/fc4
I0707 07:07:14.236099  1973 net.cpp:84] Creating Layer img/fc4
I0707 07:07:14.236104  1973 net.cpp:406] img/fc4 <- img_nir/concat
I0707 07:07:14.236110  1973 net.cpp:380] img/fc4 -> img/fc4
I0707 07:07:14.256786  1973 net.cpp:122] Setting up img/fc4
I0707 07:07:14.256811  1973 net.cpp:129] Top shape: 1 4096 (4096)
I0707 07:07:14.256815  1973 net.cpp:137] Memory required for data: 9379068
I0707 07:07:14.256825  1973 layer_factory.hpp:77] Creating layer img_relu/fc4
I0707 07:07:14.256839  1973 net.cpp:84] Creating Layer img_relu/fc4
I0707 07:07:14.256844  1973 net.cpp:406] img_relu/fc4 <- img/fc4
I0707 07:07:14.256851  1973 net.cpp:367] img_relu/fc4 -> img/fc4 (in-place)
I0707 07:07:14.256922  1973 net.cpp:122] Setting up img_relu/fc4
I0707 07:07:14.256930  1973 net.cpp:129] Top shape: 1 4096 (4096)
I0707 07:07:14.256934  1973 net.cpp:137] Memory required for data: 9395452
I0707 07:07:14.256939  1973 layer_factory.hpp:77] Creating layer img/fc5
I0707 07:07:14.256948  1973 net.cpp:84] Creating Layer img/fc5
I0707 07:07:14.256953  1973 net.cpp:406] img/fc5 <- img/fc4
I0707 07:07:14.256959  1973 net.cpp:380] img/fc5 -> img/fc5
I0707 07:07:14.341540  1973 net.cpp:122] Setting up img/fc5
I0707 07:07:14.341567  1973 net.cpp:129] Top shape: 1 4096 (4096)
I0707 07:07:14.341572  1973 net.cpp:137] Memory required for data: 9411836
I0707 07:07:14.341581  1973 layer_factory.hpp:77] Creating layer img_relu/fc5
I0707 07:07:14.341590  1973 net.cpp:84] Creating Layer img_relu/fc5
I0707 07:07:14.341595  1973 net.cpp:406] img_relu/fc5 <- img/fc5
I0707 07:07:14.341601  1973 net.cpp:367] img_relu/fc5 -> img/fc5 (in-place)
I0707 07:07:14.341675  1973 net.cpp:122] Setting up img_relu/fc5
I0707 07:07:14.341683  1973 net.cpp:129] Top shape: 1 4096 (4096)
I0707 07:07:14.341687  1973 net.cpp:137] Memory required for data: 9428220
I0707 07:07:14.341693  1973 layer_factory.hpp:77] Creating layer img/fc6r
I0707 07:07:14.341701  1973 net.cpp:84] Creating Layer img/fc6r
I0707 07:07:14.341706  1973 net.cpp:406] img/fc6r <- img/fc5
I0707 07:07:14.341712  1973 net.cpp:380] img/fc6r -> img/fc6
I0707 07:07:14.362478  1973 net.cpp:122] Setting up img/fc6r
I0707 07:07:14.362504  1973 net.cpp:129] Top shape: 1 1000 (1000)
I0707 07:07:14.362509  1973 net.cpp:137] Memory required for data: 9432220
I0707 07:07:14.362519  1973 layer_factory.hpp:77] Creating layer img_relu/fc6r
I0707 07:07:14.362526  1973 net.cpp:84] Creating Layer img_relu/fc6r
I0707 07:07:14.362531  1973 net.cpp:406] img_relu/fc6r <- img/fc6
I0707 07:07:14.362537  1973 net.cpp:367] img_relu/fc6r -> img/fc6 (in-place)
I0707 07:07:14.362622  1973 net.cpp:122] Setting up img_relu/fc6r
I0707 07:07:14.362629  1973 net.cpp:129] Top shape: 1 1000 (1000)
I0707 07:07:14.362632  1973 net.cpp:137] Memory required for data: 9436220
I0707 07:07:14.362637  1973 layer_factory.hpp:77] Creating layer img/fc7
I0707 07:07:14.362646  1973 net.cpp:84] Creating Layer img/fc7
I0707 07:07:14.362650  1973 net.cpp:406] img/fc7 <- img/fc6
I0707 07:07:14.362658  1973 net.cpp:380] img/fc7 -> img/fc7
I0707 07:07:14.363183  1973 net.cpp:122] Setting up img/fc7
I0707 07:07:14.363190  1973 net.cpp:129] Top shape: 1 100 (100)
I0707 07:07:14.363194  1973 net.cpp:137] Memory required for data: 9436620
I0707 07:07:14.363200  1973 layer_factory.hpp:77] Creating layer img_relu/fc7
I0707 07:07:14.363227  1973 net.cpp:84] Creating Layer img_relu/fc7
I0707 07:07:14.363232  1973 net.cpp:406] img_relu/fc7 <- img/fc7
I0707 07:07:14.363239  1973 net.cpp:367] img_relu/fc7 -> img/fc7 (in-place)
I0707 07:07:14.363301  1973 net.cpp:122] Setting up img_relu/fc7
I0707 07:07:14.363308  1973 net.cpp:129] Top shape: 1 100 (100)
I0707 07:07:14.363312  1973 net.cpp:137] Memory required for data: 9437020
I0707 07:07:14.363317  1973 layer_factory.hpp:77] Creating layer img/fc8
I0707 07:07:14.363324  1973 net.cpp:84] Creating Layer img/fc8
I0707 07:07:14.363328  1973 net.cpp:406] img/fc8 <- img/fc7
I0707 07:07:14.363334  1973 net.cpp:380] img/fc8 -> img/fc8
I0707 07:07:14.363415  1973 net.cpp:122] Setting up img/fc8
I0707 07:07:14.363423  1973 net.cpp:129] Top shape: 1 5 (5)
I0707 07:07:14.363426  1973 net.cpp:137] Memory required for data: 9437040
I0707 07:07:14.363432  1973 layer_factory.hpp:77] Creating layer img_relu/fc8
I0707 07:07:14.363438  1973 net.cpp:84] Creating Layer img_relu/fc8
I0707 07:07:14.363442  1973 net.cpp:406] img_relu/fc8 <- img/fc8
I0707 07:07:14.363447  1973 net.cpp:367] img_relu/fc8 -> img/fc8 (in-place)
I0707 07:07:14.363508  1973 net.cpp:122] Setting up img_relu/fc8
I0707 07:07:14.363515  1973 net.cpp:129] Top shape: 1 5 (5)
I0707 07:07:14.363519  1973 net.cpp:137] Memory required for data: 9437060
I0707 07:07:14.363524  1973 layer_factory.hpp:77] Creating layer loss
I0707 07:07:14.363531  1973 net.cpp:84] Creating Layer loss
I0707 07:07:14.363534  1973 net.cpp:406] loss <- img/fc8
I0707 07:07:14.363539  1973 net.cpp:406] loss <- label
I0707 07:07:14.363546  1973 net.cpp:380] loss -> loss
I0707 07:07:14.363555  1973 layer_factory.hpp:77] Creating layer loss
…
  name: "data/img"
  type: "Data"
  top: "data/img"
  top: "label"
  include {
    phase: TEST
  }
  transform_param {
    scale: 0.0039215689
  }
  data_param {
    source: "/home/lod/master-thesis/LMDB-datasets/prepared_dataSets/dataSet_5c_150_5_2_val/img_val_db"
    batch_size: 1
    backend: LMDB
  }
}
layer {
  name: "data"
  type: "Data"
  top: "data"
  include {
    phase: TEST
  }
  data_param {
    source: "/home/lod/master-thesis/LMDB-datasets/prepared_dataSets/dataSet_5c_150_5_2_val/nir_val_db"
    batch_size: 1
    backend: LMDB
  }
}
layer {
  name: "nir_data/bn"
  type: "BatchNorm"
  bottom: "data"
  top: "nir_data/bn"
  batch_norm_param {
    moving_average_fraction: 0.9
  }
}
layer {
  name: "conv1_nir"
  type: "Convolution"
  bottom: "nir_data/bn"
  top: "conv1_nir"
  param {
    lr_mult: 1
    decay_mult: 1
  }
  param {
    lr_mult: 2
    decay_mult: 0
  }
  convolution_param {
    num_output: 235
    kernel_size: 1
    stride: 1
    weight_filler {
      type: "xavier"
    }
    bias_filler {
      type: "constant"
      value: 0
    }
  }
}
layer {
  name: "nir_relu/conv1"
  type: "PReLU"
  bottom: "conv1_nir"
  top: "conv1_nir"
}
layer {
  name: "nir/fc1"
  type: "InnerProduct"
  bottom: "conv1_nir"
  top: "nir/fc1"
  param {
    lr_mult: 1
    decay_mult: 1
  }
  param {
    lr_mult: 2
    decay_mult: 0
  }
  inner_product_param {
    num_output: 616
    weight_filler {
      type: "xavier"
    }
    bias_filler {
      type: "constant"
      value: 0
    }
  }
}
layer {
  name: "relu_nir/fc1"
  type: "PReLU"
  bottom: "nir/fc1"
  top: "nir/fc1"
}
layer {
  name: "nir/fc2"
  type: "InnerProduct"
  bottom: "nir/fc1"
  top: "nir/fc2"
  param {
    lr_mult: 1
    decay_mult: 1
  }
  param {
    lr_mult: 2
    decay_mult: 0
  }
  inner_product_param {
    num_output: 400
    weight_filler {
      type: "xavier"
    }
    bias_filler {
      type: "constant"
      value: 0
    }
  }
}
layer {
  name: "relu/fc2"
  type: "PReLU"
  bottom: "nir/fc2"
  top: "nir/fc2"
}
layer {
  name: "img_data/bn"
  type: "BatchNorm"
  bottom: "data/img"
  top: "img_data/bn"
  batch_norm_param {
    moving_average_fraction: 0.9
  }
}
layer {
  name: "conv1"
  type: "Convolution"
  bottom: "img_data/bn"
  top: "conv1"
  param {
    lr_mult: 0.0001
    decay_mult: 1
  }
  param {
    lr_mult: 0.0002
    decay_mult: 0
  }
  convolution_param {
    num_output: 96
    kernel_size: 11
    stride: 4
    weight_filler {
      type: "xavier"
    }
    bias_filler {
      type: "constant"
      value: 0
    }
  }
}
layer {
  name: "relu1conv1"
  type: "PReLU"
  bottom: "conv1"
  top: "conv1"
}
layer {
  name: "pool1"
  type: "Pooling"
  bottom: "conv1"
  top: "pool1"
  pooling_param {
    pool: MAX
    kernel_size: 3
    stride: 2
  }
}
layer {
  name: "conv2"
  type: "Convolution"
  bottom: "pool1"
  top: "conv2"
  param {
    lr_mult: 0.001
    decay_mult: 1
  }
  param {
    lr_mult: 0.002
    decay_mult: 0
  }
  convolution_param {
    num_output: 256
    pad: 2
    kernel_size: 5
    group: 2
    stride: 1
    weight_filler {
      type: "xavier"
    }
    bias_filler {
      type: "constant"
      value: 0
    }
  }
}
layer {
  name: "reluconv2"
  type: "PReLU"
  bottom: "conv2"
  top: "conv2"
}
layer {
  name: "pool2"
  type: "Pooling"
  bottom: "conv2"
  top: "pool2"
  pooling_param {
    pool: MAX
    kernel_size: 3
    stride: 2
  }
}
layer {
  name: "conv3"
  type: "Convolution"
  bottom: "pool2"
  top: "conv3"
  param {
    lr_mult: 0.01
    decay_mult: 1
  }
  param {
    lr_mult: 0.02
    decay_mult: 0
  }
  convolution_param {
    num_output: 384
    pad: 1
    kernel_size: 3
    stride: 1
    weight_filler {
      type: "xavier"
    }
    bias_filler {
      type: "constant"
      value: 0
    }
  }
}
layer {
  name: "reluconv3"
  type: "PReLU"
  bottom: "conv3"
  top: "conv3"
}
layer {
  name: "conv4"
  type: "Convolution"
  bottom: "conv3"
  top: "conv4"
  param {
    lr_mult: 0.1
    decay_mult: 1
  }
  param {
    lr_mult: 0.2
    decay_mult: 0
  }
  convolution_param {
    num_output: 384
    pad: 1
    kernel_size: 3
    group: 2
    stride: 1
    weight_filler {
      type: "xavier"
    }
    bias_filler {
      type: "constant"
      value: 0
    }
  }
}
layer {
  name: "reluconv4"
  type: "PReLU"
  bottom: "conv4"
  top: "conv4"
}
layer {
  name: "conv5"
  type: "Convolution"
  bottom: "conv4"
  top: "conv5"
  param {
    lr_mult: 1
    decay_mult: 1
  }
  param {
    lr_mult: 2
    decay_mult: 0
  }
  convolution_param {
    num_output: 256
    pad: 1
    kernel_size: 3
    group: 2
    stride: 1
    weight_filler {
      type: "xavier"
    }
    bias_filler {
      type: "constant"
      value: 0
    }
  }
}
layer {
  name: "reluconv5"
  type: "PReLU"
  bottom: "conv5"
  top: "conv5"
}
layer {
  name: "pool3"
  type: "Pooling"
  bottom: "conv5"
  top: "pool3"
  pooling_param {
    pool: MAX
    kernel_size: 3
    stride: 2
  }
}
layer {
  name: "img/flatten"
  type: "Flatten"
  bottom: "pool3"
  top: "img/flatten"
}
layer {
  name: "img/fc1"
  type: "InnerProduct"
  bottom: "img/flatten"
  top: "img/fc1"
  param {
    lr_mult: 1
    decay_mult: 1
  }
  param {
    lr_mult: 2
    decay_mult: 0
  }
  inner_product_param {
    num_output: 4096
    weight_filler {
      type: "xavier"
    }
    bias_filler {
      type: "constant"
      value: 0
    }
  }
}
layer {
  name: "img_relu/fc1"
  type: "PReLU"
  bottom: "img/fc1"
  top: "img/fc1"
}
layer {
  name: "img/fc2"
  type: "InnerProduct"
  bottom: "img/fc1"
  top: "img/fc2"
  param {
    lr_mult: 1
    decay_mult: 1
  }
  param {
    lr_mult: 2
    decay_mult: 0
  }
  inner_product_param {
    num_output: 4096
    weight_filler {
      type: "xavier"
    }
    bias_filler {
      type: "constant"
      value: 0
    }
  }
}
layer {
  name: "img_relu/fc2"
  type: "PReLU"
  bottom: "img/fc2"
  top: "img/fc2"
}
layer {
  name: "img/fc3_r"
  type: "InnerProduct"
  bottom: "img/fc2"
  top: "img/fc3"
  param {
    lr_mult: 1
    decay_mult: 1
  }
  param {
    lr_mult: 2
    decay_mult: 0
  }
  inner_product_param {
    num_output: 600
    weight_filler {
      type: "xavier"
    }
    bias_filler {
      type: "constant"
      value: 0
    }
  }
}
layer {
  name: "img_relu_r/fc3"
  type: "PReLU"
  bottom: "img/fc3"
  top: "img/fc3"
}
layer {
  name: "img_nir/concat"
  type: "Concat"
  bottom: "img/fc3"
  bottom: "nir/fc2"
  top: "img_nir/concat"
  concat_param {
    axis: 1
  }
}
layer {
  name: "img/fc4"
  type: "InnerProduct"
  bottom: "img_nir/concat"
  top: "img/fc4"
  param {
    lr_mult: 1
    decay_mult: 1
  }
  param {
    lr_mult: 2
    decay_mult: 0
  }
  inner_product_param {
    num_output: 4096
    weight_filler {
      type: "xavier"
    }
    bias_filler {
      type: "constant"
      value: 0
    }
  }
}
layer {
  name: "img_relu/fc4"
  type: "PReLU"
  bottom: "img/fc4"
  top: "img/fc4"
}
layer {
  name: "img/fc5"
  type: "InnerProduct"
  bottom: "img/fc4"
  top: "img/fc5"
  param {
    lr_mult: 1
    decay_mult: 1
  }
  param {
    lr_mult: 2
    decay_mult: 0
  }
  inner_product_param {
    num_output: 4096
    weight_filler {
      type: "xavier"
    }
    bias_filler {
      type: "constant"
      value: 0
    }
  }
}
layer {
  name: "img_relu/fc5"
  type: "PReLU"
  bottom: "img/fc5"
  top: "img/fc5"
}
layer {
  name: "img/fc6r"
  type: "InnerProduct"
  bottom: "img/fc5"
  top: "img/fc6"
  param {
    lr_mult: 1
    decay_mult: 1
  }
  param {
    lr_mult: 2
    decay_mult: 0
  }
  inner_product_param {
    num_output: 1000
    weight_filler {
      type: "xavier"
    }
    bias_filler {
      type: "constant"
      value: 0
    }
  }
}
layer {
  name: "img_relu/fc6r"
  type: "PReLU"
  bottom: "img/fc6"
  top: "img/fc6"
}
layer {
  name: "img/fc7"
  type: "InnerProduct"
  bottom: "img/fc6"
  top: "img/fc7"
  param {
    lr_mult: 1
    decay_mult: 1
  }
  param {
    lr_mult: 2
    decay_mult: 0
  }
  inner_product_param {
    num_output: 100
    weight_filler {
      type: "xavier"
    }
    bias_filler {
      type: "constant"
      value: 0
    }
  }
}
layer {
  name: "img_relu/fc7"
  type: "PReLU"
  bottom: "img/fc7"
  top: "img/fc7"
}
layer {
  name: "img/fc8"
  type: "InnerProduct"
  bottom: "img/fc7"
  top: "img/fc8"
  param {
    lr_mult: 1
    decay_mult: 1
  }
  param {
    lr_mult: 2
    decay_mult: 0
  }
  inner_product_param {
    num_output: 5
    weight_filler {
      type: "xavier"
    }
    bias_filler {
      type: "constant"
      value: 0
    }
  }
}
layer {
  name: "img_relu/fc8"
  type: "PReLU"
  bottom: "img/fc8"
  top: "img/fc8"
}
layer {
  name: "loss"
  type: "SoftmaxWithLoss"
  bottom: "img/fc8"
  bottom: "label"
  top: "loss"
}
layer {
  name: "accuracy"
  type: "Accuracy"
  bottom: "img/fc8"
  bottom: "label"
  top: "accuracy"
  include {
    phase: TEST
  }
}
I0707 07:07:14.365525  1973 layer_factory.hpp:77] Creating layer data/img
I0707 07:07:14.365581  1973 db_lmdb.cpp:35] Opened lmdb /home/lod/master-thesis/LMDB-datasets/prepared_dataSets/dataSet_5c_150_5_2_val/img_val_db
I0707 07:07:14.365597  1973 net.cpp:84] Creating Layer data/img
I0707 07:07:14.365602  1973 net.cpp:380] data/img -> data/img
I0707 07:07:14.365612  1973 net.cpp:380] data/img -> label
I0707 07:07:14.365763  1973 data_layer.cpp:45] output data size: 1,3,227,227
I0707 07:07:14.367853  1973 net.cpp:122] Setting up data/img
I0707 07:07:14.367866  1973 net.cpp:129] Top shape: 1 3 227 227 (154587)
I0707 07:07:14.367871  1973 net.cpp:129] Top shape: 1 (1)
I0707 07:07:14.367875  1973 net.cpp:137] Memory required for data: 618352
I0707 07:07:14.367879  1973 layer_factory.hpp:77] Creating layer label_data/img_1_split
I0707 07:07:14.367887  1973 net.cpp:84] Creating Layer label_data/img_1_split
I0707 07:07:14.367890  1973 net.cpp:406] label_data/img_1_split <- label
I0707 07:07:14.367897  1973 net.cpp:380] label_data/img_1_split -> label_data/img_1_split_0
I0707 07:07:14.367904  1973 net.cpp:380] label_data/img_1_split -> label_data/img_1_split_1
I0707 07:07:14.367947  1973 net.cpp:122] Setting up label_data/img_1_split
I0707 07:07:14.367954  1973 net.cpp:129] Top shape: 1 (1)
I0707 07:07:14.367959  1973 net.cpp:129] Top shape: 1 (1)
I0707 07:07:14.367962  1973 net.cpp:137] Memory required for data: 618360
I0707 07:07:14.367975  1973 layer_factory.hpp:77] Creating layer data
I0707 07:07:14.368013  1973 db_lmdb.cpp:35] Opened lmdb /home/lod/master-thesis/LMDB-datasets/prepared_dataSets/dataSet_5c_150_5_2_val/nir_val_db
I0707 07:07:14.368028  1973 net.cpp:84] Creating Layer data
I0707 07:07:14.368036  1973 net.cpp:380] data -> data
I0707 07:07:14.368460  1973 data_layer.cpp:45] output data size: 1,235,11,56
I0707 07:07:14.370582  1973 net.cpp:122] Setting up data
I0707 07:07:14.370595  1973 net.cpp:129] Top shape: 1 235 11 56 (144760)
I0707 07:07:14.370599  1973 net.cpp:137] Memory required for data: 1197400
I0707 07:07:14.370604  1973 layer_factory.hpp:77] Creating layer nir_data/bn
I0707 07:07:14.370611  1973 net.cpp:84] Creating Layer nir_data/bn
I0707 07:07:14.370615  1973 net.cpp:406] nir_data/bn <- data
I0707 07:07:14.370621  1973 net.cpp:380] nir_data/bn -> nir_data/bn
I0707 07:07:14.370802  1973 net.cpp:122] Setting up nir_data/bn
I0707 07:07:14.370810  1973 net.cpp:129] Top shape: 1 235 11 56 (144760)
I0707 07:07:14.370815  1973 net.cpp:137] Memory required for data: 1776440
I0707 07:07:14.370828  1973 layer_factory.hpp:77] Creating layer conv1_nir
I0707 07:07:14.370842  1973 net.cpp:84] Creating Layer conv1_nir
I0707 07:07:14.370847  1973 net.cpp:406] conv1_nir <- nir_data/bn
I0707 07:07:14.370854  1973 net.cpp:380] conv1_nir -> conv1_nir
I0707 07:07:14.372107  1973 net.cpp:122] Setting up conv1_nir
I0707 07:07:14.372119  1973 net.cpp:129] Top shape: 1 235 11 56 (144760)
I0707 07:07:14.372124  1973 net.cpp:137] Memory required for data: 2355480
I0707 07:07:14.372133  1973 layer_factory.hpp:77] Creating layer nir_relu/conv1
I0707 07:07:14.372140  1973 net.cpp:84] Creating Layer nir_relu/conv1
I0707 07:07:14.372146  1973 net.cpp:406] nir_relu/conv1 <- conv1_nir
I0707 07:07:14.372153  1973 net.cpp:367] nir_relu/conv1 -> conv1_nir (in-place)
I0707 07:07:14.372313  1973 net.cpp:122] Setting up nir_relu/conv1
I0707 07:07:14.372323  1973 net.cpp:129] Top shape: 1 235 11 56 (144760)
I0707 07:07:14.372325  1973 net.cpp:137] Memory required for data: 2934520
I0707 07:07:14.372331  1973 layer_factory.hpp:77] Creating layer nir/fc1
I0707 07:07:14.372339  1973 net.cpp:84] Creating Layer nir/fc1
I0707 07:07:14.372344  1973 net.cpp:406] nir/fc1 <- conv1_nir
I0707 07:07:14.372350  1973 net.cpp:380] nir/fc1 -> nir/fc1
I0707 07:07:14.820318  1973 net.cpp:122] Setting up nir/fc1
I0707 07:07:14.820348  1973 net.cpp:129] Top shape: 1 616 (616)
I0707 07:07:14.820351  1973 net.cpp:137] Memory required for data: 2936984
I0707 07:07:14.820361  1973 layer_factory.hpp:77] Creating layer relu_nir/fc1
I0707 07:07:14.820371  1973 net.cpp:84] Creating Layer relu_nir/fc1
I0707 07:07:14.820376  1973 net.cpp:406] relu_nir/fc1 <- nir/fc1
I0707 07:07:14.820384  1973 net.cpp:367] relu_nir/fc1 -> nir/fc1 (in-place)
I0707 07:07:14.820461  1973 net.cpp:122] Setting up relu_nir/fc1
I0707 07:07:14.820469  1973 net.cpp:129] Top shape: 1 616 (616)
I0707 07:07:14.820473  1973 net.cpp:137] Memory required for data: 2939448
I0707 07:07:14.820483  1973 layer_factory.hpp:77] Creating layer nir/fc2
I0707 07:07:14.820494  1973 net.cpp:84] Creating Layer nir/fc2
I0707 07:07:14.820500  1973 net.cpp:406] nir/fc2 <- nir/fc1
I0707 07:07:14.820508  1973 net.cpp:380] nir/fc2 -> nir/fc2
I0707 07:07:14.822363  1973 net.cpp:122] Setting up nir/fc2
I0707 07:07:14.822376  1973 net.cpp:129] Top shape: 1 400 (400)
I0707 07:07:14.822381  1973 net.cpp:137] Memory required for data: 2941048
I0707 07:07:14.822387  1973 layer_factory.hpp:77] Creating layer relu/fc2
I0707 07:07:14.822394  1973 net.cpp:84] Creating Layer relu/fc2
I0707 07:07:14.822398  1973 net.cpp:406] relu/fc2 <- nir/fc2
I0707 07:07:14.822404  1973 net.cpp:367] relu/fc2 -> nir/fc2 (in-place)
I0707 07:07:14.822477  1973 net.cpp:122] Setting up relu/fc2
I0707 07:07:14.822486  1973 net.cpp:129] Top shape: 1 400 (400)
I0707 07:07:14.822489  1973 net.cpp:137] Memory required for data: 2942648
I0707 07:07:14.822494  1973 layer_factory.hpp:77] Creating layer img_data/bn
I0707 07:07:14.822502  1973 net.cpp:84] Creating Layer img_data/bn
I0707 07:07:14.822526  1973 net.cpp:406] img_data/bn <- data/img
I0707 07:07:14.822533  1973 net.cpp:380] img_data/bn -> img_data/bn
I0707 07:07:14.822715  1973 net.cpp:122] Setting up img_data/bn
I0707 07:07:14.822723  1973 net.cpp:129] Top shape: 1 3 227 227 (154587)
I0707 07:07:14.822727  1973 net.cpp:137] Memory required for data: 3560996
I0707 07:07:14.822736  1973 layer_factory.hpp:77] Creating layer conv1
I0707 07:07:14.822747  1973 net.cpp:84] Creating Layer conv1
I0707 07:07:14.822754  1973 net.cpp:406] conv1 <- img_data/bn
I0707 07:07:14.822762  1973 net.cpp:380] conv1 -> conv1
I0707 07:07:14.823484  1973 net.cpp:122] Setting up conv1
I0707 07:07:14.823496  1973 net.cpp:129] Top shape: 1 96 55 55 (290400)
I0707 07:07:14.823500  1973 net.cpp:137] Memory required for data: 4722596
I0707 07:07:14.823510  1973 layer_factory.hpp:77] Creating layer relu1conv1
I0707 07:07:14.823518  1973 net.cpp:84] Creating Layer relu1conv1
I0707 07:07:14.823521  1973 net.cpp:406] relu1conv1 <- conv1
I0707 07:07:14.823527  1973 net.cpp:367] relu1conv1 -> conv1 (in-place)
I0707 07:07:14.824316  1973 net.cpp:122] Setting up relu1conv1
I0707 07:07:14.824328  1973 net.cpp:129] Top shape: 1 96 55 55 (290400)
I0707 07:07:14.824333  1973 net.cpp:137] Memory required for data: 5884196
I0707 07:07:14.824339  1973 layer_factory.hpp:77] Creating layer pool1
I0707 07:07:14.824347  1973 net.cpp:84] Creating Layer pool1
I0707 07:07:14.824352  1973 net.cpp:406] pool1 <- conv1
I0707 07:07:14.824357  1973 net.cpp:380] pool1 -> pool1
I0707 07:07:14.824394  1973 net.cpp:122] Setting up pool1
I0707 07:07:14.824403  1973 net.cpp:129] Top shape: 1 96 27 27 (69984)
I0707 07:07:14.824405  1973 net.cpp:137] Memory required for data: 6164132
I0707 07:07:14.824409  1973 layer_factory.hpp:77] Creating layer conv2
I0707 07:07:14.824419  1973 net.cpp:84] Creating Layer conv2
I0707 07:07:14.824424  1973 net.cpp:406] conv2 <- pool1
I0707 07:07:14.824429  1973 net.cpp:380] conv2 -> conv2
I0707 07:07:14.827944  1973 net.cpp:122] Setting up conv2
I0707 07:07:14.827956  1973 net.cpp:129] Top shape: 1 256 27 27 (186624)
I0707 07:07:14.827961  1973 net.cpp:137] Memory required for data: 6910628
I0707 07:07:14.827968  1973 layer_factory.hpp:77] Creating layer reluconv2
I0707 07:07:14.827975  1973 net.cpp:84] Creating Layer reluconv2
I0707 07:07:14.827980  1973 net.cpp:406] reluconv2 <- conv2
I0707 07:07:14.827986  1973 net.cpp:367] reluconv2 -> conv2 (in-place)
I0707 07:07:14.828110  1973 net.cpp:122] Setting up reluconv2
I0707 07:07:14.828119  1973 net.cpp:129] Top shape: 1 256 27 27 (186624)
I0707 07:07:14.828122  1973 net.cpp:137] Memory required for data: 7657124
I0707 07:07:14.828128  1973 layer_factory.hpp:77] Creating layer pool2
I0707 07:07:14.828136  1973 net.cpp:84] Creating Layer pool2
I0707 07:07:14.828140  1973 net.cpp:406] pool2 <- conv2
I0707 07:07:14.828146  1973 net.cpp:380] pool2 -> pool2
I0707 07:07:14.828179  1973 net.cpp:122] Setting up pool2
I0707 07:07:14.828187  1973 net.cpp:129] Top shape: 1 256 13 13 (43264)
I0707 07:07:14.828191  1973 net.cpp:137] Memory required for data: 7830180
I0707 07:07:14.828194  1973 layer_factory.hpp:77] Creating layer conv3
I0707 07:07:14.828204  1973 net.cpp:84] Creating Layer conv3
I0707 07:07:14.828208  1973 net.cpp:406] conv3 <- pool2
I0707 07:07:14.828215  1973 net.cpp:380] conv3 -> conv3
I0707 07:07:14.834036  1973 net.cpp:122] Setting up conv3
I0707 07:07:14.834049  1973 net.cpp:129] Top shape: 1 384 13 13 (64896)
I0707 07:07:14.834053  1973 net.cpp:137] Memory required for data: 8089764
I0707 07:07:14.834061  1973 layer_factory.hpp:77] Creating layer reluconv3
I0707 07:07:14.834069  1973 net.cpp:84] Creating Layer reluconv3
I0707 07:07:14.834072  1973 net.cpp:406] reluconv3 <- conv3
I0707 07:07:14.834079  1973 net.cpp:367] reluconv3 -> conv3 (in-place)
I0707 07:07:14.834190  1973 net.cpp:122] Setting up reluconv3
I0707 07:07:14.834200  1973 net.cpp:129] Top shape: 1 384 13 13 (64896)
I0707 07:07:14.834203  1973 net.cpp:137] Memory required for data: 8349348
I0707 07:07:14.834209  1973 layer_factory.hpp:77] Creating layer conv4
I0707 07:07:14.834231  1973 net.cpp:84] Creating Layer conv4
I0707 07:07:14.834239  1973 net.cpp:406] conv4 <- conv3
I0707 07:07:14.834246  1973 net.cpp:380] conv4 -> conv4
I0707 07:07:14.839717  1973 net.cpp:122] Setting up conv4
I0707 07:07:14.839730  1973 net.cpp:129] Top shape: 1 384 13 13 (64896)
I0707 07:07:14.839735  1973 net.cpp:137] Memory required for data: 8608932
I0707 07:07:14.839742  1973 layer_factory.hpp:77] Creating layer reluconv4
I0707 07:07:14.839749  1973 net.cpp:84] Creating Layer reluconv4
I0707 07:07:14.839753  1973 net.cpp:406] reluconv4 <- conv4
I0707 07:07:14.839759  1973 net.cpp:367] reluconv4 -> conv4 (in-place)
I0707 07:07:14.840481  1973 net.cpp:122] Setting up reluconv4
I0707 07:07:14.840492  1973 net.cpp:129] Top shape: 1 384 13 13 (64896)
I0707 07:07:14.840497  1973 net.cpp:137] Memory required for data: 8868516
I0707 07:07:14.840503  1973 layer_factory.hpp:77] Creating layer conv5
I0707 07:07:14.840514  1973 net.cpp:84] Creating Layer conv5
I0707 07:07:14.840518  1973 net.cpp:406] conv5 <- conv4
I0707 07:07:14.840525  1973 net.cpp:380] conv5 -> conv5
I0707 07:07:14.845002  1973 net.cpp:122] Setting up conv5
I0707 07:07:14.845016  1973 net.cpp:129] Top shape: 1 256 13 13 (43264)
I0707 07:07:14.845021  1973 net.cpp:137] Memory required for data: 9041572
I0707 07:07:14.845028  1973 layer_factory.hpp:77] Creating layer reluconv5
I0707 07:07:14.845034  1973 net.cpp:84] Creating Layer reluconv5
I0707 07:07:14.845039  1973 net.cpp:406] reluconv5 <- conv5
I0707 07:07:14.845046  1973 net.cpp:367] reluconv5 -> conv5 (in-place)
I0707 07:07:14.845129  1973 net.cpp:122] Setting up reluconv5
I0707 07:07:14.845139  1973 net.cpp:129] Top shape: 1 256 13 13 (43264)
I0707 07:07:14.845141  1973 net.cpp:137] Memory required for data: 9214628
I0707 07:07:14.845147  1973 layer_factory.hpp:77] Creating layer pool3
I0707 07:07:14.845155  1973 net.cpp:84] Creating Layer pool3
I0707 07:07:14.845158  1973 net.cpp:406] pool3 <- conv5
I0707 07:07:14.845165  1973 net.cpp:380] pool3 -> pool3
I0707 07:07:14.845201  1973 net.cpp:122] Setting up pool3
I0707 07:07:14.845208  1973 net.cpp:129] Top shape: 1 256 6 6 (9216)
I0707 07:07:14.845211  1973 net.cpp:137] Memory required for data: 9251492
I0707 07:07:14.845214  1973 layer_factory.hpp:77] Creating layer img/flatten
I0707 07:07:14.845221  1973 net.cpp:84] Creating Layer img/flatten
I0707 07:07:14.845226  1973 net.cpp:406] img/flatten <- pool3
I0707 07:07:14.845230  1973 net.cpp:380] img/flatten -> img/flatten
I0707 07:07:14.845255  1973 net.cpp:122] Setting up img/flatten
I0707 07:07:14.845263  1973 net.cpp:129] Top shape: 1 9216 (9216)
I0707 07:07:14.845265  1973 net.cpp:137] Memory required for data: 9288356
I0707 07:07:14.845269  1973 layer_factory.hpp:77] Creating layer img/fc1
I0707 07:07:14.845276  1973 net.cpp:84] Creating Layer img/fc1
I0707 07:07:14.845280  1973 net.cpp:406] img/fc1 <- img/flatten
I0707 07:07:14.845286  1973 net.cpp:380] img/fc1 -> img/fc1
I0707 07:07:15.035131  1973 net.cpp:122] Setting up img/fc1
I0707 07:07:15.035156  1973 net.cpp:129] Top shape: 1 4096 (4096)
I0707 07:07:15.035161  1973 net.cpp:137] Memory required for data: 9304740
I0707 07:07:15.035169  1973 layer_factory.hpp:77] Creating layer img_relu/fc1
I0707 07:07:15.035178  1973 net.cpp:84] Creating Layer img_relu/fc1
I0707 07:07:15.035183  1973 net.cpp:406] img_relu/fc1 <- img/fc1
I0707 07:07:15.035190  1973 net.cpp:367] img_relu/fc1 -> img/fc1 (in-place)
I0707 07:07:15.035265  1973 net.cpp:122] Setting up img_relu/fc1
I0707 07:07:15.035274  1973 net.cpp:129] Top shape: 1 4096 (4096)
I0707 07:07:15.035277  1973 net.cpp:137] Memory required for data: 9321124
I0707 07:07:15.035290  1973 layer_factory.hpp:77] Creating layer img/fc2
I0707 07:07:15.035297  1973 net.cpp:84] Creating Layer img/fc2
I0707 07:07:15.035301  1973 net.cpp:406] img/fc2 <- img/fc1
I0707 07:07:15.035307  1973 net.cpp:380] img/fc2 -> img/fc2
I0707 07:07:15.119916  1973 net.cpp:122] Setting up img/fc2
I0707 07:07:15.119945  1973 net.cpp:129] Top shape: 1 4096 (4096)
I0707 07:07:15.119948  1973 net.cpp:137] Memory required for data: 9337508
I0707 07:07:15.119983  1973 layer_factory.hpp:77] Creating layer img_relu/fc2
I0707 07:07:15.119994  1973 net.cpp:84] Creating Layer img_relu/fc2
I0707 07:07:15.120005  1973 net.cpp:406] img_relu/fc2 <- img/fc2
I0707 07:07:15.120013  1973 net.cpp:367] img_relu/fc2 -> img/fc2 (in-place)
I0707 07:07:15.120087  1973 net.cpp:122] Setting up img_relu/fc2
I0707 07:07:15.120095  1973 net.cpp:129] Top shape: 1 4096 (4096)
I0707 07:07:15.120100  1973 net.cpp:137] Memory required for data: 9353892
I0707 07:07:15.120105  1973 layer_factory.hpp:77] Creating layer img/fc3_r
I0707 07:07:15.120112  1973 net.cpp:84] Creating Layer img/fc3_r
I0707 07:07:15.120116  1973 net.cpp:406] img/fc3_r <- img/fc2
I0707 07:07:15.120122  1973 net.cpp:380] img/fc3_r -> img/fc3
I0707 07:07:15.132421  1973 net.cpp:122] Setting up img/fc3_r
I0707 07:07:15.132436  1973 net.cpp:129] Top shape: 1 600 (600)
I0707 07:07:15.132439  1973 net.cpp:137] Memory required for data: 9356292
I0707 07:07:15.132447  1973 layer_factory.hpp:77] Creating layer img_relu_r/fc3
I0707 07:07:15.132455  1973 net.cpp:84] Creating Layer img_relu_r/fc3
I0707 07:07:15.132459  1973 net.cpp:406] img_relu_r/fc3 <- img/fc3
I0707 07:07:15.132465  1973 net.cpp:367] img_relu_r/fc3 -> img/fc3 (in-place)
I0707 07:07:15.132547  1973 net.cpp:122] Setting up img_relu_r/fc3
I0707 07:07:15.132555  1973 net.cpp:129] Top shape: 1 600 (600)
I0707 07:07:15.132558  1973 net.cpp:137] Memory required for data: 9358692
I0707 07:07:15.132565  1973 layer_factory.hpp:77] Creating layer img_nir/concat
I0707 07:07:15.132572  1973 net.cpp:84] Creating Layer img_nir/concat
I0707 07:07:15.132576  1973 net.cpp:406] img_nir/concat <- img/fc3
I0707 07:07:15.132581  1973 net.cpp:406] img_nir/concat <- nir/fc2
I0707 07:07:15.132587  1973 net.cpp:380] img_nir/concat -> img_nir/concat
I0707 07:07:15.132613  1973 net.cpp:122] Setting up img_nir/concat
I0707 07:07:15.132621  1973 net.cpp:129] Top shape: 1 1000 (1000)
I0707 07:07:15.132623  1973 net.cpp:137] Memory required for data: 9362692
I0707 07:07:15.132627  1973 layer_factory.hpp:77] Creating layer img/fc4
I0707 07:07:15.132639  1973 net.cpp:84] Creating Layer img/fc4
I0707 07:07:15.132643  1973 net.cpp:406] img/fc4 <- img_nir/concat
I0707 07:07:15.132650  1973 net.cpp:380] img/fc4 -> img/fc4
I0707 07:07:15.153340  1973 net.cpp:122] Setting up img/fc4
I0707 07:07:15.153364  1973 net.cpp:129] Top shape: 1 4096 (4096)
I0707 07:07:15.153368  1973 net.cpp:137] Memory required for data: 9379076
I0707 07:07:15.153378  1973 layer_factory.hpp:77] Creating layer img_relu/fc4
I0707 07:07:15.153386  1973 net.cpp:84] Creating Layer img_relu/fc4
I0707 07:07:15.153391  1973 net.cpp:406] img_relu/fc4 <- img/fc4
I0707 07:07:15.153398  1973 net.cpp:367] img_relu/fc4 -> img/fc4 (in-place)
I0707 07:07:15.153471  1973 net.cpp:122] Setting up img_relu/fc4
I0707 07:07:15.153481  1973 net.cpp:129] Top shape: 1 4096 (4096)
I0707 07:07:15.153483  1973 net.cpp:137] Memory required for data: 9395460
I0707 07:07:15.153489  1973 layer_factory.hpp:77] Creating layer img/fc5
I0707 07:07:15.153496  1973 net.cpp:84] Creating Layer img/fc5
I0707 07:07:15.153499  1973 net.cpp:406] img/fc5 <- img/fc4
I0707 07:07:15.153506  1973 net.cpp:380] img/fc5 -> img/fc5
I0707 07:07:15.238114  1973 net.cpp:122] Setting up img/fc5
I0707 07:07:15.238142  1973 net.cpp:129] Top shape: 1 4096 (4096)
I0707 07:07:15.238147  1973 net.cpp:137] Memory required for data: 9411844
I0707 07:07:15.238157  1973 layer_factory.hpp:77] Creating layer img_relu/fc5
I0707 07:07:15.238167  1973 net.cpp:84] Creating Layer img_relu/fc5
I0707 07:07:15.238171  1973 net.cpp:406] img_relu/fc5 <- img/fc5
I0707 07:07:15.238178  1973 net.cpp:367] img_relu/fc5 -> img/fc5 (in-place)
I0707 07:07:15.238253  1973 net.cpp:122] Setting up img_relu/fc5
I0707 07:07:15.238261  1973 net.cpp:129] Top shape: 1 4096 (4096)
I0707 07:07:15.238265  1973 net.cpp:137] Memory required for data: 9428228
I0707 07:07:15.238271  1973 layer_factory.hpp:77] Creating layer img/fc6r
I0707 07:07:15.238279  1973 net.cpp:84] Creating Layer img/fc6r
I0707 07:07:15.238301  1973 net.cpp:406] img/fc6r <- img/fc5
I0707 07:07:15.238308  1973 net.cpp:380] img/fc6r -> img/fc6
I0707 07:07:15.259112  1973 net.cpp:122] Setting up img/fc6r
I0707 07:07:15.259136  1973 net.cpp:129] Top shape: 1 1000 (1000)
I0707 07:07:15.259140  1973 net.cpp:137] Memory required for data: 9432228
I0707 07:07:15.259150  1973 layer_factory.hpp:77] Creating layer img_relu/fc6r
I0707 07:07:15.259160  1973 net.cpp:84] Creating Layer img_relu/fc6r
I0707 07:07:15.259163  1973 net.cpp:406] img_relu/fc6r <- img/fc6
I0707 07:07:15.259171  1973 net.cpp:367] img_relu/fc6r -> img/fc6 (in-place)
I0707 07:07:15.259256  1973 net.cpp:122] Setting up img_relu/fc6r
I0707 07:07:15.259264  1973 net.cpp:129] Top shape: 1 1000 (1000)
I0707 07:07:15.259268  1973 net.cpp:137] Memory required for data: 9436228
I0707 07:07:15.259274  1973 layer_factory.hpp:77] Creating layer img/fc7
I0707 07:07:15.259281  1973 net.cpp:84] Creating Layer img/fc7
I0707 07:07:15.259286  1973 net.cpp:406] img/fc7 <- img/fc6
I0707 07:07:15.259292  1973 net.cpp:380] img/fc7 -> img/fc7
I0707 07:07:15.259827  1973 net.cpp:122] Setting up img/fc7
I0707 07:07:15.259836  1973 net.cpp:129] Top shape: 1 100 (100)
I0707 07:07:15.259840  1973 net.cpp:137] Memory required for data: 9436628
I0707 07:07:15.259846  1973 layer_factory.hpp:77] Creating layer img_relu/fc7
I0707 07:07:15.259852  1973 net.cpp:84] Creating Layer img_relu/fc7
I0707 07:07:15.259856  1973 net.cpp:406] img_relu/fc7 <- img/fc7
I0707 07:07:15.259861  1973 net.cpp:367] img_relu/fc7 -> img/fc7 (in-place)
I0707 07:07:15.259929  1973 net.cpp:122] Setting up img_relu/fc7
I0707 07:07:15.259937  1973 net.cpp:129] Top shape: 1 100 (100)
I0707 07:07:15.259940  1973 net.cpp:137] Memory required for data: 9437028
I0707 07:07:15.259945  1973 layer_factory.hpp:77] Creating layer img/fc8
I0707 07:07:15.259953  1973 net.cpp:84] Creating Layer img/fc8
I0707 07:07:15.259956  1973 net.cpp:406] img/fc8 <- img/fc7
I0707 07:07:15.259963  1973 net.cpp:380] img/fc8 -> img/fc8
I0707 07:07:15.260051  1973 net.cpp:122] Setting up img/fc8
I0707 07:07:15.260058  1973 net.cpp:129] Top shape: 1 5 (5)
I0707 07:07:15.260062  1973 net.cpp:137] Memory required for data: 9437048
I0707 07:07:15.260068  1973 layer_factory.hpp:77] Creating layer img_relu/fc8
I0707 07:07:15.260074  1973 net.cpp:84] Creating Layer img_relu/fc8
I0707 07:07:15.260078  1973 net.cpp:406] img_relu/fc8 <- img/fc8
I0707 07:07:15.260083  1973 net.cpp:367] img_relu/fc8 -> img/fc8 (in-place)
I0707 07:07:15.260149  1973 net.cpp:122] Setting up img_relu/fc8
I0707 07:07:15.260156  1973 net.cpp:129] Top shape: 1 5 (5)
I0707 07:07:15.260160  1973 net.cpp:137] Memory required for data: 9437068
I0707 07:07:15.260165  1973 layer_factory.hpp:77] Creating layer img/fc8_img_relu/fc8_0_split
I0707 07:07:15.260171  1973 net.cpp:84] Creating Layer img/fc8_img_relu/fc8_0_split
I0707 07:07:15.260175  1973 net.cpp:406] img/fc8_img_relu/fc8_0_split <- img/fc8
I0707 07:07:15.260180  1973 net.cpp:380] img/fc8_img_relu/fc8_0_split -> img/fc8_img_relu/fc8_0_split_0
I0707 07:07:15.260187  1973 net.cpp:380] img/fc8_img_relu/fc8_0_split -> img/fc8_img_relu/fc8_0_split_1
I0707 07:07:15.260221  1973 net.cpp:122] Setting up img/fc8_img_relu/fc8_0_split
I0707 07:07:15.260228  1973 net.cpp:129] Top shape: 1 5 (5)
I0707 07:07:15.260232  1973 net.cpp:129] Top shape: 1 5 (5)
I0707 07:07:15.260236  1973 net.cpp:137] Memory required for data: 9437108
I0707 07:07:15.260238  1973 layer_factory.hpp:77] Creating layer loss
I0707 07:07:15.260244  1973 net.cpp:84] Creating Layer loss
I0707 07:07:15.260248  1973 net.cpp:406] loss <- img/fc8_img_relu/fc8_0_split_0
I0707 07:07:15.260254  1973 net.cpp:406] loss <- label_data/img_1_split_0
I0707 07:07:15.260259  1973 net.cpp:380] loss -> loss
…
