…
I0304 08:41:59.896389  7956 solver.cpp:87] Creating training net from net file: /home/lod/master-thesis/examples/master-thesis/building_model/train-poolinglayer.prototxt
I0304 08:41:59.896785  7956 net.cpp:294] The NetState phase (0) differed from the phase (1) specified by a rule in layer data
I0304 08:41:59.896904  7956 net.cpp:51] Initializing net from parameters: 
name: "buildingnetwork"
state {
  phase: TRAIN
  level: 0
  stage: ""
}
layer {
  name: "data"
  type: "Data"
  top: "data"
  include {
    phase: TRAIN
  }
  transform_param {
    scale: 0.0039215684
  }
  data_param {
    source: "/home/lod/master-thesis/LMDB-datasets/trashnet384x384-new/train_lmdb"
    batch_size: 1
    backend: LMDB
  }
}
layer {
  name: "conv1"
  type: "Convolution"
  bottom: "data"
  top: "conv1"
  param {
    lr_mult: 1
    decay_mult: 1
  }
  param {
    lr_mult: 2
    decay_mult: 0
  }
  convolution_param {
    num_output: 512
    kernel_size: 11
    stride: 4
    weight_filler {
      type: "gaussian"
    }
    bias_filler {
      type: "constant"
      value: 0
    }
  }
}
layer {
  name: "sign1conv1"
  type: "Sigmoid"
  bottom: "conv1"
  top: "conv1"
}
layer {
  name: "pool1"
  type: "Pooling"
  bottom: "conv1"
  top: "pool1"
  pooling_param {
    pool: MAX
    kernel_size: 2
    stride: 2
  }
}
layer {
  name: "conv2"
  type: "Convolution"
  bottom: "pool1"
  top: "conv2"
  param {
    lr_mult: 1
    decay_mult: 1
  }
  param {
    lr_mult: 2
    decay_mult: 0
  }
  convolution_param {
    num_output: 256
    kernel_size: 5
    stride: 1
    weight_filler {
      type: "gaussian"
    }
    bias_filler {
      type: "constant"
      value: 0
    }
  }
}
layer {
  name: "sig2conv2"
  type: "Sigmoid"
  bottom: "conv2"
  top: "conv2"
}
layer {
  name: "pool2"
  type: "Pooling"
  bottom: "conv2"
  top: "pool2"
  pooling_param {
    pool: MAX
    kernel_size: 2
    stride: 2
  }
}
layer {
  name: "conv3"
  type: "Convolution"
  bottom: "pool2"
  top: "conv3"
  param {
    lr_mult: 1
    decay_mult: 1
  }
  param {
    lr_mult: 2
    decay_mult: 0
  }
  convolution_param {
    num_output: 128
    pad: 1
    kernel_size: 3
    stride: 1
    weight_filler {
      type: "gaussian"
    }
    bias_filler {
      type: "constant"
      value: 0
    }
  }
}
layer {
  name: "sig3conv3"
  type: "Sigmoid"
  bottom: "conv3"
  top: "conv3"
}
layer {
  name: "deconv3"
  type: "Deconvolution"
  bottom: "conv3"
  top: "deconv3"
  param {
    lr_mult: 1
    decay_mult: 1
  }
  param {
    lr_mult: 2
    decay_mult: 0
  }
  convolution_param {
    num_output: 128
    kernel_size: 1
    stride: 1
    weight_filler {
      type: "gaussian"
    }
    bias_filler {
      type: "constant"
      value: 0
    }
  }
}
layer {
  name: "deconv3sig3"
  type: "Sigmoid"
  bottom: "deconv3"
  top: "deconv3"
}
layer {
  name: "unpool3"
  type: "UNPOOLING"
  bottom: "deconv3"
  top: "unpool3"
  unpooling_param {
    unpool: MAX
    kernel_size: 2
    stride: 2
    unpool_size: 44
  }
}
layer {
  name: "deconv2"
  type: "Deconvolution"
  bottom: "unpool3"
  top: "deconv2"
  param {
    lr_mult: 1
    decay_mult: 1
  }
  param {
    lr_mult: 2
    decay_mult: 0
  }
  convolution_param {
    num_output: 256
    kernel_size: 1
    stride: 1
    weight_filler {
      type: "gaussian"
    }
    bias_filler {
      type: "constant"
      value: 0
    }
  }
}
layer {
  name: "deconv2sig2"
  type: "Sigmoid"
  bottom: "deconv2"
  top: "deconv2"
}
layer {
  name: "unpool2"
  type: "UNPOOLING"
  bottom: "deconv2"
  top: "unpool2"
  unpooling_param {
    unpool: MAX
    kernel_size: 2
    stride: 2
    unpool_size: 88
  }
}
layer {
  name: "deconv1"
  type: "Deconvolution"
  bottom: "unpool2"
  top: "deconv1"
  param {
    lr_mult: 1
    decay_mult: 1
  }
  param {
    lr_mult: 2
    decay_mult: 0
  }
  convolution_param {
    num_output: 512
    kernel_size: 8
    stride: 1
    weight_filler {
      type: "gaussian"
    }
    bias_filler {
      type: "constant"
      value: 0
    }
  }
}
layer {
  name: "deconv1sig1"
  type: "Sigmoid"
  bottom: "deconv1"
  top: "deconv1"
}
layer {
  name: "deconv0"
  type: "Deconvolution"
  bottom: "deconv1"
  top: "deconv0"
  param {
    lr_mult: 1
    decay_mult: 1
  }
  param {
    lr_mult: 2
    decay_mult: 0
  }
  convolution_param {
    num_output: 3
    kernel_size: 8
    stride: 4
    weight_filler {
      type: "gaussian"
    }
    bias_filler {
      type: "constant"
      value: 0
    }
  }
}
layer {
  name: "loss"
  type: "EuclideanLoss"
  bottom: "deconv0"
  bottom: "data"
  top: "l2_error"
  loss_weight: 1
}
I0304 08:41:59.897013  7956 layer_factory.hpp:77] Creating layer data
I0304 08:41:59.897104  7956 db_lmdb.cpp:35] Opened lmdb /home/lod/master-thesis/LMDB-datasets/trashnet384x384-new/train_lmdb
I0304 08:41:59.897125  7956 net.cpp:84] Creating Layer data
I0304 08:41:59.897130  7956 net.cpp:380] data -> data
I0304 08:41:59.898314  7956 data_layer.cpp:45] output data size: 1,3,384,384
I0304 08:41:59.904192  7956 net.cpp:122] Setting up data
I0304 08:41:59.904208  7956 net.cpp:129] Top shape: 1 3 384 384 (442368)
I0304 08:41:59.904211  7956 net.cpp:137] Memory required for data: 1769472
I0304 08:41:59.904217  7956 layer_factory.hpp:77] Creating layer data_data_0_split
I0304 08:41:59.904242  7956 net.cpp:84] Creating Layer data_data_0_split
I0304 08:41:59.904247  7956 net.cpp:406] data_data_0_split <- data
I0304 08:41:59.904251  7956 net.cpp:380] data_data_0_split -> data_data_0_split_0
I0304 08:41:59.904258  7956 net.cpp:380] data_data_0_split -> data_data_0_split_1
I0304 08:41:59.904352  7956 net.cpp:122] Setting up data_data_0_split
I0304 08:41:59.904361  7956 net.cpp:129] Top shape: 1 3 384 384 (442368)
I0304 08:41:59.904364  7956 net.cpp:129] Top shape: 1 3 384 384 (442368)
I0304 08:41:59.904366  7956 net.cpp:137] Memory required for data: 5308416
I0304 08:41:59.904369  7956 layer_factory.hpp:77] Creating layer conv1
I0304 08:41:59.904381  7956 net.cpp:84] Creating Layer conv1
I0304 08:41:59.904382  7956 net.cpp:406] conv1 <- data_data_0_split_0
I0304 08:41:59.904389  7956 net.cpp:380] conv1 -> conv1
I0304 08:41:59.911378  7956 net.cpp:122] Setting up conv1
I0304 08:41:59.911393  7956 net.cpp:129] Top shape: 1 512 94 94 (4524032)
I0304 08:41:59.911396  7956 net.cpp:137] Memory required for data: 23404544
I0304 08:41:59.911407  7956 layer_factory.hpp:77] Creating layer sign1conv1
I0304 08:41:59.911413  7956 net.cpp:84] Creating Layer sign1conv1
I0304 08:41:59.911417  7956 net.cpp:406] sign1conv1 <- conv1
I0304 08:41:59.911419  7956 net.cpp:367] sign1conv1 -> conv1 (in-place)
I0304 08:41:59.911425  7956 net.cpp:122] Setting up sign1conv1
I0304 08:41:59.911428  7956 net.cpp:129] Top shape: 1 512 94 94 (4524032)
I0304 08:41:59.911430  7956 net.cpp:137] Memory required for data: 41500672
I0304 08:41:59.911433  7956 layer_factory.hpp:77] Creating layer pool1
I0304 08:41:59.911438  7956 net.cpp:84] Creating Layer pool1
I0304 08:41:59.911440  7956 net.cpp:406] pool1 <- conv1
I0304 08:41:59.911443  7956 net.cpp:380] pool1 -> pool1
I0304 08:41:59.911480  7956 net.cpp:122] Setting up pool1
I0304 08:41:59.911484  7956 net.cpp:129] Top shape: 1 512 47 47 (1131008)
I0304 08:41:59.911487  7956 net.cpp:137] Memory required for data: 46024704
I0304 08:41:59.911489  7956 layer_factory.hpp:77] Creating layer conv2
I0304 08:41:59.911495  7956 net.cpp:84] Creating Layer conv2
I0304 08:41:59.911499  7956 net.cpp:406] conv2 <- pool1
I0304 08:41:59.911502  7956 net.cpp:380] conv2 -> conv2
I0304 08:41:59.995348  7956 net.cpp:122] Setting up conv2
I0304 08:41:59.995373  7956 net.cpp:129] Top shape: 1 256 43 43 (473344)
I0304 08:41:59.995396  7956 net.cpp:137] Memory required for data: 47918080
I0304 08:41:59.995409  7956 layer_factory.hpp:77] Creating layer sig2conv2
I0304 08:41:59.995416  7956 net.cpp:84] Creating Layer sig2conv2
I0304 08:41:59.995419  7956 net.cpp:406] sig2conv2 <- conv2
I0304 08:41:59.995424  7956 net.cpp:367] sig2conv2 -> conv2 (in-place)
I0304 08:41:59.995436  7956 net.cpp:122] Setting up sig2conv2
I0304 08:41:59.995440  7956 net.cpp:129] Top shape: 1 256 43 43 (473344)
I0304 08:41:59.995441  7956 net.cpp:137] Memory required for data: 49811456
I0304 08:41:59.995443  7956 layer_factory.hpp:77] Creating layer pool2
I0304 08:41:59.995448  7956 net.cpp:84] Creating Layer pool2
I0304 08:41:59.995450  7956 net.cpp:406] pool2 <- conv2
I0304 08:41:59.995455  7956 net.cpp:380] pool2 -> pool2
I0304 08:41:59.995486  7956 net.cpp:122] Setting up pool2
I0304 08:41:59.995489  7956 net.cpp:129] Top shape: 1 256 22 22 (123904)
I0304 08:41:59.995491  7956 net.cpp:137] Memory required for data: 50307072
I0304 08:41:59.995494  7956 layer_factory.hpp:77] Creating layer conv3
I0304 08:41:59.995503  7956 net.cpp:84] Creating Layer conv3
I0304 08:41:59.995507  7956 net.cpp:406] conv3 <- pool2
I0304 08:41:59.995510  7956 net.cpp:380] conv3 -> conv3
I0304 08:42:00.002858  7956 net.cpp:122] Setting up conv3
I0304 08:42:00.002867  7956 net.cpp:129] Top shape: 1 128 22 22 (61952)
I0304 08:42:00.002869  7956 net.cpp:137] Memory required for data: 50554880
I0304 08:42:00.002876  7956 layer_factory.hpp:77] Creating layer sig3conv3
I0304 08:42:00.002881  7956 net.cpp:84] Creating Layer sig3conv3
I0304 08:42:00.002883  7956 net.cpp:406] sig3conv3 <- conv3
I0304 08:42:00.002887  7956 net.cpp:367] sig3conv3 -> conv3 (in-place)
I0304 08:42:00.002890  7956 net.cpp:122] Setting up sig3conv3
I0304 08:42:00.002893  7956 net.cpp:129] Top shape: 1 128 22 22 (61952)
I0304 08:42:00.002895  7956 net.cpp:137] Memory required for data: 50802688
I0304 08:42:00.002897  7956 layer_factory.hpp:77] Creating layer deconv3
I0304 08:42:00.002903  7956 net.cpp:84] Creating Layer deconv3
I0304 08:42:00.002905  7956 net.cpp:406] deconv3 <- conv3
I0304 08:42:00.002908  7956 net.cpp:380] deconv3 -> deconv3
I0304 08:42:00.003463  7956 net.cpp:122] Setting up deconv3
I0304 08:42:00.003471  7956 net.cpp:129] Top shape: 1 128 22 22 (61952)
I0304 08:42:00.003473  7956 net.cpp:137] Memory required for data: 51050496
I0304 08:42:00.003478  7956 layer_factory.hpp:77] Creating layer deconv3sig3
I0304 08:42:00.003481  7956 net.cpp:84] Creating Layer deconv3sig3
I0304 08:42:00.003484  7956 net.cpp:406] deconv3sig3 <- deconv3
I0304 08:42:00.003487  7956 net.cpp:367] deconv3sig3 -> deconv3 (in-place)
I0304 08:42:00.003491  7956 net.cpp:122] Setting up deconv3sig3
I0304 08:42:00.003494  7956 net.cpp:129] Top shape: 1 128 22 22 (61952)
I0304 08:42:00.003496  7956 net.cpp:137] Memory required for data: 51298304
I0304 08:42:00.003499  7956 layer_factory.hpp:77] Creating layer unpool3
I0304 08:42:00.003504  7956 net.cpp:84] Creating Layer unpool3
I0304 08:42:00.003505  7956 net.cpp:406] unpool3 <- deconv3
I0304 08:42:00.003509  7956 net.cpp:380] unpool3 -> unpool3
I0304 08:42:00.003526  7956 net.cpp:122] Setting up unpool3
I0304 08:42:00.003530  7956 net.cpp:129] Top shape: 1 128 44 44 (247808)
I0304 08:42:00.003532  7956 net.cpp:137] Memory required for data: 52289536
I0304 08:42:00.003535  7956 layer_factory.hpp:77] Creating layer deconv2
I0304 08:42:00.003540  7956 net.cpp:84] Creating Layer deconv2
I0304 08:42:00.003541  7956 net.cpp:406] deconv2 <- unpool3
I0304 08:42:00.003545  7956 net.cpp:380] deconv2 -> deconv2
I0304 08:42:00.005225  7956 net.cpp:122] Setting up deconv2
I0304 08:42:00.005239  7956 net.cpp:129] Top shape: 1 256 44 44 (495616)
I0304 08:42:00.005240  7956 net.cpp:137] Memory required for data: 54272000
I0304 08:42:00.005247  7956 layer_factory.hpp:77] Creating layer deconv2sig2
I0304 08:42:00.005252  7956 net.cpp:84] Creating Layer deconv2sig2
I0304 08:42:00.005255  7956 net.cpp:406] deconv2sig2 <- deconv2
I0304 08:42:00.005259  7956 net.cpp:367] deconv2sig2 -> deconv2 (in-place)
I0304 08:42:00.005275  7956 net.cpp:122] Setting up deconv2sig2
I0304 08:42:00.005278  7956 net.cpp:129] Top shape: 1 256 44 44 (495616)
I0304 08:42:00.005280  7956 net.cpp:137] Memory required for data: 56254464
I0304 08:42:00.005282  7956 layer_factory.hpp:77] Creating layer unpool2
I0304 08:42:00.005287  7956 net.cpp:84] Creating Layer unpool2
I0304 08:42:00.005290  7956 net.cpp:406] unpool2 <- deconv2
I0304 08:42:00.005293  7956 net.cpp:380] unpool2 -> unpool2
I0304 08:42:00.005312  7956 net.cpp:122] Setting up unpool2
I0304 08:42:00.005316  7956 net.cpp:129] Top shape: 1 256 88 88 (1982464)
I0304 08:42:00.005318  7956 net.cpp:137] Memory required for data: 64184320
I0304 08:42:00.005321  7956 layer_factory.hpp:77] Creating layer deconv1
I0304 08:42:00.005326  7956 net.cpp:84] Creating Layer deconv1
I0304 08:42:00.005329  7956 net.cpp:406] deconv1 <- unpool2
I0304 08:42:00.005333  7956 net.cpp:380] deconv1 -> deconv1
I0304 08:42:00.217928  7956 net.cpp:122] Setting up deconv1
I0304 08:42:00.217954  7956 net.cpp:129] Top shape: 1 512 95 95 (4620800)
I0304 08:42:00.217957  7956 net.cpp:137] Memory required for data: 82667520
I0304 08:42:00.217964  7956 layer_factory.hpp:77] Creating layer deconv1sig1
I0304 08:42:00.217972  7956 net.cpp:84] Creating Layer deconv1sig1
I0304 08:42:00.217977  7956 net.cpp:406] deconv1sig1 <- deconv1
I0304 08:42:00.217981  7956 net.cpp:367] deconv1sig1 -> deconv1 (in-place)
I0304 08:42:00.217988  7956 net.cpp:122] Setting up deconv1sig1
I0304 08:42:00.217990  7956 net.cpp:129] Top shape: 1 512 95 95 (4620800)
I0304 08:42:00.217993  7956 net.cpp:137] Memory required for data: 101150720
I0304 08:42:00.217995  7956 layer_factory.hpp:77] Creating layer deconv0
I0304 08:42:00.218003  7956 net.cpp:84] Creating Layer deconv0
I0304 08:42:00.218004  7956 net.cpp:406] deconv0 <- deconv1
I0304 08:42:00.218008  7956 net.cpp:380] deconv0 -> deconv0
I0304 08:42:00.221468  7956 net.cpp:122] Setting up deconv0
I0304 08:42:00.221482  7956 net.cpp:129] Top shape: 1 3 384 384 (442368)
I0304 08:42:00.221484  7956 net.cpp:137] Memory required for data: 102920192
I0304 08:42:00.221489  7956 layer_factory.hpp:77] Creating layer loss
I0304 08:42:00.221501  7956 net.cpp:84] Creating Layer loss
I0304 08:42:00.221504  7956 net.cpp:406] loss <- deconv0
I0304 08:42:00.221509  7956 net.cpp:406] loss <- data_data_0_split_1
I0304 08:42:00.221513  7956 net.cpp:380] loss -> l2_error
…
