…
I0304 11:55:49.001940 18985 net.cpp:294] The NetState phase (0) differed from the phase (1) specified by a rule in layer data
I0304 11:55:49.002066 18985 net.cpp:51] Initializing net from parameters: 
name: "buildingnetwork"
state {
  phase: TRAIN
  level: 0
  stage: ""
}
layer {
  name: "data"
  type: "Data"
  top: "data"
  include {
    phase: TRAIN
  }
  transform_param {
    scale: 0.0039215684
    mean_file: "/home/lod/master-thesis/examples/master-thesis/new_models/caeWithoutFClayer/building_model/image_mean.binaryproto"
  }
  data_param {
    source: "/home/lod/master-thesis/LMDB-datasets/trashnet384x384-new/train_lmdb"
    batch_size: 1
    backend: LMDB
  }
}
layer {
  name: "conv1"
  type: "Convolution"
  bottom: "data"
  top: "conv1"
  param {
    lr_mult: 1
    decay_mult: 1
  }
  param {
    lr_mult: 2
    decay_mult: 0
  }
  convolution_param {
    num_output: 512
    kernel_size: 11
    stride: 4
    weight_filler {
      type: "xavier"
    }
    bias_filler {
      type: "constant"
      value: 0
    }
  }
}
layer {
  name: "sign1conv1"
  type: "Sigmoid"
  bottom: "conv1"
  top: "conv1"
}
layer {
  name: "pool1"
  type: "Pooling"
  bottom: "conv1"
  top: "pool1"
  pooling_param {
    pool: MAX
    kernel_size: 2
    stride: 2
  }
}
layer {
  name: "conv2"
  type: "Convolution"
  bottom: "pool1"
  top: "conv2"
  param {
    lr_mult: 1
    decay_mult: 1
  }
  param {
    lr_mult: 2
    decay_mult: 0
  }
  convolution_param {
    num_output: 256
    kernel_size: 5
    stride: 1
    weight_filler {
      type: "xavier"
    }
    bias_filler {
      type: "constant"
      value: 0
    }
  }
}
layer {
  name: "sig2conv2"
  type: "Sigmoid"
  bottom: "conv2"
  top: "conv2"
}
layer {
  name: "pool2"
  type: "Pooling"
  bottom: "conv2"
  top: "pool2"
  pooling_param {
    pool: MAX
    kernel_size: 2
    stride: 2
  }
}
layer {
  name: "conv3"
  type: "Convolution"
  bottom: "pool2"
  top: "conv3"
  param {
    lr_mult: 1
    decay_mult: 1
  }
  param {
    lr_mult: 2
    decay_mult: 0
  }
  convolution_param {
    num_output: 128
    pad: 1
    kernel_size: 3
    stride: 1
    weight_filler {
      type: "xavier"
    }
    bias_filler {
      type: "constant"
      value: 0
    }
  }
}
layer {
  name: "sig3conv3"
  type: "Sigmoid"
  bottom: "conv3"
  top: "conv3"
}
layer {
  name: "deconv3"
  type: "Deconvolution"
  bottom: "conv3"
  top: "deconv3"
  param {
    lr_mult: 1
    decay_mult: 1
  }
  param {
    lr_mult: 2
    decay_mult: 0
  }
  convolution_param {
    num_output: 128
    kernel_size: 1
    stride: 1
    weight_filler {
      type: "xavier"
    }
    bias_filler {
      type: "constant"
      value: 0
    }
  }
}
layer {
  name: "deconv3sig3"
  type: "Sigmoid"
  bottom: "deconv3"
  top: "deconv3"
}
layer {
  name: "unpool3"
  type: "UNPOOLING"
  bottom: "deconv3"
  top: "unpool3"
  unpooling_param {
    unpool: MAX
    kernel_size: 2
    stride: 2
    unpool_size: 44
  }
}
layer {
  name: "deconv2"
  type: "Deconvolution"
  bottom: "unpool3"
  top: "deconv2"
  param {
    lr_mult: 1
    decay_mult: 1
  }
  param {
    lr_mult: 2
    decay_mult: 0
  }
  convolution_param {
    num_output: 256
    kernel_size: 1
    stride: 1
    weight_filler {
      type: "xavier"
    }
    bias_filler {
      type: "constant"
      value: 0
    }
  }
}
layer {
  name: "deconv2sig2"
  type: "Sigmoid"
  bottom: "deconv2"
  top: "deconv2"
}
layer {
  name: "unpool2"
  type: "UNPOOLING"
  bottom: "deconv2"
  top: "unpool2"
  unpooling_param {
    unpool: MAX
    kernel_size: 2
    stride: 2
    unpool_size: 88
  }
}
layer {
  name: "deconv1"
  type: "Deconvolution"
  bottom: "unpool2"
  top: "deconv1"
  param {
    lr_mult: 1
    decay_mult: 1
  }
  param {
    lr_mult: 2
    decay_mult: 0
  }
  convolution_param {
    num_output: 512
    kernel_size: 8
    stride: 1
    weight_filler {
      type: "xavier"
    }
    bias_filler {
      type: "constant"
      value: 0
    }
  }
}
layer {
  name: "deconv1sig1"
  type: "Sigmoid"
  bottom: "deconv1"
  top: "deconv1"
}
layer {
  name: "deconv0"
  type: "Deconvolution"
  bottom: "deconv1"
  top: "deconv0"
  param {
    lr_mult: 1
    decay_mult: 1
  }
  param {
    lr_mult: 2
    decay_mult: 0
  }
  convolution_param {
    num_output: 3
    kernel_size: 8
    stride: 4
    weight_filler {
      type: "xavier"
    }
    bias_filler {
      type: "constant"
      value: 0
    }
  }
}
layer {
  name: "loss"
  type: "EuclideanLoss"
  bottom: "deconv0"
  bottom: "data"
  top: "l2_error"
  loss_weight: 1
}
I0304 11:55:49.002177 18985 layer_factory.hpp:77] Creating layer data
I0304 11:55:49.002266 18985 db_lmdb.cpp:35] Opened lmdb /home/lod/master-thesis/LMDB-datasets/trashnet384x384-new/train_lmdb
I0304 11:55:49.002285 18985 net.cpp:84] Creating Layer data
I0304 11:55:49.002290 18985 net.cpp:380] data -> data
I0304 11:55:49.002315 18985 data_transformer.cpp:25] Loading mean file from: /home/lod/master-thesis/examples/master-thesis/new_models/caeWithoutFClayer/building_model/image_mean.binaryproto
I0304 11:55:49.007342 18985 data_layer.cpp:45] output data size: 1,3,384,384
I0304 11:55:49.013553 18985 net.cpp:122] Setting up data
I0304 11:55:49.013573 18985 net.cpp:129] Top shape: 1 3 384 384 (442368)
I0304 11:55:49.013577 18985 net.cpp:137] Memory required for data: 1769472
I0304 11:55:49.013583 18985 layer_factory.hpp:77] Creating layer data_data_0_split
I0304 11:55:49.013597 18985 net.cpp:84] Creating Layer data_data_0_split
I0304 11:55:49.013602 18985 net.cpp:406] data_data_0_split <- data
I0304 11:55:49.013607 18985 net.cpp:380] data_data_0_split -> data_data_0_split_0
I0304 11:55:49.013615 18985 net.cpp:380] data_data_0_split -> data_data_0_split_1
I0304 11:55:49.013667 18985 net.cpp:122] Setting up data_data_0_split
I0304 11:55:49.013672 18985 net.cpp:129] Top shape: 1 3 384 384 (442368)
I0304 11:55:49.013675 18985 net.cpp:129] Top shape: 1 3 384 384 (442368)
I0304 11:55:49.013679 18985 net.cpp:137] Memory required for data: 5308416
I0304 11:55:49.013680 18985 layer_factory.hpp:77] Creating layer conv1
I0304 11:55:49.013692 18985 net.cpp:84] Creating Layer conv1
I0304 11:55:49.013695 18985 net.cpp:406] conv1 <- data_data_0_split_0
I0304 11:55:49.013703 18985 net.cpp:380] conv1 -> conv1
I0304 11:55:49.017474 18985 net.cpp:122] Setting up conv1
I0304 11:55:49.017488 18985 net.cpp:129] Top shape: 1 512 94 94 (4524032)
I0304 11:55:49.017490 18985 net.cpp:137] Memory required for data: 23404544
I0304 11:55:49.017501 18985 layer_factory.hpp:77] Creating layer sign1conv1
I0304 11:55:49.017513 18985 net.cpp:84] Creating Layer sign1conv1
I0304 11:55:49.017515 18985 net.cpp:406] sign1conv1 <- conv1
I0304 11:55:49.017519 18985 net.cpp:367] sign1conv1 -> conv1 (in-place)
I0304 11:55:49.017524 18985 net.cpp:122] Setting up sign1conv1
I0304 11:55:49.017529 18985 net.cpp:129] Top shape: 1 512 94 94 (4524032)
I0304 11:55:49.017530 18985 net.cpp:137] Memory required for data: 41500672
I0304 11:55:49.017534 18985 layer_factory.hpp:77] Creating layer pool1
I0304 11:55:49.017539 18985 net.cpp:84] Creating Layer pool1
I0304 11:55:49.017541 18985 net.cpp:406] pool1 <- conv1
I0304 11:55:49.017544 18985 net.cpp:380] pool1 -> pool1
I0304 11:55:49.017580 18985 net.cpp:122] Setting up pool1
I0304 11:55:49.017585 18985 net.cpp:129] Top shape: 1 512 47 47 (1131008)
I0304 11:55:49.017603 18985 net.cpp:137] Memory required for data: 46024704
I0304 11:55:49.017606 18985 layer_factory.hpp:77] Creating layer conv2
I0304 11:55:49.017614 18985 net.cpp:84] Creating Layer conv2
I0304 11:55:49.017616 18985 net.cpp:406] conv2 <- pool1
I0304 11:55:49.017621 18985 net.cpp:380] conv2 -> conv2
I0304 11:55:49.040630 18985 net.cpp:122] Setting up conv2
I0304 11:55:49.040652 18985 net.cpp:129] Top shape: 1 256 43 43 (473344)
I0304 11:55:49.040655 18985 net.cpp:137] Memory required for data: 47918080
I0304 11:55:49.040666 18985 layer_factory.hpp:77] Creating layer sig2conv2
I0304 11:55:49.040675 18985 net.cpp:84] Creating Layer sig2conv2
I0304 11:55:49.040679 18985 net.cpp:406] sig2conv2 <- conv2
I0304 11:55:49.040684 18985 net.cpp:367] sig2conv2 -> conv2 (in-place)
I0304 11:55:49.040691 18985 net.cpp:122] Setting up sig2conv2
I0304 11:55:49.040694 18985 net.cpp:129] Top shape: 1 256 43 43 (473344)
I0304 11:55:49.040696 18985 net.cpp:137] Memory required for data: 49811456
I0304 11:55:49.040699 18985 layer_factory.hpp:77] Creating layer pool2
I0304 11:55:49.040704 18985 net.cpp:84] Creating Layer pool2
I0304 11:55:49.040705 18985 net.cpp:406] pool2 <- conv2
I0304 11:55:49.040709 18985 net.cpp:380] pool2 -> pool2
I0304 11:55:49.040741 18985 net.cpp:122] Setting up pool2
I0304 11:55:49.040746 18985 net.cpp:129] Top shape: 1 256 22 22 (123904)
I0304 11:55:49.040748 18985 net.cpp:137] Memory required for data: 50307072
I0304 11:55:49.040750 18985 layer_factory.hpp:77] Creating layer conv3
I0304 11:55:49.040760 18985 net.cpp:84] Creating Layer conv3
I0304 11:55:49.040761 18985 net.cpp:406] conv3 <- pool2
I0304 11:55:49.040766 18985 net.cpp:380] conv3 -> conv3
I0304 11:55:49.042573 18985 net.cpp:122] Setting up conv3
I0304 11:55:49.042582 18985 net.cpp:129] Top shape: 1 128 22 22 (61952)
I0304 11:55:49.042584 18985 net.cpp:137] Memory required for data: 50554880
I0304 11:55:49.042592 18985 layer_factory.hpp:77] Creating layer sig3conv3
I0304 11:55:49.042595 18985 net.cpp:84] Creating Layer sig3conv3
I0304 11:55:49.042598 18985 net.cpp:406] sig3conv3 <- conv3
I0304 11:55:49.042601 18985 net.cpp:367] sig3conv3 -> conv3 (in-place)
I0304 11:55:49.042605 18985 net.cpp:122] Setting up sig3conv3
I0304 11:55:49.042608 18985 net.cpp:129] Top shape: 1 128 22 22 (61952)
I0304 11:55:49.042610 18985 net.cpp:137] Memory required for data: 50802688
I0304 11:55:49.042613 18985 layer_factory.hpp:77] Creating layer deconv3
I0304 11:55:49.042625 18985 net.cpp:84] Creating Layer deconv3
I0304 11:55:49.042628 18985 net.cpp:406] deconv3 <- conv3
I0304 11:55:49.042631 18985 net.cpp:380] deconv3 -> deconv3
I0304 11:55:49.042874 18985 net.cpp:122] Setting up deconv3
I0304 11:55:49.042883 18985 net.cpp:129] Top shape: 1 128 22 22 (61952)
I0304 11:55:49.042886 18985 net.cpp:137] Memory required for data: 51050496
I0304 11:55:49.042891 18985 layer_factory.hpp:77] Creating layer deconv3sig3
I0304 11:55:49.042894 18985 net.cpp:84] Creating Layer deconv3sig3
I0304 11:55:49.042896 18985 net.cpp:406] deconv3sig3 <- deconv3
I0304 11:55:49.042901 18985 net.cpp:367] deconv3sig3 -> deconv3 (in-place)
I0304 11:55:49.042904 18985 net.cpp:122] Setting up deconv3sig3
I0304 11:55:49.042907 18985 net.cpp:129] Top shape: 1 128 22 22 (61952)
I0304 11:55:49.042909 18985 net.cpp:137] Memory required for data: 51298304
I0304 11:55:49.042912 18985 layer_factory.hpp:77] Creating layer unpool3
I0304 11:55:49.042917 18985 net.cpp:84] Creating Layer unpool3
I0304 11:55:49.042918 18985 net.cpp:406] unpool3 <- deconv3
I0304 11:55:49.042922 18985 net.cpp:380] unpool3 -> unpool3
I0304 11:55:49.042942 18985 net.cpp:122] Setting up unpool3
I0304 11:55:49.042945 18985 net.cpp:129] Top shape: 1 128 44 44 (247808)
I0304 11:55:49.042948 18985 net.cpp:137] Memory required for data: 52289536
I0304 11:55:49.042949 18985 layer_factory.hpp:77] Creating layer deconv2
I0304 11:55:49.042955 18985 net.cpp:84] Creating Layer deconv2
I0304 11:55:49.042958 18985 net.cpp:406] deconv2 <- unpool3
I0304 11:55:49.042961 18985 net.cpp:380] deconv2 -> deconv2
I0304 11:55:49.044116 18985 net.cpp:122] Setting up deconv2
I0304 11:55:49.044142 18985 net.cpp:129] Top shape: 1 256 44 44 (495616)
I0304 11:55:49.044145 18985 net.cpp:137] Memory required for data: 54272000
I0304 11:55:49.044152 18985 layer_factory.hpp:77] Creating layer deconv2sig2
I0304 11:55:49.044157 18985 net.cpp:84] Creating Layer deconv2sig2
I0304 11:55:49.044160 18985 net.cpp:406] deconv2sig2 <- deconv2
I0304 11:55:49.044163 18985 net.cpp:367] deconv2sig2 -> deconv2 (in-place)
I0304 11:55:49.044168 18985 net.cpp:122] Setting up deconv2sig2
I0304 11:55:49.044173 18985 net.cpp:129] Top shape: 1 256 44 44 (495616)
I0304 11:55:49.044174 18985 net.cpp:137] Memory required for data: 56254464
I0304 11:55:49.044176 18985 layer_factory.hpp:77] Creating layer unpool2
I0304 11:55:49.044180 18985 net.cpp:84] Creating Layer unpool2
I0304 11:55:49.044183 18985 net.cpp:406] unpool2 <- deconv2
I0304 11:55:49.044186 18985 net.cpp:380] unpool2 -> unpool2
I0304 11:55:49.044205 18985 net.cpp:122] Setting up unpool2
I0304 11:55:49.044209 18985 net.cpp:129] Top shape: 1 256 88 88 (1982464)
I0304 11:55:49.044211 18985 net.cpp:137] Memory required for data: 64184320
I0304 11:55:49.044214 18985 layer_factory.hpp:77] Creating layer deconv1
I0304 11:55:49.044220 18985 net.cpp:84] Creating Layer deconv1
I0304 11:55:49.044224 18985 net.cpp:406] deconv1 <- unpool2
I0304 11:55:49.044227 18985 net.cpp:380] deconv1 -> deconv1
I0304 11:55:49.100339 18985 net.cpp:122] Setting up deconv1
I0304 11:55:49.100368 18985 net.cpp:129] Top shape: 1 512 95 95 (4620800)
I0304 11:55:49.100370 18985 net.cpp:137] Memory required for data: 82667520
I0304 11:55:49.100378 18985 layer_factory.hpp:77] Creating layer deconv1sig1
I0304 11:55:49.100385 18985 net.cpp:84] Creating Layer deconv1sig1
I0304 11:55:49.100389 18985 net.cpp:406] deconv1sig1 <- deconv1
I0304 11:55:49.100395 18985 net.cpp:367] deconv1sig1 -> deconv1 (in-place)
I0304 11:55:49.100404 18985 net.cpp:122] Setting up deconv1sig1
I0304 11:55:49.100406 18985 net.cpp:129] Top shape: 1 512 95 95 (4620800)
I0304 11:55:49.100409 18985 net.cpp:137] Memory required for data: 101150720
I0304 11:55:49.100410 18985 layer_factory.hpp:77] Creating layer deconv0
I0304 11:55:49.100419 18985 net.cpp:84] Creating Layer deconv0
I0304 11:55:49.100420 18985 net.cpp:406] deconv0 <- deconv1
I0304 11:55:49.100425 18985 net.cpp:380] deconv0 -> deconv0
I0304 11:55:49.102162 18985 net.cpp:122] Setting up deconv0
I0304 11:55:49.102175 18985 net.cpp:129] Top shape: 1 3 384 384 (442368)
I0304 11:55:49.102177 18985 net.cpp:137] Memory required for data: 102920192
I0304 11:55:49.102182 18985 layer_factory.hpp:77] Creating layer loss
I0304 11:55:49.102195 18985 net.cpp:84] Creating Layer loss
I0304 11:55:49.102197 18985 net.cpp:406] loss <- deconv0
I0304 11:55:49.102200 18985 net.cpp:406] loss <- data_data_0_split_1
I0304 11:55:49.102205 18985 net.cpp:380] loss -> l2_error
…
