…
I0311 16:53:55.025748 26632 solver.cpp:87] Creating training net from net file: /home/lod/master-thesis/examples/master-thesis/new_models/caeWithoutFClayer/building_model/train-single-featuremap.prototxt
I0311 16:53:55.026237 26632 net.cpp:294] The NetState phase (0) differed from the phase (1) specified by a rule in layer data
I0311 16:53:55.026379 26632 net.cpp:51] Initializing net from parameters: 
name: "SingleFeatureMap"
state {
  phase: TRAIN
  level: 0
  stage: ""
}
layer {
  name: "data"
  type: "Data"
  top: "data"
  include {
    phase: TRAIN
  }
  transform_param {
    scale: 0.0039215684
  }
  data_param {
    source: "/home/lod/master-thesis/LMDB-datasets/trashnet384x384-new/train_lmdb"
    batch_size: 1
    backend: LMDB
  }
}
layer {
  name: "conv1"
  type: "Convolution"
  bottom: "data"
  top: "conv1"
  param {
    lr_mult: 1
    decay_mult: 1
  }
  param {
    lr_mult: 2
    decay_mult: 0
  }
  convolution_param {
    num_output: 256
    kernel_size: 11
    stride: 4
    weight_filler {
      type: "xavier"
    }
    bias_filler {
      type: "constant"
      value: 0
    }
  }
}
layer {
  name: "relu1conv1"
  type: "ReLU"
  bottom: "conv1"
  top: "conv1"
}
layer {
  name: "pool1"
  type: "Pooling"
  bottom: "conv1"
  top: "pool1"
  pooling_param {
    pool: MAX
    kernel_size: 2
    stride: 2
  }
}
layer {
  name: "conv2"
  type: "Convolution"
  bottom: "pool1"
  top: "conv2"
  param {
    lr_mult: 1
    decay_mult: 1
  }
  param {
    lr_mult: 2
    decay_mult: 0
  }
  convolution_param {
    num_output: 128
    kernel_size: 5
    stride: 1
    weight_filler {
      type: "xavier"
    }
    bias_filler {
      type: "constant"
      value: 0
    }
  }
}
layer {
  name: "reluconv2"
  type: "ReLU"
  bottom: "conv2"
  top: "conv2"
}
layer {
  name: "pool2"
  type: "Pooling"
  bottom: "conv2"
  top: "pool2"
  pooling_param {
    pool: MAX
    kernel_size: 2
    stride: 2
  }
}
layer {
  name: "conv3"
  type: "Convolution"
  bottom: "pool2"
  top: "conv3"
  param {
    lr_mult: 1
    decay_mult: 1
  }
  param {
    lr_mult: 2
    decay_mult: 0
  }
  convolution_param {
    num_output: 64
    kernel_size: 3
    stride: 1
    weight_filler {
      type: "xavier"
    }
    bias_filler {
      type: "constant"
      value: 0
    }
  }
}
layer {
  name: "reluconv3"
  type: "ReLU"
  bottom: "conv3"
  top: "conv3"
}
layer {
  name: "pool3"
  type: "Pooling"
  bottom: "conv3"
  top: "pool3"
  pooling_param {
    pool: MAX
    kernel_size: 2
    stride: 2
  }
}
layer {
  name: "conv4"
  type: "Convolution"
  bottom: "pool3"
  top: "conv4"
  param {
    lr_mult: 1
    decay_mult: 1
  }
  param {
    lr_mult: 2
    decay_mult: 0
  }
  convolution_param {
    num_output: 10
    kernel_size: 3
    stride: 1
    weight_filler {
      type: "xavier"
    }
    bias_filler {
      type: "constant"
      value: 0
    }
  }
}
layer {
  name: "reluconv4"
  type: "ReLU"
  bottom: "conv4"
  top: "conv4"
}
layer {
  name: "deconv4"
  type: "Deconvolution"
  bottom: "conv4"
  top: "deconv4"
  param {
    lr_mult: 1
    decay_mult: 1
  }
  param {
    lr_mult: 2
    decay_mult: 0
  }
  convolution_param {
    num_output: 10
    kernel_size: 1
    stride: 1
    weight_filler {
      type: "xavier"
    }
    bias_filler {
      type: "constant"
      value: 0
    }
  }
}
layer {
  name: "reludeconv4"
  type: "ReLU"
  bottom: "deconv4"
  top: "deconv4"
}
layer {
  name: "unpool4"
  type: "UNPOOLING"
  bottom: "deconv4"
  top: "unpool4"
  unpooling_param {
    unpool: MAX
    kernel_size: 2
    stride: 2
    unpool_size: 16
  }
}
layer {
  name: "deconv3"
  type: "Deconvolution"
  bottom: "unpool4"
  top: "deconv3"
  param {
    lr_mult: 1
    decay_mult: 1
  }
  param {
    lr_mult: 2
    decay_mult: 0
  }
  convolution_param {
    num_output: 64
    kernel_size: 5
    stride: 1
    weight_filler {
      type: "xavier"
    }
    bias_filler {
      type: "constant"
      value: 0
    }
  }
}
layer {
  name: "reludeconv3"
  type: "ReLU"
  bottom: "deconv3"
  top: "deconv3"
}
layer {
  name: "unpool3"
  type: "UNPOOLING"
  bottom: "deconv3"
  top: "unpool3"
  unpooling_param {
    unpool: MAX
    kernel_size: 2
    stride: 2
    unpool_size: 40
  }
}
layer {
  name: "deconv2"
  type: "Deconvolution"
  bottom: "unpool3"
  top: "deconv2"
  param {
    lr_mult: 1
    decay_mult: 1
  }
  param {
    lr_mult: 2
    decay_mult: 0
  }
  convolution_param {
    num_output: 128
    kernel_size: 4
    stride: 1
    weight_filler {
      type: "xavier"
    }
    bias_filler {
      type: "constant"
      value: 0
    }
  }
}
layer {
  name: "deconv2relu"
  type: "ReLU"
  bottom: "deconv2"
  top: "deconv2"
}
layer {
  name: "unpool2"
  type: "UNPOOLING"
  bottom: "deconv2"
  top: "unpool2"
  unpooling_param {
    unpool: MAX
    kernel_size: 2
    stride: 2
    unpool_size: 86
  }
}
layer {
  name: "deconv1"
  type: "Deconvolution"
  bottom: "unpool2"
  top: "deconv1"
  param {
    lr_mult: 1
    decay_mult: 1
  }
  param {
    lr_mult: 2
    decay_mult: 0
  }
  convolution_param {
    num_output: 256
    kernel_size: 10
    stride: 1
    weight_filler {
      type: "xavier"
    }
    bias_filler {
      type: "constant"
      value: 0
    }
  }
}
layer {
  name: "deconv1relu"
  type: "ReLU"
  bottom: "deconv1"
  top: "deconv1"
}
layer {
  name: "deconv0"
  type: "Deconvolution"
  bottom: "deconv1"
  top: "deconv0"
  param {
    lr_mult: 1
    decay_mult: 1
  }
  param {
    lr_mult: 2
    decay_mult: 0
  }
  convolution_param {
    num_output: 3
    kernel_size: 8
    stride: 4
    weight_filler {
      type: "xavier"
    }
    bias_filler {
      type: "constant"
      value: 0
    }
  }
}
layer {
  name: "loss"
  type: "EuclideanLoss"
  bottom: "deconv0"
  bottom: "data"
  top: "l2_error"
  loss_weight: 1
}
I0311 16:53:55.026497 26632 layer_factory.hpp:77] Creating layer data
I0311 16:53:55.026589 26632 db_lmdb.cpp:35] Opened lmdb /home/lod/master-thesis/LMDB-datasets/trashnet384x384-new/train_lmdb
I0311 16:53:55.026610 26632 net.cpp:84] Creating Layer data
I0311 16:53:55.026617 26632 net.cpp:380] data -> data
I0311 16:53:55.027861 26632 data_layer.cpp:45] output data size: 1,3,384,384
I0311 16:53:55.033955 26632 net.cpp:122] Setting up data
I0311 16:53:55.033972 26632 net.cpp:129] Top shape: 1 3 384 384 (442368)
I0311 16:53:55.033977 26632 net.cpp:137] Memory required for data: 1769472
I0311 16:53:55.033982 26632 layer_factory.hpp:77] Creating layer data_data_0_split
I0311 16:53:55.033994 26632 net.cpp:84] Creating Layer data_data_0_split
I0311 16:53:55.033999 26632 net.cpp:406] data_data_0_split <- data
I0311 16:53:55.034006 26632 net.cpp:380] data_data_0_split -> data_data_0_split_0
I0311 16:53:55.034013 26632 net.cpp:380] data_data_0_split -> data_data_0_split_1
I0311 16:53:55.034101 26632 net.cpp:122] Setting up data_data_0_split
I0311 16:53:55.034111 26632 net.cpp:129] Top shape: 1 3 384 384 (442368)
I0311 16:53:55.034114 26632 net.cpp:129] Top shape: 1 3 384 384 (442368)
I0311 16:53:55.034117 26632 net.cpp:137] Memory required for data: 5308416
I0311 16:53:55.034121 26632 layer_factory.hpp:77] Creating layer conv1
I0311 16:53:55.034132 26632 net.cpp:84] Creating Layer conv1
I0311 16:53:55.034135 26632 net.cpp:406] conv1 <- data_data_0_split_0
I0311 16:53:55.034143 26632 net.cpp:380] conv1 -> conv1
I0311 16:53:55.036489 26632 net.cpp:122] Setting up conv1
I0311 16:53:55.036501 26632 net.cpp:129] Top shape: 1 256 94 94 (2262016)
I0311 16:53:55.036505 26632 net.cpp:137] Memory required for data: 14356480
I0311 16:53:55.036531 26632 layer_factory.hpp:77] Creating layer relu1conv1
I0311 16:53:55.036540 26632 net.cpp:84] Creating Layer relu1conv1
I0311 16:53:55.036542 26632 net.cpp:406] relu1conv1 <- conv1
I0311 16:53:55.036547 26632 net.cpp:367] relu1conv1 -> conv1 (in-place)
I0311 16:53:55.036552 26632 net.cpp:122] Setting up relu1conv1
I0311 16:53:55.036556 26632 net.cpp:129] Top shape: 1 256 94 94 (2262016)
I0311 16:53:55.036559 26632 net.cpp:137] Memory required for data: 23404544
I0311 16:53:55.036562 26632 layer_factory.hpp:77] Creating layer pool1
I0311 16:53:55.036568 26632 net.cpp:84] Creating Layer pool1
I0311 16:53:55.036571 26632 net.cpp:406] pool1 <- conv1
I0311 16:53:55.036576 26632 net.cpp:380] pool1 -> pool1
I0311 16:53:55.036615 26632 net.cpp:122] Setting up pool1
I0311 16:53:55.036623 26632 net.cpp:129] Top shape: 1 256 47 47 (565504)
I0311 16:53:55.036624 26632 net.cpp:137] Memory required for data: 25666560
I0311 16:53:55.036628 26632 layer_factory.hpp:77] Creating layer conv2
I0311 16:53:55.036635 26632 net.cpp:84] Creating Layer conv2
I0311 16:53:55.036638 26632 net.cpp:406] conv2 <- pool1
I0311 16:53:55.036643 26632 net.cpp:380] conv2 -> conv2
I0311 16:53:55.043146 26632 net.cpp:122] Setting up conv2
I0311 16:53:55.043164 26632 net.cpp:129] Top shape: 1 128 43 43 (236672)
I0311 16:53:55.043167 26632 net.cpp:137] Memory required for data: 26613248
I0311 16:53:55.043177 26632 layer_factory.hpp:77] Creating layer reluconv2
I0311 16:53:55.043184 26632 net.cpp:84] Creating Layer reluconv2
I0311 16:53:55.043189 26632 net.cpp:406] reluconv2 <- conv2
I0311 16:53:55.043192 26632 net.cpp:367] reluconv2 -> conv2 (in-place)
I0311 16:53:55.043200 26632 net.cpp:122] Setting up reluconv2
I0311 16:53:55.043203 26632 net.cpp:129] Top shape: 1 128 43 43 (236672)
I0311 16:53:55.043205 26632 net.cpp:137] Memory required for data: 27559936
I0311 16:53:55.043208 26632 layer_factory.hpp:77] Creating layer pool2
I0311 16:53:55.043215 26632 net.cpp:84] Creating Layer pool2
I0311 16:53:55.043217 26632 net.cpp:406] pool2 <- conv2
I0311 16:53:55.043221 26632 net.cpp:380] pool2 -> pool2
I0311 16:53:55.043251 26632 net.cpp:122] Setting up pool2
I0311 16:53:55.043257 26632 net.cpp:129] Top shape: 1 128 22 22 (61952)
I0311 16:53:55.043260 26632 net.cpp:137] Memory required for data: 27807744
I0311 16:53:55.043263 26632 layer_factory.hpp:77] Creating layer conv3
I0311 16:53:55.043272 26632 net.cpp:84] Creating Layer conv3
I0311 16:53:55.043275 26632 net.cpp:406] conv3 <- pool2
I0311 16:53:55.043280 26632 net.cpp:380] conv3 -> conv3
I0311 16:53:55.044629 26632 net.cpp:122] Setting up conv3
I0311 16:53:55.044641 26632 net.cpp:129] Top shape: 1 64 20 20 (25600)
I0311 16:53:55.044644 26632 net.cpp:137] Memory required for data: 27910144
I0311 16:53:55.044653 26632 layer_factory.hpp:77] Creating layer reluconv3
I0311 16:53:55.044658 26632 net.cpp:84] Creating Layer reluconv3
I0311 16:53:55.044662 26632 net.cpp:406] reluconv3 <- conv3
I0311 16:53:55.044667 26632 net.cpp:367] reluconv3 -> conv3 (in-place)
I0311 16:53:55.044672 26632 net.cpp:122] Setting up reluconv3
I0311 16:53:55.044675 26632 net.cpp:129] Top shape: 1 64 20 20 (25600)
I0311 16:53:55.044678 26632 net.cpp:137] Memory required for data: 28012544
I0311 16:53:55.044682 26632 layer_factory.hpp:77] Creating layer pool3
I0311 16:53:55.044687 26632 net.cpp:84] Creating Layer pool3
I0311 16:53:55.044689 26632 net.cpp:406] pool3 <- conv3
I0311 16:53:55.044693 26632 net.cpp:380] pool3 -> pool3
I0311 16:53:55.044724 26632 net.cpp:122] Setting up pool3
I0311 16:53:55.044730 26632 net.cpp:129] Top shape: 1 64 10 10 (6400)
I0311 16:53:55.044734 26632 net.cpp:137] Memory required for data: 28038144
I0311 16:53:55.044736 26632 layer_factory.hpp:77] Creating layer conv4
I0311 16:53:55.044744 26632 net.cpp:84] Creating Layer conv4
I0311 16:53:55.044746 26632 net.cpp:406] conv4 <- pool3
I0311 16:53:55.044751 26632 net.cpp:380] conv4 -> conv4
I0311 16:53:55.044956 26632 net.cpp:122] Setting up conv4
I0311 16:53:55.044963 26632 net.cpp:129] Top shape: 1 10 8 8 (640)
I0311 16:53:55.044971 26632 net.cpp:137] Memory required for data: 28040704
I0311 16:53:55.044984 26632 layer_factory.hpp:77] Creating layer reluconv4
I0311 16:53:55.044991 26632 net.cpp:84] Creating Layer reluconv4
I0311 16:53:55.044993 26632 net.cpp:406] reluconv4 <- conv4
I0311 16:53:55.044997 26632 net.cpp:367] reluconv4 -> conv4 (in-place)
I0311 16:53:55.045002 26632 net.cpp:122] Setting up reluconv4
I0311 16:53:55.045006 26632 net.cpp:129] Top shape: 1 10 8 8 (640)
I0311 16:53:55.045008 26632 net.cpp:137] Memory required for data: 28043264
I0311 16:53:55.045011 26632 layer_factory.hpp:77] Creating layer deconv4
I0311 16:53:55.045022 26632 net.cpp:84] Creating Layer deconv4
I0311 16:53:55.045025 26632 net.cpp:406] deconv4 <- conv4
I0311 16:53:55.045030 26632 net.cpp:380] deconv4 -> deconv4
I0311 16:53:55.045207 26632 net.cpp:122] Setting up deconv4
I0311 16:53:55.045214 26632 net.cpp:129] Top shape: 1 10 8 8 (640)
I0311 16:53:55.045217 26632 net.cpp:137] Memory required for data: 28045824
I0311 16:53:55.045224 26632 layer_factory.hpp:77] Creating layer reludeconv4
I0311 16:53:55.045229 26632 net.cpp:84] Creating Layer reludeconv4
I0311 16:53:55.045233 26632 net.cpp:406] reludeconv4 <- deconv4
I0311 16:53:55.045236 26632 net.cpp:367] reludeconv4 -> deconv4 (in-place)
I0311 16:53:55.045241 26632 net.cpp:122] Setting up reludeconv4
I0311 16:53:55.045244 26632 net.cpp:129] Top shape: 1 10 8 8 (640)
I0311 16:53:55.045248 26632 net.cpp:137] Memory required for data: 28048384
I0311 16:53:55.045250 26632 layer_factory.hpp:77] Creating layer unpool4
I0311 16:53:55.045255 26632 net.cpp:84] Creating Layer unpool4
I0311 16:53:55.045258 26632 net.cpp:406] unpool4 <- deconv4
I0311 16:53:55.045264 26632 net.cpp:380] unpool4 -> unpool4
I0311 16:53:55.045286 26632 net.cpp:122] Setting up unpool4
I0311 16:53:55.045291 26632 net.cpp:129] Top shape: 1 10 16 16 (2560)
I0311 16:53:55.045295 26632 net.cpp:137] Memory required for data: 28058624
I0311 16:53:55.045297 26632 layer_factory.hpp:77] Creating layer deconv3
I0311 16:53:55.045305 26632 net.cpp:84] Creating Layer deconv3
I0311 16:53:55.045307 26632 net.cpp:406] deconv3 <- unpool4
I0311 16:53:55.045312 26632 net.cpp:380] deconv3 -> deconv3
I0311 16:53:55.045549 26632 net.cpp:122] Setting up deconv3
I0311 16:53:55.045555 26632 net.cpp:129] Top shape: 1 64 20 20 (25600)
I0311 16:53:55.045558 26632 net.cpp:137] Memory required for data: 28161024
I0311 16:53:55.045563 26632 layer_factory.hpp:77] Creating layer reludeconv3
I0311 16:53:55.045567 26632 net.cpp:84] Creating Layer reludeconv3
I0311 16:53:55.045572 26632 net.cpp:406] reludeconv3 <- deconv3
I0311 16:53:55.045575 26632 net.cpp:367] reludeconv3 -> deconv3 (in-place)
I0311 16:53:55.045579 26632 net.cpp:122] Setting up reludeconv3
I0311 16:53:55.045583 26632 net.cpp:129] Top shape: 1 64 20 20 (25600)
I0311 16:53:55.045585 26632 net.cpp:137] Memory required for data: 28263424
I0311 16:53:55.045588 26632 layer_factory.hpp:77] Creating layer unpool3
I0311 16:53:55.045593 26632 net.cpp:84] Creating Layer unpool3
I0311 16:53:55.045595 26632 net.cpp:406] unpool3 <- deconv3
I0311 16:53:55.045600 26632 net.cpp:380] unpool3 -> unpool3
I0311 16:53:55.045616 26632 net.cpp:122] Setting up unpool3
I0311 16:53:55.045620 26632 net.cpp:129] Top shape: 1 64 40 40 (102400)
I0311 16:53:55.045624 26632 net.cpp:137] Memory required for data: 28673024
I0311 16:53:55.045626 26632 layer_factory.hpp:77] Creating layer deconv2
I0311 16:53:55.045632 26632 net.cpp:84] Creating Layer deconv2
I0311 16:53:55.045635 26632 net.cpp:406] deconv2 <- unpool3
I0311 16:53:55.045639 26632 net.cpp:380] deconv2 -> deconv2
I0311 16:53:55.046667 26632 net.cpp:122] Setting up deconv2
I0311 16:53:55.046677 26632 net.cpp:129] Top shape: 1 128 43 43 (236672)
I0311 16:53:55.046680 26632 net.cpp:137] Memory required for data: 29619712
I0311 16:53:55.046685 26632 layer_factory.hpp:77] Creating layer deconv2relu
I0311 16:53:55.046691 26632 net.cpp:84] Creating Layer deconv2relu
I0311 16:53:55.046694 26632 net.cpp:406] deconv2relu <- deconv2
I0311 16:53:55.046702 26632 net.cpp:367] deconv2relu -> deconv2 (in-place)
I0311 16:53:55.046712 26632 net.cpp:122] Setting up deconv2relu
I0311 16:53:55.046716 26632 net.cpp:129] Top shape: 1 128 43 43 (236672)
I0311 16:53:55.046720 26632 net.cpp:137] Memory required for data: 30566400
I0311 16:53:55.046722 26632 layer_factory.hpp:77] Creating layer unpool2
I0311 16:53:55.046727 26632 net.cpp:84] Creating Layer unpool2
I0311 16:53:55.046730 26632 net.cpp:406] unpool2 <- deconv2
I0311 16:53:55.046735 26632 net.cpp:380] unpool2 -> unpool2
I0311 16:53:55.046752 26632 net.cpp:122] Setting up unpool2
I0311 16:53:55.046757 26632 net.cpp:129] Top shape: 1 128 86 86 (946688)
I0311 16:53:55.046759 26632 net.cpp:137] Memory required for data: 34353152
I0311 16:53:55.046762 26632 layer_factory.hpp:77] Creating layer deconv1
I0311 16:53:55.046768 26632 net.cpp:84] Creating Layer deconv1
I0311 16:53:55.046772 26632 net.cpp:406] deconv1 <- unpool2
I0311 16:53:55.046775 26632 net.cpp:380] deconv1 -> deconv1
I0311 16:53:55.068760 26632 net.cpp:122] Setting up deconv1
I0311 16:53:55.068791 26632 net.cpp:129] Top shape: 1 256 95 95 (2310400)
I0311 16:53:55.068795 26632 net.cpp:137] Memory required for data: 43594752
I0311 16:53:55.068802 26632 layer_factory.hpp:77] Creating layer deconv1relu
I0311 16:53:55.068811 26632 net.cpp:84] Creating Layer deconv1relu
I0311 16:53:55.068815 26632 net.cpp:406] deconv1relu <- deconv1
I0311 16:53:55.068820 26632 net.cpp:367] deconv1relu -> deconv1 (in-place)
I0311 16:53:55.068827 26632 net.cpp:122] Setting up deconv1relu
I0311 16:53:55.068831 26632 net.cpp:129] Top shape: 1 256 95 95 (2310400)
I0311 16:53:55.068835 26632 net.cpp:137] Memory required for data: 52836352
I0311 16:53:55.068837 26632 layer_factory.hpp:77] Creating layer deconv0
I0311 16:53:55.068845 26632 net.cpp:84] Creating Layer deconv0
I0311 16:53:55.068848 26632 net.cpp:406] deconv0 <- deconv1
I0311 16:53:55.068853 26632 net.cpp:380] deconv0 -> deconv0
I0311 16:53:55.070297 26632 net.cpp:122] Setting up deconv0
I0311 16:53:55.070312 26632 net.cpp:129] Top shape: 1 3 384 384 (442368)
I0311 16:53:55.070315 26632 net.cpp:137] Memory required for data: 54605824
I0311 16:53:55.070325 26632 layer_factory.hpp:77] Creating layer loss
I0311 16:53:55.070338 26632 net.cpp:84] Creating Layer loss
I0311 16:53:55.070343 26632 net.cpp:406] loss <- deconv0
I0311 16:53:55.070346 26632 net.cpp:406] loss <- data_data_0_split_1
I0311 16:53:55.070350 26632 net.cpp:380] loss -> l2_error
…
