…
I0307 10:33:12.150676 27684 solver.cpp:87] Creating training net from net file: /home/lod/master-thesis/examples/master-thesis/new_models/caeWithoutFClayer/building_model/train-poolinglayer.prototxt
I0307 10:33:12.151130 27684 net.cpp:294] The NetState phase (0) differed from the phase (1) specified by a rule in layer data
I0307 10:33:12.151265 27684 net.cpp:51] Initializing net from parameters: 
name: "buildingnetwork"
state {
  phase: TRAIN
  level: 0
  stage: ""
}
layer {
  name: "data"
  type: "Data"
  top: "data"
  include {
    phase: TRAIN
  }
  transform_param {
    scale: 0.0039215684
  }
  data_param {
    source: "/home/lod/master-thesis/LMDB-datasets/trashnet384x384-new/train_lmdb"
    batch_size: 1
    backend: LMDB
  }
}
layer {
  name: "conv1"
  type: "Convolution"
  bottom: "data"
  top: "conv1"
  param {
    lr_mult: 1
    decay_mult: 1
  }
  param {
    lr_mult: 2
    decay_mult: 0
  }
  convolution_param {
    num_output: 512
    kernel_size: 11
    stride: 4
    weight_filler {
      type: "xavier"
    }
    bias_filler {
      type: "constant"
      value: 0
    }
  }
}
layer {
  name: "relu1conv1"
  type: "ReLU"
  bottom: "conv1"
  top: "conv1"
}
layer {
  name: "pool1"
  type: "Pooling"
  bottom: "conv1"
  top: "pool1"
  pooling_param {
    pool: AVE
    kernel_size: 2
    stride: 2
  }
}
layer {
  name: "conv2"
  type: "Convolution"
  bottom: "pool1"
  top: "conv2"
  param {
    lr_mult: 1
    decay_mult: 1
  }
  param {
    lr_mult: 2
    decay_mult: 0
  }
  convolution_param {
    num_output: 256
    kernel_size: 5
    stride: 1
    weight_filler {
      type: "xavier"
    }
    bias_filler {
      type: "constant"
      value: 0
    }
  }
}
layer {
  name: "reluconv2"
  type: "ReLU"
  bottom: "conv2"
  top: "conv2"
}
layer {
  name: "pool2"
  type: "Pooling"
  bottom: "conv2"
  top: "pool2"
  pooling_param {
    pool: AVE
    kernel_size: 2
    stride: 2
  }
}
layer {
  name: "conv3"
  type: "Convolution"
  bottom: "pool2"
  top: "conv3"
  param {
    lr_mult: 1
    decay_mult: 1
  }
  param {
    lr_mult: 2
    decay_mult: 0
  }
  convolution_param {
    num_output: 128
    pad: 1
    kernel_size: 3
    stride: 1
    weight_filler {
      type: "xavier"
    }
    bias_filler {
      type: "constant"
      value: 0
    }
  }
}
layer {
  name: "reluconv3"
  type: "ReLU"
  bottom: "conv3"
  top: "conv3"
}
layer {
  name: "fc1layer"
  type: "InnerProduct"
  bottom: "conv3"
  top: "fc1layer"
  param {
    lr_mult: 1
    decay_mult: 1
  }
  param {
    lr_mult: 2
    decay_mult: 0
  }
  inner_product_param {
    num_output: 1452
    weight_filler {
      type: "xavier"
    }
    bias_filler {
      type: "constant"
      value: 0
    }
  }
}
layer {
  name: "relufc1layer"
  type: "ReLU"
  bottom: "fc1layer"
  top: "fc1layer"
}
layer {
  name: "reshape"
  type: "Reshape"
  bottom: "fc1layer"
  top: "reshapefc1"
  reshape_param {
    shape {
      dim: 0
      dim: 3
      dim: 22
      dim: 22
    }
  }
}
layer {
  name: "deconv3new"
  type: "Deconvolution"
  bottom: "reshapefc1"
  top: "deconv3new"
  param {
    lr_mult: 1
    decay_mult: 1
  }
  param {
    lr_mult: 2
    decay_mult: 0
  }
  convolution_param {
    num_output: 128
    kernel_size: 1
    stride: 1
    weight_filler {
      type: "xavier"
    }
    bias_filler {
      type: "constant"
      value: 0
    }
  }
}
layer {
  name: "reludeconv3"
  type: "ReLU"
  bottom: "deconv3new"
  top: "deconv3new"
}
layer {
  name: "unpool3"
  type: "UNPOOLING"
  bottom: "deconv3new"
  top: "unpool3"
  unpooling_param {
    unpool: AVE
    kernel_size: 2
    stride: 2
    unpool_size: 44
  }
}
layer {
  name: "deconv2"
  type: "Deconvolution"
  bottom: "unpool3"
  top: "deconv2"
  param {
    lr_mult: 1
    decay_mult: 1
  }
  param {
    lr_mult: 2
    decay_mult: 0
  }
  convolution_param {
    num_output: 256
    kernel_size: 1
    stride: 1
    weight_filler {
      type: "xavier"
    }
    bias_filler {
      type: "constant"
      value: 0
    }
  }
}
layer {
  name: "deconv2relu"
  type: "ReLU"
  bottom: "deconv2"
  top: "deconv2"
}
layer {
  name: "unpool2"
  type: "UNPOOLING"
  bottom: "deconv2"
  top: "unpool2"
  unpooling_param {
    unpool: AVE
    kernel_size: 2
    stride: 2
    unpool_size: 88
  }
}
layer {
  name: "deconv1"
  type: "Deconvolution"
  bottom: "unpool2"
  top: "deconv1"
  param {
    lr_mult: 1
    decay_mult: 1
  }
  param {
    lr_mult: 2
    decay_mult: 0
  }
  convolution_param {
    num_output: 512
    kernel_size: 8
    stride: 1
    weight_filler {
      type: "xavier"
    }
    bias_filler {
      type: "constant"
      value: 0
    }
  }
}
layer {
  name: "deconv1relu"
  type: "ReLU"
  bottom: "deconv1"
  top: "deconv1"
}
layer {
  name: "deconv0"
  type: "Deconvolution"
  bottom: "deconv1"
  top: "deconv0"
  param {
    lr_mult: 1
    decay_mult: 1
  }
  param {
    lr_mult: 2
    decay_mult: 0
  }
  convolution_param {
    num_output: 3
    kernel_size: 8
    stride: 4
    weight_filler {
      type: "xavier"
    }
    bias_filler {
      type: "constant"
      value: 0
    }
  }
}
layer {
  name: "loss"
  type: "EuclideanLoss"
  bottom: "deconv0"
  bottom: "data"
  top: "l2_error"
  loss_weight: 1
}
I0307 10:33:12.151382 27684 layer_factory.hpp:77] Creating layer data
I0307 10:33:12.151479 27684 db_lmdb.cpp:35] Opened lmdb /home/lod/master-thesis/LMDB-datasets/trashnet384x384-new/train_lmdb
I0307 10:33:12.151500 27684 net.cpp:84] Creating Layer data
I0307 10:33:12.151507 27684 net.cpp:380] data -> data
I0307 10:33:12.152809 27684 data_layer.cpp:45] output data size: 1,3,384,384
I0307 10:33:12.159307 27684 net.cpp:122] Setting up data
I0307 10:33:12.159325 27684 net.cpp:129] Top shape: 1 3 384 384 (442368)
I0307 10:33:12.159329 27684 net.cpp:137] Memory required for data: 1769472
I0307 10:33:12.159335 27684 layer_factory.hpp:77] Creating layer data_data_0_split
I0307 10:33:12.159349 27684 net.cpp:84] Creating Layer data_data_0_split
I0307 10:33:12.159355 27684 net.cpp:406] data_data_0_split <- data
I0307 10:33:12.159363 27684 net.cpp:380] data_data_0_split -> data_data_0_split_0
I0307 10:33:12.159369 27684 net.cpp:380] data_data_0_split -> data_data_0_split_1
I0307 10:33:12.159466 27684 net.cpp:122] Setting up data_data_0_split
I0307 10:33:12.159474 27684 net.cpp:129] Top shape: 1 3 384 384 (442368)
I0307 10:33:12.159477 27684 net.cpp:129] Top shape: 1 3 384 384 (442368)
I0307 10:33:12.159481 27684 net.cpp:137] Memory required for data: 5308416
I0307 10:33:12.159483 27684 layer_factory.hpp:77] Creating layer conv1
I0307 10:33:12.159497 27684 net.cpp:84] Creating Layer conv1
I0307 10:33:12.159500 27684 net.cpp:406] conv1 <- data_data_0_split_0
I0307 10:33:12.159508 27684 net.cpp:380] conv1 -> conv1
I0307 10:33:12.163270 27684 net.cpp:122] Setting up conv1
I0307 10:33:12.163285 27684 net.cpp:129] Top shape: 1 512 94 94 (4524032)
I0307 10:33:12.163288 27684 net.cpp:137] Memory required for data: 23404544
I0307 10:33:12.163300 27684 layer_factory.hpp:77] Creating layer relu1conv1
I0307 10:33:12.163307 27684 net.cpp:84] Creating Layer relu1conv1
I0307 10:33:12.163311 27684 net.cpp:406] relu1conv1 <- conv1
I0307 10:33:12.163329 27684 net.cpp:367] relu1conv1 -> conv1 (in-place)
I0307 10:33:12.163336 27684 net.cpp:122] Setting up relu1conv1
I0307 10:33:12.163341 27684 net.cpp:129] Top shape: 1 512 94 94 (4524032)
I0307 10:33:12.163342 27684 net.cpp:137] Memory required for data: 41500672
I0307 10:33:12.163345 27684 layer_factory.hpp:77] Creating layer pool1
I0307 10:33:12.163359 27684 net.cpp:84] Creating Layer pool1
I0307 10:33:12.163372 27684 net.cpp:406] pool1 <- conv1
I0307 10:33:12.163377 27684 net.cpp:380] pool1 -> pool1
I0307 10:33:12.163408 27684 net.cpp:122] Setting up pool1
I0307 10:33:12.163414 27684 net.cpp:129] Top shape: 1 512 47 47 (1131008)
I0307 10:33:12.163416 27684 net.cpp:137] Memory required for data: 46024704
I0307 10:33:12.163419 27684 layer_factory.hpp:77] Creating layer conv2
I0307 10:33:12.163427 27684 net.cpp:84] Creating Layer conv2
I0307 10:33:12.163430 27684 net.cpp:406] conv2 <- pool1
I0307 10:33:12.163435 27684 net.cpp:380] conv2 -> conv2
I0307 10:33:12.186365 27684 net.cpp:122] Setting up conv2
I0307 10:33:12.186390 27684 net.cpp:129] Top shape: 1 256 43 43 (473344)
I0307 10:33:12.186394 27684 net.cpp:137] Memory required for data: 47918080
I0307 10:33:12.186406 27684 layer_factory.hpp:77] Creating layer reluconv2
I0307 10:33:12.186414 27684 net.cpp:84] Creating Layer reluconv2
I0307 10:33:12.186419 27684 net.cpp:406] reluconv2 <- conv2
I0307 10:33:12.186424 27684 net.cpp:367] reluconv2 -> conv2 (in-place)
I0307 10:33:12.186431 27684 net.cpp:122] Setting up reluconv2
I0307 10:33:12.186434 27684 net.cpp:129] Top shape: 1 256 43 43 (473344)
I0307 10:33:12.186437 27684 net.cpp:137] Memory required for data: 49811456
I0307 10:33:12.186440 27684 layer_factory.hpp:77] Creating layer pool2
I0307 10:33:12.186446 27684 net.cpp:84] Creating Layer pool2
I0307 10:33:12.186448 27684 net.cpp:406] pool2 <- conv2
I0307 10:33:12.186453 27684 net.cpp:380] pool2 -> pool2
I0307 10:33:12.186475 27684 net.cpp:122] Setting up pool2
I0307 10:33:12.186480 27684 net.cpp:129] Top shape: 1 256 22 22 (123904)
I0307 10:33:12.186482 27684 net.cpp:137] Memory required for data: 50307072
I0307 10:33:12.186486 27684 layer_factory.hpp:77] Creating layer conv3
I0307 10:33:12.186496 27684 net.cpp:84] Creating Layer conv3
I0307 10:33:12.186498 27684 net.cpp:406] conv3 <- pool2
I0307 10:33:12.186503 27684 net.cpp:380] conv3 -> conv3
I0307 10:33:12.188303 27684 net.cpp:122] Setting up conv3
I0307 10:33:12.188311 27684 net.cpp:129] Top shape: 1 128 22 22 (61952)
I0307 10:33:12.188313 27684 net.cpp:137] Memory required for data: 50554880
I0307 10:33:12.188320 27684 layer_factory.hpp:77] Creating layer reluconv3
I0307 10:33:12.188325 27684 net.cpp:84] Creating Layer reluconv3
I0307 10:33:12.188328 27684 net.cpp:406] reluconv3 <- conv3
I0307 10:33:12.188333 27684 net.cpp:367] reluconv3 -> conv3 (in-place)
I0307 10:33:12.188338 27684 net.cpp:122] Setting up reluconv3
I0307 10:33:12.188341 27684 net.cpp:129] Top shape: 1 128 22 22 (61952)
I0307 10:33:12.188344 27684 net.cpp:137] Memory required for data: 50802688
I0307 10:33:12.188346 27684 layer_factory.hpp:77] Creating layer fc1layer
I0307 10:33:12.188352 27684 net.cpp:84] Creating Layer fc1layer
I0307 10:33:12.188355 27684 net.cpp:406] fc1layer <- conv3
I0307 10:33:12.188359 27684 net.cpp:380] fc1layer -> fc1layer
I0307 10:33:12.777387 27684 net.cpp:122] Setting up fc1layer
I0307 10:33:12.777416 27684 net.cpp:129] Top shape: 1 1452 (1452)
I0307 10:33:12.777420 27684 net.cpp:137] Memory required for data: 50808496
I0307 10:33:12.777427 27684 layer_factory.hpp:77] Creating layer relufc1layer
I0307 10:33:12.777436 27684 net.cpp:84] Creating Layer relufc1layer
I0307 10:33:12.777439 27684 net.cpp:406] relufc1layer <- fc1layer
I0307 10:33:12.777444 27684 net.cpp:367] relufc1layer -> fc1layer (in-place)
I0307 10:33:12.777451 27684 net.cpp:122] Setting up relufc1layer
I0307 10:33:12.777454 27684 net.cpp:129] Top shape: 1 1452 (1452)
I0307 10:33:12.777456 27684 net.cpp:137] Memory required for data: 50814304
I0307 10:33:12.777459 27684 layer_factory.hpp:77] Creating layer reshape
I0307 10:33:12.777464 27684 net.cpp:84] Creating Layer reshape
I0307 10:33:12.777467 27684 net.cpp:406] reshape <- fc1layer
I0307 10:33:12.777470 27684 net.cpp:380] reshape -> reshapefc1
I0307 10:33:12.777493 27684 net.cpp:122] Setting up reshape
I0307 10:33:12.777498 27684 net.cpp:129] Top shape: 1 3 22 22 (1452)
I0307 10:33:12.777499 27684 net.cpp:137] Memory required for data: 50820112
I0307 10:33:12.777518 27684 layer_factory.hpp:77] Creating layer deconv3new
I0307 10:33:12.777525 27684 net.cpp:84] Creating Layer deconv3new
I0307 10:33:12.777529 27684 net.cpp:406] deconv3new <- reshapefc1
I0307 10:33:12.777532 27684 net.cpp:380] deconv3new -> deconv3new
I0307 10:33:12.777673 27684 net.cpp:122] Setting up deconv3new
I0307 10:33:12.777678 27684 net.cpp:129] Top shape: 1 128 22 22 (61952)
I0307 10:33:12.777681 27684 net.cpp:137] Memory required for data: 51067920
I0307 10:33:12.777688 27684 layer_factory.hpp:77] Creating layer reludeconv3
I0307 10:33:12.777693 27684 net.cpp:84] Creating Layer reludeconv3
I0307 10:33:12.777695 27684 net.cpp:406] reludeconv3 <- deconv3new
I0307 10:33:12.777698 27684 net.cpp:367] reludeconv3 -> deconv3new (in-place)
I0307 10:33:12.777704 27684 net.cpp:122] Setting up reludeconv3
I0307 10:33:12.777706 27684 net.cpp:129] Top shape: 1 128 22 22 (61952)
I0307 10:33:12.777709 27684 net.cpp:137] Memory required for data: 51315728
I0307 10:33:12.777710 27684 layer_factory.hpp:77] Creating layer unpool3
I0307 10:33:12.777715 27684 net.cpp:84] Creating Layer unpool3
I0307 10:33:12.777717 27684 net.cpp:406] unpool3 <- deconv3new
I0307 10:33:12.777721 27684 net.cpp:380] unpool3 -> unpool3
I0307 10:33:12.777739 27684 net.cpp:122] Setting up unpool3
I0307 10:33:12.777742 27684 net.cpp:129] Top shape: 1 128 44 44 (247808)
I0307 10:33:12.777745 27684 net.cpp:137] Memory required for data: 52306960
I0307 10:33:12.777747 27684 layer_factory.hpp:77] Creating layer deconv2
I0307 10:33:12.777753 27684 net.cpp:84] Creating Layer deconv2
I0307 10:33:12.777756 27684 net.cpp:406] deconv2 <- unpool3
I0307 10:33:12.777760 27684 net.cpp:380] deconv2 -> deconv2
I0307 10:33:12.778872 27684 net.cpp:122] Setting up deconv2
I0307 10:33:12.778882 27684 net.cpp:129] Top shape: 1 256 44 44 (495616)
I0307 10:33:12.778885 27684 net.cpp:137] Memory required for data: 54289424
I0307 10:33:12.778889 27684 layer_factory.hpp:77] Creating layer deconv2relu
I0307 10:33:12.778894 27684 net.cpp:84] Creating Layer deconv2relu
I0307 10:33:12.778898 27684 net.cpp:406] deconv2relu <- deconv2
I0307 10:33:12.778901 27684 net.cpp:367] deconv2relu -> deconv2 (in-place)
I0307 10:33:12.778905 27684 net.cpp:122] Setting up deconv2relu
I0307 10:33:12.778909 27684 net.cpp:129] Top shape: 1 256 44 44 (495616)
I0307 10:33:12.778911 27684 net.cpp:137] Memory required for data: 56271888
I0307 10:33:12.778913 27684 layer_factory.hpp:77] Creating layer unpool2
I0307 10:33:12.778918 27684 net.cpp:84] Creating Layer unpool2
I0307 10:33:12.778920 27684 net.cpp:406] unpool2 <- deconv2
I0307 10:33:12.778923 27684 net.cpp:380] unpool2 -> unpool2
I0307 10:33:12.778939 27684 net.cpp:122] Setting up unpool2
I0307 10:33:12.778942 27684 net.cpp:129] Top shape: 1 256 88 88 (1982464)
I0307 10:33:12.778945 27684 net.cpp:137] Memory required for data: 64201744
I0307 10:33:12.778947 27684 layer_factory.hpp:77] Creating layer deconv1
I0307 10:33:12.778952 27684 net.cpp:84] Creating Layer deconv1
I0307 10:33:12.778955 27684 net.cpp:406] deconv1 <- unpool2
I0307 10:33:12.778959 27684 net.cpp:380] deconv1 -> deconv1
I0307 10:33:12.827550 27684 net.cpp:122] Setting up deconv1
I0307 10:33:12.827580 27684 net.cpp:129] Top shape: 1 512 95 95 (4620800)
I0307 10:33:12.827584 27684 net.cpp:137] Memory required for data: 82684944
I0307 10:33:12.827589 27684 layer_factory.hpp:77] Creating layer deconv1relu
I0307 10:33:12.827597 27684 net.cpp:84] Creating Layer deconv1relu
I0307 10:33:12.827601 27684 net.cpp:406] deconv1relu <- deconv1
I0307 10:33:12.827605 27684 net.cpp:367] deconv1relu -> deconv1 (in-place)
I0307 10:33:12.827612 27684 net.cpp:122] Setting up deconv1relu
I0307 10:33:12.827615 27684 net.cpp:129] Top shape: 1 512 95 95 (4620800)
I0307 10:33:12.827617 27684 net.cpp:137] Memory required for data: 101168144
I0307 10:33:12.827620 27684 layer_factory.hpp:77] Creating layer deconv0
I0307 10:33:12.827627 27684 net.cpp:84] Creating Layer deconv0
I0307 10:33:12.827630 27684 net.cpp:406] deconv0 <- deconv1
I0307 10:33:12.827642 27684 net.cpp:380] deconv0 -> deconv0
I0307 10:33:12.829114 27684 net.cpp:122] Setting up deconv0
I0307 10:33:12.829124 27684 net.cpp:129] Top shape: 1 3 384 384 (442368)
I0307 10:33:12.829128 27684 net.cpp:137] Memory required for data: 102937616
I0307 10:33:12.829133 27684 layer_factory.hpp:77] Creating layer loss
I0307 10:33:12.829144 27684 net.cpp:84] Creating Layer loss
I0307 10:33:12.829146 27684 net.cpp:406] loss <- deconv0
I0307 10:33:12.829149 27684 net.cpp:406] loss <- data_data_0_split_1
I0307 10:33:12.829154 27684 net.cpp:380] loss -> l2_error
…
