…
  name: "data/img"
  type: "Data"
  top: "data/img"
  include {
    phase: TRAIN
  }
  transform_param {
    scale: 0.0039215689
  }
  data_param {
    source: "/home/lod/master-thesis/LMDB-datasets/prepared_dataSets/dataSet_5c_300_5_2_train/img_train_db"
    batch_size: 1
    backend: LMDB
  }
}
layer {
  name: "data/nir"
  type: "Data"
  top: "data/nir"
  include {
    phase: TRAIN
  }
  data_param {
    source: "/home/lod/master-thesis/LMDB-datasets/prepared_dataSets/dataSet_5c_300_5_2_train/nir_train_db"
    batch_size: 1
    backend: LMDB
  }
}
layer {
  name: "nir_data/bn"
  type: "BatchNorm"
  bottom: "data/nir"
  top: "nir_data/bn"
  batch_norm_param {
    moving_average_fraction: 0.9
  }
}
layer {
  name: "conv1/nir"
  type: "Convolution"
  bottom: "nir_data/bn"
  top: "conv1/nir"
  param {
    lr_mult: 1
    decay_mult: 1
  }
  param {
    lr_mult: 1
    decay_mult: 0
  }
  convolution_param {
    num_output: 235
    kernel_size: 1
    stride: 1
    weight_filler {
      type: "xavier"
    }
    bias_filler {
      type: "constant"
      value: 0
    }
  }
}
layer {
  name: "relu_nir/conv1"
  type: "PReLU"
  bottom: "conv1/nir"
  top: "conv1/nir"
}
layer {
  name: "nir/fc1"
  type: "InnerProduct"
  bottom: "conv1/nir"
  top: "nir/fc1"
  param {
    lr_mult: 1
    decay_mult: 1
  }
  param {
    lr_mult: 1
    decay_mult: 0
  }
  inner_product_param {
    num_output: 616
    weight_filler {
      type: "xavier"
    }
    bias_filler {
      type: "constant"
      value: 0
    }
  }
}
layer {
  name: "nir_relu/fc1"
  type: "PReLU"
  bottom: "nir/fc1"
  top: "nir/fc1"
}
layer {
  name: "nir/fc2"
  type: "InnerProduct"
  bottom: "nir/fc1"
  top: "nir/fc2"
  param {
    lr_mult: 1
    decay_mult: 1
  }
  param {
    lr_mult: 1
    decay_mult: 0
  }
  inner_product_param {
    num_output: 450
    weight_filler {
      type: "xavier"
    }
    bias_filler {
      type: "constant"
      value: 0
    }
  }
}
layer {
  name: "nir_relu/fc2"
  type: "PReLU"
  bottom: "nir/fc2"
  top: "nir/fc2"
}
layer {
  name: "img_data/bn"
  type: "BatchNorm"
  bottom: "data/img"
  top: "img_data/bn"
  batch_norm_param {
    moving_average_fraction: 0.9
  }
}
layer {
  name: "conv1"
  type: "Convolution"
  bottom: "img_data/bn"
  top: "conv1"
  param {
    lr_mult: 1
    decay_mult: 1
  }
  param {
    lr_mult: 2
    decay_mult: 0
  }
  convolution_param {
    num_output: 96
    kernel_size: 11
    stride: 4
    weight_filler {
      type: "xavier"
    }
    bias_filler {
      type: "constant"
      value: 0
    }
  }
}
layer {
  name: "relu1conv1"
  type: "PReLU"
  bottom: "conv1"
  top: "conv1"
}
layer {
  name: "conv2_r"
  type: "Convolution"
  bottom: "conv1"
  top: "conv2_r"
  param {
    lr_mult: 1
    decay_mult: 1
  }
  param {
    lr_mult: 2
    decay_mult: 0
  }
  convolution_param {
    num_output: 256
    kernel_size: 5
    stride: 2
    weight_filler {
      type: "xavier"
    }
    bias_filler {
      type: "constant"
      value: 0
    }
  }
}
layer {
  name: "reluconv2"
  type: "PReLU"
  bottom: "conv2_r"
  top: "conv2_r"
}
layer {
  name: "conv3_r"
  type: "Convolution"
  bottom: "conv2_r"
  top: "conv3_r"
  param {
    lr_mult: 1
    decay_mult: 1
  }
  param {
    lr_mult: 2
    decay_mult: 0
  }
  convolution_param {
    num_output: 384
    kernel_size: 3
    stride: 2
    weight_filler {
      type: "xavier"
    }
    bias_filler {
      type: "constant"
      value: 0
    }
  }
}
layer {
  name: "reluconv3"
  type: "PReLU"
  bottom: "conv3_r"
  top: "conv3_r"
}
layer {
  name: "conv4_r"
  type: "Convolution"
  bottom: "conv3_r"
  top: "conv4_r"
  param {
    lr_mult: 1
    decay_mult: 1
  }
  param {
    lr_mult: 2
    decay_mult: 0
  }
  convolution_param {
    num_output: 384
    kernel_size: 3
    stride: 2
    weight_filler {
      type: "xavier"
    }
    bias_filler {
      type: "constant"
      value: 0
    }
  }
}
layer {
  name: "reluconv4"
  type: "PReLU"
  bottom: "conv4_r"
  top: "conv4_r"
}
layer {
  name: "img/fc0"
  type: "Flatten"
  bottom: "conv4_r"
  top: "img/fc0"
}
layer {
  name: "img/fc1"
  type: "InnerProduct"
  bottom: "img/fc0"
  top: "img/fc1"
  param {
    lr_mult: 1
    decay_mult: 1
  }
  param {
    lr_mult: 2
    decay_mult: 0
  }
  inner_product_param {
    num_output: 2048
    weight_filler {
      type: "xavier"
    }
    bias_filler {
      type: "constant"
      value: 0
    }
  }
}
layer {
  name: "img_relu/fc1"
  type: "PReLU"
  bottom: "img/fc1"
  top: "img/fc1"
}
layer {
  name: "img_nir/concat"
  type: "Concat"
  bottom: "img/fc1"
  bottom: "nir/fc2"
  top: "img_nir/concat"
  concat_param {
    axis: 1
  }
}
layer {
  name: "img_nir_concat_relu"
  type: "PReLU"
  bottom: "img_nir/concat"
  top: "img_nir/concat"
}
layer {
  name: "nir/fc3"
  type: "InnerProduct"
  bottom: "img_nir/concat"
  top: "nir/fc3"
  param {
    lr_mult: 1
    decay_mult: 1
  }
  param {
    lr_mult: 1
    decay_mult: 0
  }
  inner_product_param {
    num_output: 450
    weight_filler {
      type: "xavier"
    }
    bias_filler {
      type: "constant"
      value: 0
    }
  }
}
layer {
  name: "nir_relu/fc3"
  type: "PReLU"
  bottom: "nir/fc3"
  top: "nir/fc3"
}
layer {
  name: "nir/fc4"
  type: "InnerProduct"
  bottom: "nir/fc3"
  top: "nir/fc4"
  param {
    lr_mult: 1
    decay_mult: 1
  }
  param {
    lr_mult: 1
    decay_mult: 0
  }
  inner_product_param {
    num_output: 616
    weight_filler {
      type: "xavier"
    }
    bias_filler {
      type: "constant"
      value: 0
    }
  }
}
layer {
  name: "nir_relu/fc4"
  type: "PReLU"
  bottom: "nir/fc4"
  top: "nir/fc4"
}
layer {
  name: "reshape/nir"
  type: "Reshape"
  bottom: "nir/fc4"
  top: "nir/concat_reshape"
  reshape_param {
    shape {
      dim: 0
      dim: 1
      dim: 11
      dim: 56
    }
  }
}
layer {
  name: "nir/deconv1"
  type: "Deconvolution"
  bottom: "nir/concat_reshape"
  top: "nir/deconv1"
  param {
    lr_mult: 1
    decay_mult: 1
  }
  param {
    lr_mult: 1
    decay_mult: 0
  }
  convolution_param {
    num_output: 235
    kernel_size: 1
    stride: 1
    weight_filler {
      type: "xavier"
    }
    bias_filler {
      type: "constant"
      value: 0
    }
  }
}
layer {
  name: "relu_nir/deconv1"
  type: "PReLU"
  bottom: "nir/deconv1"
  top: "nir/deconv1"
}
layer {
  name: "loss/nir"
  type: "EuclideanLoss"
  bottom: "nir/deconv1"
  bottom: "data/nir"
  top: "l2_error/nir"
  loss_weight: 0.5
}
layer {
  name: "img/fc4"
  type: "InnerProduct"
  bottom: "img_nir/concat"
  top: "img/fc4"
  param {
    lr_mult: 1
    decay_mult: 1
  }
  param {
    lr_mult: 2
    decay_mult: 0
  }
  inner_product_param {
    num_output: 2048
    weight_filler {
      type: "xavier"
    }
    bias_filler {
      type: "constant"
      value: 0
    }
  }
}
layer {
  name: "img_relu/fc4"
  type: "PReLU"
  bottom: "img/fc4"
  top: "img/fc4"
}
layer {
  name: "img/fc2"
  type: "InnerProduct"
  bottom: "img/fc4"
  top: "img/fc2"
  param {
    lr_mult: 1
    decay_mult: 1
  }
  param {
    lr_mult: 2
    decay_mult: 0
  }
  inner_product_param {
    num_output: 9600
    weight_filler {
      type: "xavier"
    }
    bias_filler {
      type: "constant"
      value: 0
    }
  }
}
layer {
  name: "img_relu/fc2"
  type: "PReLU"
  bottom: "img/fc2"
  top: "img/fc2"
}
layer {
  name: "reshape/img"
  type: "Reshape"
  bottom: "img/fc2"
  top: "img/concat_reshape"
  reshape_param {
    shape {
      dim: 0
      dim: 384
      dim: 5
      dim: 5
    }
  }
}
layer {
  name: "deconv3"
  type: "Deconvolution"
  bottom: "img/concat_reshape"
  top: "deconv3"
  param {
    lr_mult: 1
    decay_mult: 1
  }
  param {
    lr_mult: 2
    decay_mult: 0
  }
  convolution_param {
    num_output: 384
    kernel_size: 3
    stride: 2
    weight_filler {
      type: "xavier"
    }
    bias_filler {
      type: "constant"
      value: 0
    }
  }
}
layer {
  name: "reludeconv3"
  type: "PReLU"
  bottom: "deconv3"
  top: "deconv3"
}
layer {
  name: "deconv2"
  type: "Deconvolution"
  bottom: "deconv3"
  top: "deconv2"
  param {
    lr_mult: 1
    decay_mult: 1
  }
  param {
    lr_mult: 2
    decay_mult: 0
  }
  convolution_param {
    num_output: 256
    kernel_size: 3
    stride: 2
    weight_filler {
      type: "xavier"
    }
    bias_filler {
      type: "constant"
      value: 0
    }
  }
}
layer {
  name: "reludeconv2"
  type: "PReLU"
  bottom: "deconv2"
  top: "deconv2"
}
layer {
  name: "deconv1"
  type: "Deconvolution"
  bottom: "deconv2"
  top: "deconv1"
  param {
    lr_mult: 1
    decay_mult: 1
  }
  param {
    lr_mult: 2
    decay_mult: 0
  }
  convolution_param {
    num_output: 96
    kernel_size: 5
    stride: 2
    weight_filler {
      type: "xavier"
    }
    bias_filler {
      type: "constant"
      value: 0
    }
  }
}
layer {
  name: "deconv1relu"
  type: "PReLU"
  bottom: "deconv1"
  top: "deconv1"
}
layer {
  name: "deconv0"
  type: "Deconvolution"
  bottom: "deconv1"
  top: "deconv0"
  param {
    lr_mult: 1
    decay_mult: 1
  }
  param {
    lr_mult: 2
    decay_mult: 0
  }
  convolution_param {
    num_output: 3
    kernel_size: 11
    stride: 4
    weight_filler {
      type: "xavier"
    }
    bias_filler {
      type: "constant"
      value: 0
    }
  }
}
layer {
  name: "deconv0relu"
  type: "PReLU"
  bottom: "deconv0"
  top: "deconv0"
}
layer {
  name: "output"
  type: "Deconvolution"
  bottom: "deconv0"
  top: "output"
  param {
    lr_mult: 1
    decay_mult: 1
  }
  param {
    lr_mult: 2
    decay_mult: 0
  }
  convolution_param {
    num_output: 3
    kernel_size: 25
    stride: 1
    weight_filler {
      type: "xavier"
    }
    bias_filler {
      type: "constant"
      value: 0
    }
  }
}
layer {
  name: "outputrelu"
  type: "PReLU"
  bottom: "output"
  top: "output"
}
layer {
  name: "loss"
  type: "EuclideanLoss"
  bottom: "output"
  bottom: "data/img"
  top: "l2_error"
  loss_weight: 0.5
}
I0528 18:17:25.451491 17126 layer_factory.hpp:77] Creating layer data/img
I0528 18:17:25.451584 17126 db_lmdb.cpp:35] Opened lmdb /home/lod/master-thesis/LMDB-datasets/prepared_dataSets/dataSet_5c_300_5_2_train/img_train_db
I0528 18:17:25.451604 17126 net.cpp:84] Creating Layer data/img
I0528 18:17:25.451611 17126 net.cpp:380] data/img -> data/img
I0528 18:17:25.452635 17126 data_layer.cpp:45] output data size: 1,3,227,227
I0528 18:17:25.455785 17126 net.cpp:122] Setting up data/img
I0528 18:17:25.455797 17126 net.cpp:129] Top shape: 1 3 227 227 (154587)
I0528 18:17:25.455801 17126 net.cpp:137] Memory required for data: 618348
I0528 18:17:25.455806 17126 layer_factory.hpp:77] Creating layer data/img_data/img_0_split
I0528 18:17:25.455814 17126 net.cpp:84] Creating Layer data/img_data/img_0_split
I0528 18:17:25.455819 17126 net.cpp:406] data/img_data/img_0_split <- data/img
I0528 18:17:25.455824 17126 net.cpp:380] data/img_data/img_0_split -> data/img_data/img_0_split_0
I0528 18:17:25.455830 17126 net.cpp:380] data/img_data/img_0_split -> data/img_data/img_0_split_1
I0528 18:17:25.455926 17126 net.cpp:122] Setting up data/img_data/img_0_split
I0528 18:17:25.455935 17126 net.cpp:129] Top shape: 1 3 227 227 (154587)
I0528 18:17:25.455937 17126 net.cpp:129] Top shape: 1 3 227 227 (154587)
I0528 18:17:25.455940 17126 net.cpp:137] Memory required for data: 1855044
I0528 18:17:25.455941 17126 layer_factory.hpp:77] Creating layer data/nir
I0528 18:17:25.455986 17126 db_lmdb.cpp:35] Opened lmdb /home/lod/master-thesis/LMDB-datasets/prepared_dataSets/dataSet_5c_300_5_2_train/nir_train_db
I0528 18:17:25.456005 17126 net.cpp:84] Creating Layer data/nir
I0528 18:17:25.456010 17126 net.cpp:380] data/nir -> data/nir
I0528 18:17:25.456943 17126 data_layer.cpp:45] output data size: 1,235,11,56
I0528 18:17:25.458689 17126 net.cpp:122] Setting up data/nir
I0528 18:17:25.458701 17126 net.cpp:129] Top shape: 1 235 11 56 (144760)
I0528 18:17:25.458704 17126 net.cpp:137] Memory required for data: 2434084
I0528 18:17:25.458708 17126 layer_factory.hpp:77] Creating layer data/nir_data/nir_0_split
I0528 18:17:25.458712 17126 net.cpp:84] Creating Layer data/nir_data/nir_0_split
I0528 18:17:25.458715 17126 net.cpp:406] data/nir_data/nir_0_split <- data/nir
I0528 18:17:25.458724 17126 net.cpp:380] data/nir_data/nir_0_split -> data/nir_data/nir_0_split_0
I0528 18:17:25.458730 17126 net.cpp:380] data/nir_data/nir_0_split -> data/nir_data/nir_0_split_1
I0528 18:17:25.458770 17126 net.cpp:122] Setting up data/nir_data/nir_0_split
I0528 18:17:25.458776 17126 net.cpp:129] Top shape: 1 235 11 56 (144760)
I0528 18:17:25.458779 17126 net.cpp:129] Top shape: 1 235 11 56 (144760)
I0528 18:17:25.458781 17126 net.cpp:137] Memory required for data: 3592164
I0528 18:17:25.458783 17126 layer_factory.hpp:77] Creating layer nir_data/bn
I0528 18:17:25.458789 17126 net.cpp:84] Creating Layer nir_data/bn
I0528 18:17:25.458791 17126 net.cpp:406] nir_data/bn <- data/nir_data/nir_0_split_0
I0528 18:17:25.458796 17126 net.cpp:380] nir_data/bn -> nir_data/bn
I0528 18:17:25.459811 17126 net.cpp:122] Setting up nir_data/bn
I0528 18:17:25.459823 17126 net.cpp:129] Top shape: 1 235 11 56 (144760)
I0528 18:17:25.459825 17126 net.cpp:137] Memory required for data: 4171204
I0528 18:17:25.459839 17126 layer_factory.hpp:77] Creating layer conv1/nir
I0528 18:17:25.459851 17126 net.cpp:84] Creating Layer conv1/nir
I0528 18:17:25.459853 17126 net.cpp:406] conv1/nir <- nir_data/bn
I0528 18:17:25.459858 17126 net.cpp:380] conv1/nir -> conv1/nir
I0528 18:17:25.461266 17126 net.cpp:122] Setting up conv1/nir
I0528 18:17:25.461278 17126 net.cpp:129] Top shape: 1 235 11 56 (144760)
I0528 18:17:25.461282 17126 net.cpp:137] Memory required for data: 4750244
I0528 18:17:25.461289 17126 layer_factory.hpp:77] Creating layer relu_nir/conv1
I0528 18:17:25.461294 17126 net.cpp:84] Creating Layer relu_nir/conv1
I0528 18:17:25.461297 17126 net.cpp:406] relu_nir/conv1 <- conv1/nir
I0528 18:17:25.461302 17126 net.cpp:367] relu_nir/conv1 -> conv1/nir (in-place)
I0528 18:17:25.461446 17126 net.cpp:122] Setting up relu_nir/conv1
I0528 18:17:25.461453 17126 net.cpp:129] Top shape: 1 235 11 56 (144760)
I0528 18:17:25.461455 17126 net.cpp:137] Memory required for data: 5329284
I0528 18:17:25.461459 17126 layer_factory.hpp:77] Creating layer nir/fc1
I0528 18:17:25.461465 17126 net.cpp:84] Creating Layer nir/fc1
I0528 18:17:25.461467 17126 net.cpp:406] nir/fc1 <- conv1/nir
I0528 18:17:25.461472 17126 net.cpp:380] nir/fc1 -> nir/fc1
I0528 18:17:26.049809 17126 net.cpp:122] Setting up nir/fc1
I0528 18:17:26.049840 17126 net.cpp:129] Top shape: 1 616 (616)
I0528 18:17:26.049844 17126 net.cpp:137] Memory required for data: 5331748
I0528 18:17:26.049851 17126 layer_factory.hpp:77] Creating layer nir_relu/fc1
I0528 18:17:26.049861 17126 net.cpp:84] Creating Layer nir_relu/fc1
I0528 18:17:26.049866 17126 net.cpp:406] nir_relu/fc1 <- nir/fc1
I0528 18:17:26.049872 17126 net.cpp:367] nir_relu/fc1 -> nir/fc1 (in-place)
I0528 18:17:26.049940 17126 net.cpp:122] Setting up nir_relu/fc1
I0528 18:17:26.049944 17126 net.cpp:129] Top shape: 1 616 (616)
I0528 18:17:26.049964 17126 net.cpp:137] Memory required for data: 5334212
I0528 18:17:26.049973 17126 layer_factory.hpp:77] Creating layer nir/fc2
I0528 18:17:26.049979 17126 net.cpp:84] Creating Layer nir/fc2
I0528 18:17:26.049983 17126 net.cpp:406] nir/fc2 <- nir/fc1
I0528 18:17:26.049986 17126 net.cpp:380] nir/fc2 -> nir/fc2
I0528 18:17:26.052472 17126 net.cpp:122] Setting up nir/fc2
I0528 18:17:26.052485 17126 net.cpp:129] Top shape: 1 450 (450)
I0528 18:17:26.052489 17126 net.cpp:137] Memory required for data: 5336012
I0528 18:17:26.052494 17126 layer_factory.hpp:77] Creating layer nir_relu/fc2
I0528 18:17:26.052497 17126 net.cpp:84] Creating Layer nir_relu/fc2
I0528 18:17:26.052500 17126 net.cpp:406] nir_relu/fc2 <- nir/fc2
I0528 18:17:26.052503 17126 net.cpp:367] nir_relu/fc2 -> nir/fc2 (in-place)
I0528 18:17:26.052567 17126 net.cpp:122] Setting up nir_relu/fc2
I0528 18:17:26.052572 17126 net.cpp:129] Top shape: 1 450 (450)
I0528 18:17:26.052573 17126 net.cpp:137] Memory required for data: 5337812
I0528 18:17:26.052577 17126 layer_factory.hpp:77] Creating layer img_data/bn
I0528 18:17:26.052582 17126 net.cpp:84] Creating Layer img_data/bn
I0528 18:17:26.052583 17126 net.cpp:406] img_data/bn <- data/img_data/img_0_split_0
I0528 18:17:26.052587 17126 net.cpp:380] img_data/bn -> img_data/bn
I0528 18:17:26.052748 17126 net.cpp:122] Setting up img_data/bn
I0528 18:17:26.052757 17126 net.cpp:129] Top shape: 1 3 227 227 (154587)
I0528 18:17:26.052759 17126 net.cpp:137] Memory required for data: 5956160
I0528 18:17:26.052765 17126 layer_factory.hpp:77] Creating layer conv1
I0528 18:17:26.052773 17126 net.cpp:84] Creating Layer conv1
I0528 18:17:26.052778 17126 net.cpp:406] conv1 <- img_data/bn
I0528 18:17:26.052781 17126 net.cpp:380] conv1 -> conv1
I0528 18:17:26.053884 17126 net.cpp:122] Setting up conv1
I0528 18:17:26.053896 17126 net.cpp:129] Top shape: 1 96 55 55 (290400)
I0528 18:17:26.053900 17126 net.cpp:137] Memory required for data: 7117760
I0528 18:17:26.053906 17126 layer_factory.hpp:77] Creating layer relu1conv1
I0528 18:17:26.053911 17126 net.cpp:84] Creating Layer relu1conv1
I0528 18:17:26.053915 17126 net.cpp:406] relu1conv1 <- conv1
I0528 18:17:26.053917 17126 net.cpp:367] relu1conv1 -> conv1 (in-place)
I0528 18:17:26.054872 17126 net.cpp:122] Setting up relu1conv1
I0528 18:17:26.054884 17126 net.cpp:129] Top shape: 1 96 55 55 (290400)
I0528 18:17:26.054888 17126 net.cpp:137] Memory required for data: 8279360
I0528 18:17:26.054891 17126 layer_factory.hpp:77] Creating layer conv2_r
I0528 18:17:26.054898 17126 net.cpp:84] Creating Layer conv2_r
I0528 18:17:26.054901 17126 net.cpp:406] conv2_r <- conv1
I0528 18:17:26.054906 17126 net.cpp:380] conv2_r -> conv2_r
I0528 18:17:26.059101 17126 net.cpp:122] Setting up conv2_r
I0528 18:17:26.059114 17126 net.cpp:129] Top shape: 1 256 26 26 (173056)
I0528 18:17:26.059116 17126 net.cpp:137] Memory required for data: 8971584
I0528 18:17:26.059121 17126 layer_factory.hpp:77] Creating layer reluconv2
I0528 18:17:26.059125 17126 net.cpp:84] Creating Layer reluconv2
I0528 18:17:26.059128 17126 net.cpp:406] reluconv2 <- conv2_r
I0528 18:17:26.059131 17126 net.cpp:367] reluconv2 -> conv2_r (in-place)
I0528 18:17:26.059279 17126 net.cpp:122] Setting up reluconv2
I0528 18:17:26.059288 17126 net.cpp:129] Top shape: 1 256 26 26 (173056)
I0528 18:17:26.059289 17126 net.cpp:137] Memory required for data: 9663808
I0528 18:17:26.059293 17126 layer_factory.hpp:77] Creating layer conv3_r
I0528 18:17:26.059301 17126 net.cpp:84] Creating Layer conv3_r
I0528 18:17:26.059304 17126 net.cpp:406] conv3_r <- conv2_r
I0528 18:17:26.059309 17126 net.cpp:380] conv3_r -> conv3_r
I0528 18:17:26.065213 17126 net.cpp:122] Setting up conv3_r
I0528 18:17:26.065227 17126 net.cpp:129] Top shape: 1 384 12 12 (55296)
I0528 18:17:26.065229 17126 net.cpp:137] Memory required for data: 9884992
I0528 18:17:26.065233 17126 layer_factory.hpp:77] Creating layer reluconv3
I0528 18:17:26.065237 17126 net.cpp:84] Creating Layer reluconv3
I0528 18:17:26.065240 17126 net.cpp:406] reluconv3 <- conv3_r
I0528 18:17:26.065244 17126 net.cpp:367] reluconv3 -> conv3_r (in-place)
I0528 18:17:26.065356 17126 net.cpp:122] Setting up reluconv3
I0528 18:17:26.065364 17126 net.cpp:129] Top shape: 1 384 12 12 (55296)
I0528 18:17:26.065366 17126 net.cpp:137] Memory required for data: 10106176
I0528 18:17:26.065371 17126 layer_factory.hpp:77] Creating layer conv4_r
I0528 18:17:26.065376 17126 net.cpp:84] Creating Layer conv4_r
I0528 18:17:26.065379 17126 net.cpp:406] conv4_r <- conv3_r
I0528 18:17:26.065384 17126 net.cpp:380] conv4_r -> conv4_r
I0528 18:17:26.073904 17126 net.cpp:122] Setting up conv4_r
I0528 18:17:26.073915 17126 net.cpp:129] Top shape: 1 384 5 5 (9600)
I0528 18:17:26.073918 17126 net.cpp:137] Memory required for data: 10144576
I0528 18:17:26.073922 17126 layer_factory.hpp:77] Creating layer reluconv4
I0528 18:17:26.073926 17126 net.cpp:84] Creating Layer reluconv4
I0528 18:17:26.073930 17126 net.cpp:406] reluconv4 <- conv4_r
I0528 18:17:26.073932 17126 net.cpp:367] reluconv4 -> conv4_r (in-place)
I0528 18:17:26.074719 17126 net.cpp:122] Setting up reluconv4
I0528 18:17:26.074731 17126 net.cpp:129] Top shape: 1 384 5 5 (9600)
I0528 18:17:26.074734 17126 net.cpp:137] Memory required for data: 10182976
I0528 18:17:26.074738 17126 layer_factory.hpp:77] Creating layer img/fc0
I0528 18:17:26.074748 17126 net.cpp:84] Creating Layer img/fc0
I0528 18:17:26.074750 17126 net.cpp:406] img/fc0 <- conv4_r
I0528 18:17:26.074755 17126 net.cpp:380] img/fc0 -> img/fc0
I0528 18:17:26.074777 17126 net.cpp:122] Setting up img/fc0
I0528 18:17:26.074781 17126 net.cpp:129] Top shape: 1 9600 (9600)
I0528 18:17:26.074784 17126 net.cpp:137] Memory required for data: 10221376
I0528 18:17:26.074786 17126 layer_factory.hpp:77] Creating layer img/fc1
I0528 18:17:26.074792 17126 net.cpp:84] Creating Layer img/fc1
I0528 18:17:26.074795 17126 net.cpp:406] img/fc1 <- img/fc0
I0528 18:17:26.074797 17126 net.cpp:380] img/fc1 -> img/fc1
I0528 18:17:26.189332 17126 net.cpp:122] Setting up img/fc1
I0528 18:17:26.189358 17126 net.cpp:129] Top shape: 1 2048 (2048)
I0528 18:17:26.189360 17126 net.cpp:137] Memory required for data: 10229568
I0528 18:17:26.189368 17126 layer_factory.hpp:77] Creating layer img_relu/fc1
I0528 18:17:26.189373 17126 net.cpp:84] Creating Layer img_relu/fc1
I0528 18:17:26.189378 17126 net.cpp:406] img_relu/fc1 <- img/fc1
I0528 18:17:26.189383 17126 net.cpp:367] img_relu/fc1 -> img/fc1 (in-place)
I0528 18:17:26.189436 17126 net.cpp:122] Setting up img_relu/fc1
I0528 18:17:26.189440 17126 net.cpp:129] Top shape: 1 2048 (2048)
I0528 18:17:26.189442 17126 net.cpp:137] Memory required for data: 10237760
I0528 18:17:26.189445 17126 layer_factory.hpp:77] Creating layer img_nir/concat
I0528 18:17:26.189450 17126 net.cpp:84] Creating Layer img_nir/concat
I0528 18:17:26.189452 17126 net.cpp:406] img_nir/concat <- img/fc1
I0528 18:17:26.189455 17126 net.cpp:406] img_nir/concat <- nir/fc2
I0528 18:17:26.189458 17126 net.cpp:380] img_nir/concat -> img_nir/concat
I0528 18:17:26.189474 17126 net.cpp:122] Setting up img_nir/concat
I0528 18:17:26.189478 17126 net.cpp:129] Top shape: 1 2498 (2498)
I0528 18:17:26.189479 17126 net.cpp:137] Memory required for data: 10247752
I0528 18:17:26.189482 17126 layer_factory.hpp:77] Creating layer img_nir_concat_relu
I0528 18:17:26.189484 17126 net.cpp:84] Creating Layer img_nir_concat_relu
I0528 18:17:26.189487 17126 net.cpp:406] img_nir_concat_relu <- img_nir/concat
I0528 18:17:26.189489 17126 net.cpp:367] img_nir_concat_relu -> img_nir/concat (in-place)
I0528 18:17:26.189544 17126 net.cpp:122] Setting up img_nir_concat_relu
I0528 18:17:26.189548 17126 net.cpp:129] Top shape: 1 2498 (2498)
I0528 18:17:26.189549 17126 net.cpp:137] Memory required for data: 10257744
I0528 18:17:26.189553 17126 layer_factory.hpp:77] Creating layer img_nir/concat_img_nir_concat_relu_0_split
I0528 18:17:26.189556 17126 net.cpp:84] Creating Layer img_nir/concat_img_nir_concat_relu_0_split
I0528 18:17:26.189558 17126 net.cpp:406] img_nir/concat_img_nir_concat_relu_0_split <- img_nir/concat
I0528 18:17:26.189561 17126 net.cpp:380] img_nir/concat_img_nir_concat_relu_0_split -> img_nir/concat_img_nir_concat_relu_0_split_0
I0528 18:17:26.189580 17126 net.cpp:380] img_nir/concat_img_nir_concat_relu_0_split -> img_nir/concat_img_nir_concat_relu_0_split_1
I0528 18:17:26.189602 17126 net.cpp:122] Setting up img_nir/concat_img_nir_concat_relu_0_split
I0528 18:17:26.189605 17126 net.cpp:129] Top shape: 1 2498 (2498)
I0528 18:17:26.189607 17126 net.cpp:129] Top shape: 1 2498 (2498)
I0528 18:17:26.189610 17126 net.cpp:137] Memory required for data: 10277728
I0528 18:17:26.189611 17126 layer_factory.hpp:77] Creating layer nir/fc3
I0528 18:17:26.189617 17126 net.cpp:84] Creating Layer nir/fc3
I0528 18:17:26.189620 17126 net.cpp:406] nir/fc3 <- img_nir/concat_img_nir_concat_relu_0_split_0
I0528 18:17:26.189622 17126 net.cpp:380] nir/fc3 -> nir/fc3
I0528 18:17:26.196174 17126 net.cpp:122] Setting up nir/fc3
I0528 18:17:26.196184 17126 net.cpp:129] Top shape: 1 450 (450)
I0528 18:17:26.196187 17126 net.cpp:137] Memory required for data: 10279528
I0528 18:17:26.196195 17126 layer_factory.hpp:77] Creating layer nir_relu/fc3
I0528 18:17:26.196199 17126 net.cpp:84] Creating Layer nir_relu/fc3
I0528 18:17:26.196202 17126 net.cpp:406] nir_relu/fc3 <- nir/fc3
I0528 18:17:26.196204 17126 net.cpp:367] nir_relu/fc3 -> nir/fc3 (in-place)
I0528 18:17:26.196260 17126 net.cpp:122] Setting up nir_relu/fc3
I0528 18:17:26.196264 17126 net.cpp:129] Top shape: 1 450 (450)
I0528 18:17:26.196266 17126 net.cpp:137] Memory required for data: 10281328
I0528 18:17:26.196269 17126 layer_factory.hpp:77] Creating layer nir/fc4
I0528 18:17:26.196274 17126 net.cpp:84] Creating Layer nir/fc4
I0528 18:17:26.196276 17126 net.cpp:406] nir/fc4 <- nir/fc3
I0528 18:17:26.196280 17126 net.cpp:380] nir/fc4 -> nir/fc4
I0528 18:17:26.198292 17126 net.cpp:122] Setting up nir/fc4
I0528 18:17:26.198302 17126 net.cpp:129] Top shape: 1 616 (616)
I0528 18:17:26.198304 17126 net.cpp:137] Memory required for data: 10283792
I0528 18:17:26.198308 17126 layer_factory.hpp:77] Creating layer nir_relu/fc4
I0528 18:17:26.198312 17126 net.cpp:84] Creating Layer nir_relu/fc4
I0528 18:17:26.198314 17126 net.cpp:406] nir_relu/fc4 <- nir/fc4
I0528 18:17:26.198318 17126 net.cpp:367] nir_relu/fc4 -> nir/fc4 (in-place)
I0528 18:17:26.198374 17126 net.cpp:122] Setting up nir_relu/fc4
I0528 18:17:26.198377 17126 net.cpp:129] Top shape: 1 616 (616)
I0528 18:17:26.198379 17126 net.cpp:137] Memory required for data: 10286256
I0528 18:17:26.198381 17126 layer_factory.hpp:77] Creating layer reshape/nir
I0528 18:17:26.198387 17126 net.cpp:84] Creating Layer reshape/nir
I0528 18:17:26.198390 17126 net.cpp:406] reshape/nir <- nir/fc4
I0528 18:17:26.198392 17126 net.cpp:380] reshape/nir -> nir/concat_reshape
I0528 18:17:26.198416 17126 net.cpp:122] Setting up reshape/nir
I0528 18:17:26.198421 17126 net.cpp:129] Top shape: 1 1 11 56 (616)
I0528 18:17:26.198421 17126 net.cpp:137] Memory required for data: 10288720
I0528 18:17:26.198423 17126 layer_factory.hpp:77] Creating layer nir/deconv1
I0528 18:17:26.198429 17126 net.cpp:84] Creating Layer nir/deconv1
I0528 18:17:26.198431 17126 net.cpp:406] nir/deconv1 <- nir/concat_reshape
I0528 18:17:26.198434 17126 net.cpp:380] nir/deconv1 -> nir/deconv1
I0528 18:17:26.198571 17126 net.cpp:122] Setting up nir/deconv1
I0528 18:17:26.198578 17126 net.cpp:129] Top shape: 1 235 11 56 (144760)
I0528 18:17:26.198580 17126 net.cpp:137] Memory required for data: 10867760
I0528 18:17:26.198585 17126 layer_factory.hpp:77] Creating layer relu_nir/deconv1
I0528 18:17:26.198590 17126 net.cpp:84] Creating Layer relu_nir/deconv1
I0528 18:17:26.198592 17126 net.cpp:406] relu_nir/deconv1 <- nir/deconv1
I0528 18:17:26.198596 17126 net.cpp:367] relu_nir/deconv1 -> nir/deconv1 (in-place)
I0528 18:17:26.198715 17126 net.cpp:122] Setting up relu_nir/deconv1
I0528 18:17:26.198721 17126 net.cpp:129] Top shape: 1 235 11 56 (144760)
I0528 18:17:26.198724 17126 net.cpp:137] Memory required for data: 11446800
I0528 18:17:26.198726 17126 layer_factory.hpp:77] Creating layer loss/nir
I0528 18:17:26.198735 17126 net.cpp:84] Creating Layer loss/nir
I0528 18:17:26.198746 17126 net.cpp:406] loss/nir <- nir/deconv1
I0528 18:17:26.198750 17126 net.cpp:406] loss/nir <- data/nir_data/nir_0_split_1
I0528 18:17:26.198752 17126 net.cpp:380] loss/nir -> l2_error/nir
I0528 18:17:26.198777 17126 net.cpp:122] Setting up loss/nir
I0528 18:17:26.198781 17126 net.cpp:129] Top shape: (1)
I0528 18:17:26.198783 17126 net.cpp:132]     with loss weight 0.5
I0528 18:17:26.198796 17126 net.cpp:137] Memory required for data: 11446804
I0528 18:17:26.198798 17126 layer_factory.hpp:77] Creating layer img/fc4
I0528 18:17:26.198802 17126 net.cpp:84] Creating Layer img/fc4
I0528 18:17:26.198804 17126 net.cpp:406] img/fc4 <- img_nir/concat_img_nir_concat_relu_0_split_1
I0528 18:17:26.198808 17126 net.cpp:380] img/fc4 -> img/fc4
I0528 18:17:26.227989 17126 net.cpp:122] Setting up img/fc4
I0528 18:17:26.228015 17126 net.cpp:129] Top shape: 1 2048 (2048)
I0528 18:17:26.228018 17126 net.cpp:137] Memory required for data: 11454996
I0528 18:17:26.228024 17126 layer_factory.hpp:77] Creating layer img_relu/fc4
I0528 18:17:26.228031 17126 net.cpp:84] Creating Layer img_relu/fc4
I0528 18:17:26.228034 17126 net.cpp:406] img_relu/fc4 <- img/fc4
I0528 18:17:26.228041 17126 net.cpp:367] img_relu/fc4 -> img/fc4 (in-place)
I0528 18:17:26.228094 17126 net.cpp:122] Setting up img_relu/fc4
I0528 18:17:26.228098 17126 net.cpp:129] Top shape: 1 2048 (2048)
I0528 18:17:26.228101 17126 net.cpp:137] Memory required for data: 11463188
I0528 18:17:26.228103 17126 layer_factory.hpp:77] Creating layer img/fc2
I0528 18:17:26.228109 17126 net.cpp:84] Creating Layer img/fc2
I0528 18:17:26.228111 17126 net.cpp:406] img/fc2 <- img/fc4
I0528 18:17:26.228114 17126 net.cpp:380] img/fc2 -> img/fc2
I0528 18:17:26.339699 17126 net.cpp:122] Setting up img/fc2
I0528 18:17:26.339726 17126 net.cpp:129] Top shape: 1 9600 (9600)
I0528 18:17:26.339728 17126 net.cpp:137] Memory required for data: 11501588
I0528 18:17:26.339735 17126 layer_factory.hpp:77] Creating layer img_relu/fc2
I0528 18:17:26.339742 17126 net.cpp:84] Creating Layer img_relu/fc2
I0528 18:17:26.339746 17126 net.cpp:406] img_relu/fc2 <- img/fc2
I0528 18:17:26.339751 17126 net.cpp:367] img_relu/fc2 -> img/fc2 (in-place)
I0528 18:17:26.339817 17126 net.cpp:122] Setting up img_relu/fc2
I0528 18:17:26.339820 17126 net.cpp:129] Top shape: 1 9600 (9600)
I0528 18:17:26.339823 17126 net.cpp:137] Memory required for data: 11539988
I0528 18:17:26.339825 17126 layer_factory.hpp:77] Creating layer reshape/img
I0528 18:17:26.339830 17126 net.cpp:84] Creating Layer reshape/img
I0528 18:17:26.339833 17126 net.cpp:406] reshape/img <- img/fc2
I0528 18:17:26.339836 17126 net.cpp:380] reshape/img -> img/concat_reshape
I0528 18:17:26.339854 17126 net.cpp:122] Setting up reshape/img
I0528 18:17:26.339856 17126 net.cpp:129] Top shape: 1 384 5 5 (9600)
I0528 18:17:26.339859 17126 net.cpp:137] Memory required for data: 11578388
I0528 18:17:26.339860 17126 layer_factory.hpp:77] Creating layer deconv3
I0528 18:17:26.339866 17126 net.cpp:84] Creating Layer deconv3
I0528 18:17:26.339869 17126 net.cpp:406] deconv3 <- img/concat_reshape
I0528 18:17:26.339872 17126 net.cpp:380] deconv3 -> deconv3
I0528 18:17:26.347609 17126 net.cpp:122] Setting up deconv3
I0528 18:17:26.347618 17126 net.cpp:129] Top shape: 1 384 11 11 (46464)
I0528 18:17:26.347620 17126 net.cpp:137] Memory required for data: 11764244
I0528 18:17:26.347625 17126 layer_factory.hpp:77] Creating layer reludeconv3
I0528 18:17:26.347628 17126 net.cpp:84] Creating Layer reludeconv3
I0528 18:17:26.347630 17126 net.cpp:406] reludeconv3 <- deconv3
I0528 18:17:26.347635 17126 net.cpp:367] reludeconv3 -> deconv3 (in-place)
I0528 18:17:26.347715 17126 net.cpp:122] Setting up reludeconv3
I0528 18:17:26.347720 17126 net.cpp:129] Top shape: 1 384 11 11 (46464)
I0528 18:17:26.347723 17126 net.cpp:137] Memory required for data: 11950100
I0528 18:17:26.347724 17126 layer_factory.hpp:77] Creating layer deconv2
I0528 18:17:26.347729 17126 net.cpp:84] Creating Layer deconv2
I0528 18:17:26.347731 17126 net.cpp:406] deconv2 <- deconv3
I0528 18:17:26.347735 17126 net.cpp:380] deconv2 -> deconv2
I0528 18:17:26.352931 17126 net.cpp:122] Setting up deconv2
I0528 18:17:26.352941 17126 net.cpp:129] Top shape: 1 256 23 23 (135424)
I0528 18:17:26.352944 17126 net.cpp:137] Memory required for data: 12491796
I0528 18:17:26.352948 17126 layer_factory.hpp:77] Creating layer reludeconv2
I0528 18:17:26.352952 17126 net.cpp:84] Creating Layer reludeconv2
I0528 18:17:26.352954 17126 net.cpp:406] reludeconv2 <- deconv2
I0528 18:17:26.352957 17126 net.cpp:367] reludeconv2 -> deconv2 (in-place)
I0528 18:17:26.353102 17126 net.cpp:122] Setting up reludeconv2
I0528 18:17:26.353109 17126 net.cpp:129] Top shape: 1 256 23 23 (135424)
I0528 18:17:26.353111 17126 net.cpp:137] Memory required for data: 13033492
I0528 18:17:26.353114 17126 layer_factory.hpp:77] Creating layer deconv1
I0528 18:17:26.353119 17126 net.cpp:84] Creating Layer deconv1
I0528 18:17:26.353122 17126 net.cpp:406] deconv1 <- deconv2
I0528 18:17:26.353127 17126 net.cpp:380] deconv1 -> deconv1
I0528 18:17:26.356871 17126 net.cpp:122] Setting up deconv1
I0528 18:17:26.356881 17126 net.cpp:129] Top shape: 1 96 49 49 (230496)
I0528 18:17:26.356884 17126 net.cpp:137] Memory required for data: 13955476
I0528 18:17:26.356887 17126 layer_factory.hpp:77] Creating layer deconv1relu
I0528 18:17:26.356891 17126 net.cpp:84] Creating Layer deconv1relu
I0528 18:17:26.356894 17126 net.cpp:406] deconv1relu <- deconv1
I0528 18:17:26.356897 17126 net.cpp:367] deconv1relu -> deconv1 (in-place)
I0528 18:17:26.357676 17126 net.cpp:122] Setting up deconv1relu
I0528 18:17:26.357686 17126 net.cpp:129] Top shape: 1 96 49 49 (230496)
I0528 18:17:26.357688 17126 net.cpp:137] Memory required for data: 14877460
I0528 18:17:26.357692 17126 layer_factory.hpp:77] Creating layer deconv0
I0528 18:17:26.357697 17126 net.cpp:84] Creating Layer deconv0
I0528 18:17:26.357699 17126 net.cpp:406] deconv0 <- deconv1
I0528 18:17:26.357703 17126 net.cpp:380] deconv0 -> deconv0
I0528 18:17:26.358050 17126 net.cpp:122] Setting up deconv0
I0528 18:17:26.358058 17126 net.cpp:129] Top shape: 1 3 203 203 (123627)
I0528 18:17:26.358060 17126 net.cpp:137] Memory required for data: 15371968
I0528 18:17:26.358063 17126 layer_factory.hpp:77] Creating layer deconv0relu
I0528 18:17:26.358067 17126 net.cpp:84] Creating Layer deconv0relu
I0528 18:17:26.358069 17126 net.cpp:406] deconv0relu <- deconv0
I0528 18:17:26.358072 17126 net.cpp:367] deconv0relu -> deconv0 (in-place)
I0528 18:17:26.358184 17126 net.cpp:122] Setting up deconv0relu
I0528 18:17:26.358191 17126 net.cpp:129] Top shape: 1 3 203 203 (123627)
I0528 18:17:26.358193 17126 net.cpp:137] Memory required for data: 15866476
I0528 18:17:26.358196 17126 layer_factory.hpp:77] Creating layer output
I0528 18:17:26.358201 17126 net.cpp:84] Creating Layer output
I0528 18:17:26.358203 17126 net.cpp:406] output <- deconv0
I0528 18:17:26.358207 17126 net.cpp:380] output -> output
I0528 18:17:26.358407 17126 net.cpp:122] Setting up output
I0528 18:17:26.358413 17126 net.cpp:129] Top shape: 1 3 227 227 (154587)
I0528 18:17:26.358415 17126 net.cpp:137] Memory required for data: 16484824
I0528 18:17:26.358418 17126 layer_factory.hpp:77] Creating layer outputrelu
I0528 18:17:26.358422 17126 net.cpp:84] Creating Layer outputrelu
I0528 18:17:26.358424 17126 net.cpp:406] outputrelu <- output
I0528 18:17:26.358428 17126 net.cpp:367] outputrelu -> output (in-place)
I0528 18:17:26.358556 17126 net.cpp:122] Setting up outputrelu
I0528 18:17:26.358562 17126 net.cpp:129] Top shape: 1 3 227 227 (154587)
I0528 18:17:26.358564 17126 net.cpp:137] Memory required for data: 17103172
I0528 18:17:26.358566 17126 layer_factory.hpp:77] Creating layer loss
I0528 18:17:26.358572 17126 net.cpp:84] Creating Layer loss
I0528 18:17:26.358573 17126 net.cpp:406] loss <- output
I0528 18:17:26.358577 17126 net.cpp:406] loss <- data/img_data/img_0_split_1
I0528 18:17:26.358579 17126 net.cpp:380] loss -> l2_error
…
