…
I0303 15:52:03.040591 27218 net.cpp:294] The NetState phase (0) differed from the phase (1) specified by a rule in layer data
I0303 15:52:03.040730 27218 net.cpp:51] Initializing net from parameters: 
name: "buildingnetwork"
state {
  phase: TRAIN
  level: 0
  stage: ""
}
layer {
  name: "data"
  type: "Data"
  top: "data"
  include {
    phase: TRAIN
  }
  transform_param {
    scale: 0.0039215684
    mean_file: "/home/lod/master-thesis/examples/master-thesis/building_model/image_mean.binaryproto"
  }
  data_param {
    source: "/home/lod/master-thesis/LMDB-datasets/trashnet384x384-new/train_lmdb"
    batch_size: 1
    backend: LMDB
  }
}
layer {
  name: "conv1"
  type: "Convolution"
  bottom: "data"
  top: "conv1"
  param {
    lr_mult: 1
    decay_mult: 1
  }
  param {
    lr_mult: 2
    decay_mult: 0
  }
  convolution_param {
    num_output: 512
    kernel_size: 11
    stride: 4
    weight_filler {
      type: "gaussian"
    }
    bias_filler {
      type: "constant"
      value: 0
    }
  }
}
layer {
  name: "sign1conv1"
  type: "Sigmoid"
  bottom: "conv1"
  top: "conv1"
}
layer {
  name: "pool1"
  type: "Pooling"
  bottom: "conv1"
  top: "pool1"
  pooling_param {
    pool: MAX
    kernel_size: 2
    stride: 2
  }
}
layer {
  name: "conv2"
  type: "Convolution"
  bottom: "pool1"
  top: "conv2"
  param {
    lr_mult: 1
    decay_mult: 1
  }
  param {
    lr_mult: 2
    decay_mult: 0
  }
  convolution_param {
    num_output: 256
    kernel_size: 5
    stride: 1
    weight_filler {
      type: "gaussian"
    }
    bias_filler {
      type: "constant"
      value: 0
    }
  }
}
layer {
  name: "sig2conv2"
  type: "Sigmoid"
  bottom: "conv2"
  top: "conv2"
}
layer {
  name: "pool2"
  type: "Pooling"
  bottom: "conv2"
  top: "pool2"
  pooling_param {
    pool: MAX
    kernel_size: 2
    stride: 2
  }
}
layer {
  name: "conv3"
  type: "Convolution"
  bottom: "pool2"
  top: "conv3"
  param {
    lr_mult: 1
    decay_mult: 1
  }
  param {
    lr_mult: 2
    decay_mult: 0
  }
  convolution_param {
    num_output: 128
    pad: 1
    kernel_size: 3
    stride: 1
    weight_filler {
      type: "gaussian"
    }
    bias_filler {
      type: "constant"
      value: 0
    }
  }
}
layer {
  name: "sig3conv3"
  type: "Sigmoid"
  bottom: "conv3"
  top: "conv3"
}
layer {
  name: "deconv3"
  type: "Deconvolution"
  bottom: "conv3"
  top: "deconv3"
  param {
    lr_mult: 1
    decay_mult: 1
  }
  param {
    lr_mult: 2
    decay_mult: 0
  }
  convolution_param {
    num_output: 128
    kernel_size: 1
    stride: 1
    weight_filler {
      type: "gaussian"
    }
    bias_filler {
      type: "constant"
      value: 0
    }
  }
}
layer {
  name: "deconv3sig3"
  type: "Sigmoid"
  bottom: "deconv3"
  top: "deconv3"
}
layer {
  name: "unpool3"
  type: "UNPOOLING"
  bottom: "deconv3"
  top: "unpool3"
  unpooling_param {
    unpool: MAX
    kernel_size: 2
    stride: 2
    unpool_size: 44
  }
}
layer {
  name: "deconv2"
  type: "Deconvolution"
  bottom: "unpool3"
  top: "deconv2"
  param {
    lr_mult: 1
    decay_mult: 1
  }
  param {
    lr_mult: 2
    decay_mult: 0
  }
  convolution_param {
    num_output: 256
    kernel_size: 1
    stride: 1
    weight_filler {
      type: "gaussian"
    }
    bias_filler {
      type: "constant"
      value: 0
    }
  }
}
layer {
  name: "deconv2sig2"
  type: "Sigmoid"
  bottom: "deconv2"
  top: "deconv2"
}
layer {
  name: "unpool2"
  type: "UNPOOLING"
  bottom: "deconv2"
  top: "unpool2"
  unpooling_param {
    unpool: MAX
    kernel_size: 2
    stride: 2
    unpool_size: 88
  }
}
layer {
  name: "deconv1"
  type: "Deconvolution"
  bottom: "unpool2"
  top: "deconv1"
  param {
    lr_mult: 1
    decay_mult: 1
  }
  param {
    lr_mult: 2
    decay_mult: 0
  }
  convolution_param {
    num_output: 512
    kernel_size: 8
    stride: 1
    weight_filler {
      type: "gaussian"
    }
    bias_filler {
      type: "constant"
      value: 0
    }
  }
}
layer {
  name: "deconv1sig1"
  type: "Sigmoid"
  bottom: "deconv1"
  top: "deconv1"
}
layer {
  name: "deconv0"
  type: "Deconvolution"
  bottom: "deconv1"
  top: "deconv0"
  param {
    lr_mult: 1
    decay_mult: 1
  }
  param {
    lr_mult: 2
    decay_mult: 0
  }
  convolution_param {
    num_output: 3
    kernel_size: 8
    stride: 4
    weight_filler {
      type: "gaussian"
    }
    bias_filler {
      type: "constant"
      value: 0
    }
  }
}
layer {
  name: "loss"
  type: "EuclideanLoss"
  bottom: "deconv0"
  bottom: "data"
  top: "l2_error"
  loss_weight: 1
}
I0303 15:52:03.040848 27218 layer_factory.hpp:77] Creating layer data
I0303 15:52:03.040946 27218 db_lmdb.cpp:35] Opened lmdb /home/lod/master-thesis/LMDB-datasets/trashnet384x384-new/train_lmdb
I0303 15:52:03.040971 27218 net.cpp:84] Creating Layer data
I0303 15:52:03.040979 27218 net.cpp:380] data -> data
I0303 15:52:03.041000 27218 data_transformer.cpp:25] Loading mean file from: /home/lod/master-thesis/examples/master-thesis/building_model/image_mean.binaryproto
I0303 15:52:03.046106 27218 data_layer.cpp:45] output data size: 1,3,384,384
I0303 15:52:03.052268 27218 net.cpp:122] Setting up data
I0303 15:52:03.052286 27218 net.cpp:129] Top shape: 1 3 384 384 (442368)
I0303 15:52:03.052290 27218 net.cpp:137] Memory required for data: 1769472
I0303 15:52:03.052297 27218 layer_factory.hpp:77] Creating layer data_data_0_split
I0303 15:52:03.052310 27218 net.cpp:84] Creating Layer data_data_0_split
I0303 15:52:03.052315 27218 net.cpp:406] data_data_0_split <- data
I0303 15:52:03.052321 27218 net.cpp:380] data_data_0_split -> data_data_0_split_0
I0303 15:52:03.052330 27218 net.cpp:380] data_data_0_split -> data_data_0_split_1
I0303 15:52:03.052393 27218 net.cpp:122] Setting up data_data_0_split
I0303 15:52:03.052400 27218 net.cpp:129] Top shape: 1 3 384 384 (442368)
I0303 15:52:03.052403 27218 net.cpp:129] Top shape: 1 3 384 384 (442368)
I0303 15:52:03.052405 27218 net.cpp:137] Memory required for data: 5308416
I0303 15:52:03.052408 27218 layer_factory.hpp:77] Creating layer conv1
I0303 15:52:03.052422 27218 net.cpp:84] Creating Layer conv1
I0303 15:52:03.052423 27218 net.cpp:406] conv1 <- data_data_0_split_0
I0303 15:52:03.052433 27218 net.cpp:380] conv1 -> conv1
I0303 15:52:03.059633 27218 net.cpp:122] Setting up conv1
I0303 15:52:03.059650 27218 net.cpp:129] Top shape: 1 512 94 94 (4524032)
I0303 15:52:03.059653 27218 net.cpp:137] Memory required for data: 23404544
I0303 15:52:03.059665 27218 layer_factory.hpp:77] Creating layer sign1conv1
I0303 15:52:03.059671 27218 net.cpp:84] Creating Layer sign1conv1
I0303 15:52:03.059675 27218 net.cpp:406] sign1conv1 <- conv1
I0303 15:52:03.059679 27218 net.cpp:367] sign1conv1 -> conv1 (in-place)
I0303 15:52:03.059689 27218 net.cpp:122] Setting up sign1conv1
I0303 15:52:03.059693 27218 net.cpp:129] Top shape: 1 512 94 94 (4524032)
I0303 15:52:03.059695 27218 net.cpp:137] Memory required for data: 41500672
I0303 15:52:03.059697 27218 layer_factory.hpp:77] Creating layer pool1
I0303 15:52:03.059703 27218 net.cpp:84] Creating Layer pool1
I0303 15:52:03.059705 27218 net.cpp:406] pool1 <- conv1
I0303 15:52:03.059710 27218 net.cpp:380] pool1 -> pool1
I0303 15:52:03.059762 27218 net.cpp:122] Setting up pool1
I0303 15:52:03.059767 27218 net.cpp:129] Top shape: 1 512 47 47 (1131008)
I0303 15:52:03.059769 27218 net.cpp:137] Memory required for data: 46024704
I0303 15:52:03.059772 27218 layer_factory.hpp:77] Creating layer conv2
I0303 15:52:03.059779 27218 net.cpp:84] Creating Layer conv2
I0303 15:52:03.059798 27218 net.cpp:406] conv2 <- pool1
I0303 15:52:03.059803 27218 net.cpp:380] conv2 -> conv2
I0303 15:52:03.144146 27218 net.cpp:122] Setting up conv2
I0303 15:52:03.144171 27218 net.cpp:129] Top shape: 1 256 43 43 (473344)
I0303 15:52:03.144174 27218 net.cpp:137] Memory required for data: 47918080
I0303 15:52:03.144186 27218 layer_factory.hpp:77] Creating layer sig2conv2
I0303 15:52:03.144196 27218 net.cpp:84] Creating Layer sig2conv2
I0303 15:52:03.144198 27218 net.cpp:406] sig2conv2 <- conv2
I0303 15:52:03.144203 27218 net.cpp:367] sig2conv2 -> conv2 (in-place)
I0303 15:52:03.144210 27218 net.cpp:122] Setting up sig2conv2
I0303 15:52:03.144213 27218 net.cpp:129] Top shape: 1 256 43 43 (473344)
I0303 15:52:03.144215 27218 net.cpp:137] Memory required for data: 49811456
I0303 15:52:03.144217 27218 layer_factory.hpp:77] Creating layer pool2
I0303 15:52:03.144222 27218 net.cpp:84] Creating Layer pool2
I0303 15:52:03.144224 27218 net.cpp:406] pool2 <- conv2
I0303 15:52:03.144228 27218 net.cpp:380] pool2 -> pool2
I0303 15:52:03.144259 27218 net.cpp:122] Setting up pool2
I0303 15:52:03.144263 27218 net.cpp:129] Top shape: 1 256 22 22 (123904)
I0303 15:52:03.144265 27218 net.cpp:137] Memory required for data: 50307072
I0303 15:52:03.144268 27218 layer_factory.hpp:77] Creating layer conv3
I0303 15:52:03.144278 27218 net.cpp:84] Creating Layer conv3
I0303 15:52:03.144280 27218 net.cpp:406] conv3 <- pool2
I0303 15:52:03.144284 27218 net.cpp:380] conv3 -> conv3
I0303 15:52:03.151654 27218 net.cpp:122] Setting up conv3
I0303 15:52:03.151664 27218 net.cpp:129] Top shape: 1 128 22 22 (61952)
I0303 15:52:03.151666 27218 net.cpp:137] Memory required for data: 50554880
I0303 15:52:03.151674 27218 layer_factory.hpp:77] Creating layer sig3conv3
I0303 15:52:03.151677 27218 net.cpp:84] Creating Layer sig3conv3
I0303 15:52:03.151679 27218 net.cpp:406] sig3conv3 <- conv3
I0303 15:52:03.151684 27218 net.cpp:367] sig3conv3 -> conv3 (in-place)
I0303 15:52:03.151687 27218 net.cpp:122] Setting up sig3conv3
I0303 15:52:03.151690 27218 net.cpp:129] Top shape: 1 128 22 22 (61952)
I0303 15:52:03.151693 27218 net.cpp:137] Memory required for data: 50802688
I0303 15:52:03.151695 27218 layer_factory.hpp:77] Creating layer deconv3
I0303 15:52:03.151700 27218 net.cpp:84] Creating Layer deconv3
I0303 15:52:03.151702 27218 net.cpp:406] deconv3 <- conv3
I0303 15:52:03.151706 27218 net.cpp:380] deconv3 -> deconv3
I0303 15:52:03.152269 27218 net.cpp:122] Setting up deconv3
I0303 15:52:03.152278 27218 net.cpp:129] Top shape: 1 128 22 22 (61952)
I0303 15:52:03.152281 27218 net.cpp:137] Memory required for data: 51050496
I0303 15:52:03.152285 27218 layer_factory.hpp:77] Creating layer deconv3sig3
I0303 15:52:03.152289 27218 net.cpp:84] Creating Layer deconv3sig3
I0303 15:52:03.152293 27218 net.cpp:406] deconv3sig3 <- deconv3
I0303 15:52:03.152297 27218 net.cpp:367] deconv3sig3 -> deconv3 (in-place)
I0303 15:52:03.152302 27218 net.cpp:122] Setting up deconv3sig3
I0303 15:52:03.152305 27218 net.cpp:129] Top shape: 1 128 22 22 (61952)
I0303 15:52:03.152307 27218 net.cpp:137] Memory required for data: 51298304
I0303 15:52:03.152309 27218 layer_factory.hpp:77] Creating layer unpool3
I0303 15:52:03.152313 27218 net.cpp:84] Creating Layer unpool3
I0303 15:52:03.152315 27218 net.cpp:406] unpool3 <- deconv3
I0303 15:52:03.152318 27218 net.cpp:380] unpool3 -> unpool3
I0303 15:52:03.152345 27218 net.cpp:122] Setting up unpool3
I0303 15:52:03.152350 27218 net.cpp:129] Top shape: 1 128 44 44 (247808)
I0303 15:52:03.152353 27218 net.cpp:137] Memory required for data: 52289536
I0303 15:52:03.152354 27218 layer_factory.hpp:77] Creating layer deconv2
I0303 15:52:03.152359 27218 net.cpp:84] Creating Layer deconv2
I0303 15:52:03.152361 27218 net.cpp:406] deconv2 <- unpool3
I0303 15:52:03.152365 27218 net.cpp:380] deconv2 -> deconv2
I0303 15:52:03.154103 27218 net.cpp:122] Setting up deconv2
I0303 15:52:03.154115 27218 net.cpp:129] Top shape: 1 256 44 44 (495616)
I0303 15:52:03.154117 27218 net.cpp:137] Memory required for data: 54272000
I0303 15:52:03.154139 27218 layer_factory.hpp:77] Creating layer deconv2sig2
I0303 15:52:03.154145 27218 net.cpp:84] Creating Layer deconv2sig2
I0303 15:52:03.154147 27218 net.cpp:406] deconv2sig2 <- deconv2
I0303 15:52:03.154151 27218 net.cpp:367] deconv2sig2 -> deconv2 (in-place)
I0303 15:52:03.154155 27218 net.cpp:122] Setting up deconv2sig2
I0303 15:52:03.154158 27218 net.cpp:129] Top shape: 1 256 44 44 (495616)
I0303 15:52:03.154160 27218 net.cpp:137] Memory required for data: 56254464
I0303 15:52:03.154163 27218 layer_factory.hpp:77] Creating layer unpool2
I0303 15:52:03.154167 27218 net.cpp:84] Creating Layer unpool2
I0303 15:52:03.154170 27218 net.cpp:406] unpool2 <- deconv2
I0303 15:52:03.154172 27218 net.cpp:380] unpool2 -> unpool2
I0303 15:52:03.154191 27218 net.cpp:122] Setting up unpool2
I0303 15:52:03.154196 27218 net.cpp:129] Top shape: 1 256 88 88 (1982464)
I0303 15:52:03.154197 27218 net.cpp:137] Memory required for data: 64184320
I0303 15:52:03.154199 27218 layer_factory.hpp:77] Creating layer deconv1
I0303 15:52:03.154206 27218 net.cpp:84] Creating Layer deconv1
I0303 15:52:03.154208 27218 net.cpp:406] deconv1 <- unpool2
I0303 15:52:03.154212 27218 net.cpp:380] deconv1 -> deconv1
I0303 15:52:03.367693 27218 net.cpp:122] Setting up deconv1
I0303 15:52:03.367720 27218 net.cpp:129] Top shape: 1 512 95 95 (4620800)
I0303 15:52:03.367723 27218 net.cpp:137] Memory required for data: 82667520
I0303 15:52:03.367730 27218 layer_factory.hpp:77] Creating layer deconv1sig1
I0303 15:52:03.367738 27218 net.cpp:84] Creating Layer deconv1sig1
I0303 15:52:03.367744 27218 net.cpp:406] deconv1sig1 <- deconv1
I0303 15:52:03.367749 27218 net.cpp:367] deconv1sig1 -> deconv1 (in-place)
I0303 15:52:03.367756 27218 net.cpp:122] Setting up deconv1sig1
I0303 15:52:03.367759 27218 net.cpp:129] Top shape: 1 512 95 95 (4620800)
I0303 15:52:03.367761 27218 net.cpp:137] Memory required for data: 101150720
I0303 15:52:03.367763 27218 layer_factory.hpp:77] Creating layer deconv0
I0303 15:52:03.367771 27218 net.cpp:84] Creating Layer deconv0
I0303 15:52:03.367774 27218 net.cpp:406] deconv0 <- deconv1
I0303 15:52:03.367777 27218 net.cpp:380] deconv0 -> deconv0
I0303 15:52:03.371273 27218 net.cpp:122] Setting up deconv0
I0303 15:52:03.371286 27218 net.cpp:129] Top shape: 1 3 384 384 (442368)
I0303 15:52:03.371289 27218 net.cpp:137] Memory required for data: 102920192
I0303 15:52:03.371294 27218 layer_factory.hpp:77] Creating layer loss
I0303 15:52:03.371299 27218 net.cpp:84] Creating Layer loss
I0303 15:52:03.371302 27218 net.cpp:406] loss <- deconv0
I0303 15:52:03.371305 27218 net.cpp:406] loss <- data_data_0_split_1
I0303 15:52:03.371309 27218 net.cpp:380] loss -> l2_error
…
