…
  top: "data/img"
  include {
    phase: TRAIN
  }
  transform_param {
    scale: 0.0039215689
  }
  data_param {
    source: "/home/lod/master-thesis/LMDB-datasets/prepared_dataSets/dataSet_5c_300_5_2_train/img_train_db"
    batch_size: 1
    backend: LMDB
  }
}
layer {
  name: "data"
  type: "Data"
  top: "data"
  include {
    phase: TRAIN
  }
  transform_param {
    scale: 0.83333
  }
  data_param {
    source: "/home/lod/master-thesis/LMDB-datasets/prepared_dataSets/dataSet_5c_300_5_2_train/nir_train_db"
    batch_size: 1
    backend: LMDB
  }
}
layer {
  name: "img_data/bn"
  type: "BatchNorm"
  bottom: "data/img"
  top: "img_data/bn"
  batch_norm_param {
    moving_average_fraction: 0.9
  }
}
layer {
  name: "conv1"
  type: "Convolution"
  bottom: "img_data/bn"
  top: "conv1"
  param {
    lr_mult: 0.0001
    decay_mult: 1
  }
  param {
    lr_mult: 0.0002
    decay_mult: 0
  }
  convolution_param {
    num_output: 96
    kernel_size: 11
    stride: 4
    weight_filler {
      type: "msra"
    }
    bias_filler {
      type: "constant"
      value: 0
    }
  }
}
layer {
  name: "relu1conv1"
  type: "PReLU"
  bottom: "conv1"
  top: "conv1"
}
layer {
  name: "pool1"
  type: "Pooling"
  bottom: "conv1"
  top: "pool1"
  pooling_param {
    pool: MAX
    kernel_size: 3
    stride: 2
  }
}
layer {
  name: "conv2"
  type: "Convolution"
  bottom: "pool1"
  top: "conv2"
  param {
    lr_mult: 0.001
    decay_mult: 1
  }
  param {
    lr_mult: 0.002
    decay_mult: 0
  }
  convolution_param {
    num_output: 256
    pad: 2
    kernel_size: 5
    group: 2
    stride: 1
    weight_filler {
      type: "msra"
    }
    bias_filler {
      type: "constant"
      value: 0
    }
  }
}
layer {
  name: "reluconv2"
  type: "PReLU"
  bottom: "conv2"
  top: "conv2"
}
layer {
  name: "pool2"
  type: "Pooling"
  bottom: "conv2"
  top: "pool2"
  pooling_param {
    pool: MAX
    kernel_size: 3
    stride: 2
  }
}
layer {
  name: "conv3"
  type: "Convolution"
  bottom: "pool2"
  top: "conv3"
  param {
    lr_mult: 0.01
    decay_mult: 1
  }
  param {
    lr_mult: 0.02
    decay_mult: 0
  }
  convolution_param {
    num_output: 384
    pad: 1
    kernel_size: 3
    stride: 1
    weight_filler {
      type: "msra"
    }
    bias_filler {
      type: "constant"
      value: 0
    }
  }
}
layer {
  name: "reluconv3"
  type: "PReLU"
  bottom: "conv3"
  top: "conv3"
}
layer {
  name: "conv4"
  type: "Convolution"
  bottom: "conv3"
  top: "conv4"
  param {
    lr_mult: 0.1
    decay_mult: 1
  }
  param {
    lr_mult: 0.2
    decay_mult: 0
  }
  convolution_param {
    num_output: 384
    pad: 1
    kernel_size: 3
    group: 2
    stride: 1
    weight_filler {
      type: "msra"
    }
    bias_filler {
      type: "constant"
      value: 0
    }
  }
}
layer {
  name: "reluconv4"
  type: "PReLU"
  bottom: "conv4"
  top: "conv4"
}
layer {
  name: "conv5"
  type: "Convolution"
  bottom: "conv4"
  top: "conv5"
  param {
    lr_mult: 1
    decay_mult: 1
  }
  param {
    lr_mult: 2
    decay_mult: 0
  }
  convolution_param {
    num_output: 256
    pad: 1
    kernel_size: 3
    group: 2
    stride: 1
    weight_filler {
      type: "msra"
    }
    bias_filler {
      type: "constant"
      value: 0
    }
  }
}
layer {
  name: "reluconv5"
  type: "PReLU"
  bottom: "conv5"
  top: "conv5"
}
layer {
  name: "pool3"
  type: "Pooling"
  bottom: "conv5"
  top: "pool3"
  pooling_param {
    pool: MAX
    kernel_size: 3
    stride: 2
  }
}
layer {
  name: "img/flatten"
  type: "Flatten"
  bottom: "pool3"
  top: "img/flatten"
}
layer {
  name: "img/fc1"
  type: "InnerProduct"
  bottom: "img/flatten"
  top: "img/fc1"
  param {
    lr_mult: 1
    decay_mult: 1
  }
  param {
    lr_mult: 2
    decay_mult: 0
  }
  inner_product_param {
    num_output: 4096
    weight_filler {
      type: "msra"
    }
    bias_filler {
      type: "constant"
      value: 0
    }
  }
}
layer {
  name: "img_relu/fc1"
  type: "PReLU"
  bottom: "img/fc1"
  top: "img/fc1"
}
layer {
  name: "img/fc2"
  type: "InnerProduct"
  bottom: "img/fc1"
  top: "img/fc2"
  param {
    lr_mult: 1
    decay_mult: 1
  }
  param {
    lr_mult: 2
    decay_mult: 0
  }
  inner_product_param {
    num_output: 4096
    weight_filler {
      type: "msra"
    }
    bias_filler {
      type: "constant"
      value: 0
    }
  }
}
layer {
  name: "img_relu/fc2"
  type: "PReLU"
  bottom: "img/fc2"
  top: "img/fc2"
}
layer {
  name: "img_fc3"
  type: "InnerProduct"
  bottom: "img/fc2"
  top: "img_fc3"
  param {
    lr_mult: 1
    decay_mult: 1
  }
  param {
    lr_mult: 2
    decay_mult: 0
  }
  inner_product_param {
    num_output: 1000
    weight_filler {
      type: "msra"
    }
    bias_filler {
      type: "constant"
      value: 0
    }
  }
}
layer {
  name: "img_relu/fc3r"
  type: "PReLU"
  bottom: "img_fc3"
  top: "img_fc3"
}
layer {
  name: "nir/fc3"
  type: "InnerProduct"
  bottom: "img_fc3"
  top: "nir/fc3"
  param {
    lr_mult: 1
    decay_mult: 1
  }
  param {
    lr_mult: 2
    decay_mult: 0
  }
  inner_product_param {
    num_output: 616
    weight_filler {
      type: "msra"
    }
    bias_filler {
      type: "constant"
      value: 0
    }
  }
}
layer {
  name: "relu_nir/fc3"
  type: "ReLU"
  bottom: "nir/fc3"
  top: "nir/fc3"
}
layer {
  name: "reshape"
  type: "Reshape"
  bottom: "nir/fc3"
  top: "nir_fc3/reshaped"
  reshape_param {
    shape {
      dim: 0
      dim: 1
      dim: 11
      dim: 56
    }
  }
}
layer {
  name: "deconv1_nir"
  type: "Deconvolution"
  bottom: "nir_fc3/reshaped"
  top: "deconv1_nir"
  param {
    lr_mult: 1
    decay_mult: 1
  }
  param {
    lr_mult: 2
    decay_mult: 0
  }
  convolution_param {
    num_output: 235
    kernel_size: 1
    stride: 1
    weight_filler {
      type: "msra"
    }
    bias_filler {
      type: "constant"
      value: 0
    }
  }
}
layer {
  name: "loss_nir"
  type: "EuclideanLoss"
  bottom: "deconv1_nir"
  bottom: "data"
  top: "error/nir"
  loss_weight: 1
}
layer {
  name: "img/fc4"
  type: "InnerProduct"
  bottom: "img_fc3"
  top: "img/fc4"
  param {
    lr_mult: 1
    decay_mult: 1
  }
  param {
    lr_mult: 2
    decay_mult: 0
  }
  inner_product_param {
    num_output: 4096
    weight_filler {
      type: "msra"
    }
    bias_filler {
      type: "constant"
      value: 0
    }
  }
}
layer {
  name: "img_relu/fc4"
  type: "PReLU"
  bottom: "img/fc4"
  top: "img/fc4"
}
layer {
  name: "img/fc5"
  type: "InnerProduct"
  bottom: "img/fc4"
  top: "img/fc5"
  param {
    lr_mult: 1
    decay_mult: 1
  }
  param {
    lr_mult: 2
    decay_mult: 0
  }
  inner_product_param {
    num_output: 4096
    weight_filler {
      type: "msra"
    }
    bias_filler {
      type: "constant"
      value: 0
    }
  }
}
layer {
  name: "img_relu/fc5"
  type: "PReLU"
  bottom: "img/fc5"
  top: "img/fc5"
}
layer {
  name: "img/fc6"
  type: "InnerProduct"
  bottom: "img/fc5"
  top: "img/fc6"
  param {
    lr_mult: 1
    decay_mult: 1
  }
  param {
    lr_mult: 2
    decay_mult: 0
  }
  inner_product_param {
    num_output: 9216
    weight_filler {
      type: "msra"
    }
    bias_filler {
      type: "constant"
      value: 0
    }
  }
}
layer {
  name: "img_relu/fc6"
  type: "PReLU"
  bottom: "img/fc6"
  top: "img/fc6"
}
layer {
  name: "img/reshape"
  type: "Reshape"
  bottom: "img/fc6"
  top: "img/reshape"
  reshape_param {
    shape {
      dim: 0
      dim: 256
      dim: 6
      dim: 6
    }
  }
}
layer {
  name: "unpool1"
  type: "UNPOOLING"
  bottom: "img/reshape"
  top: "unpool1"
  unpooling_param {
    unpool: MAX
    kernel_size: 3
    stride: 2
    unpool_size: 13
  }
}
layer {
  name: "deconv1"
  type: "Deconvolution"
  bottom: "unpool1"
  top: "deconv1"
  param {
    lr_mult: 1
    decay_mult: 1
  }
  param {
    lr_mult: 2
    decay_mult: 0
  }
  convolution_param {
    num_output: 256
    pad: 1
    kernel_size: 3
    stride: 1
    weight_filler {
      type: "msra"
    }
    bias_filler {
      type: "constant"
      value: 0
    }
  }
}
layer {
  name: "deconv1relu"
  type: "PReLU"
  bottom: "deconv1"
  top: "deconv1"
}
layer {
  name: "deconv2"
  type: "Deconvolution"
  bottom: "deconv1"
  top: "deconv2"
  param {
    lr_mult: 1
    decay_mult: 1
  }
  param {
    lr_mult: 2
    decay_mult: 0
  }
  convolution_param {
    num_output: 384
    pad: 1
    kernel_size: 3
    stride: 1
    weight_filler {
      type: "msra"
    }
    bias_filler {
      type: "constant"
      value: 0
    }
  }
}
layer {
  name: "deconv2relu"
  type: "PReLU"
  bottom: "deconv2"
  top: "deconv2"
}
layer {
  name: "deconv3"
  type: "Deconvolution"
  bottom: "deconv2"
  top: "deconv3"
  param {
    lr_mult: 1
    decay_mult: 1
  }
  param {
    lr_mult: 2
    decay_mult: 0
  }
  convolution_param {
    num_output: 384
    pad: 1
    kernel_size: 3
    stride: 1
    weight_filler {
      type: "msra"
    }
    bias_filler {
      type: "constant"
      value: 0
    }
  }
}
layer {
  name: "deconv3relu"
  type: "PReLU"
  bottom: "deconv3"
  top: "deconv3"
}
layer {
  name: "unpool2"
  type: "UNPOOLING"
  bottom: "deconv3"
  top: "unpool2"
  unpooling_param {
    unpool: MAX
    kernel_size: 3
    stride: 2
    unpool_size: 27
  }
}
layer {
  name: "deconv4"
  type: "Deconvolution"
  bottom: "unpool2"
  top: "deconv4"
  param {
    lr_mult: 1
    decay_mult: 1
  }
  param {
    lr_mult: 2
    decay_mult: 0
  }
  convolution_param {
    num_output: 256
    pad: 1
    kernel_size: 3
    stride: 1
    weight_filler {
      type: "msra"
    }
    bias_filler {
      type: "constant"
      value: 0
    }
  }
}
layer {
  name: "deconv4relu"
  type: "PReLU"
  bottom: "deconv4"
  top: "deconv4"
}
layer {
  name: "unpool3"
  type: "UNPOOLING"
  bottom: "deconv4"
  top: "unpool3"
  unpooling_param {
    unpool: MAX
    kernel_size: 3
    stride: 2
    unpool_size: 55
  }
}
layer {
  name: "deconv5"
  type: "Deconvolution"
  bottom: "unpool3"
  top: "deconv5"
  param {
    lr_mult: 1
    decay_mult: 1
  }
  param {
    lr_mult: 2
    decay_mult: 0
  }
  convolution_param {
    num_output: 96
    pad: 1
    kernel_size: 3
    stride: 1
    weight_filler {
      type: "msra"
    }
    bias_filler {
      type: "constant"
      value: 0
    }
  }
}
layer {
  name: "deconv5relu"
  type: "PReLU"
  bottom: "deconv5"
  top: "deconv5"
}
layer {
  name: "output"
  type: "Deconvolution"
  bottom: "deconv5"
  top: "output"
  param {
    lr_mult: 1
    decay_mult: 1
  }
  param {
    lr_mult: 2
    decay_mult: 0
  }
  convolution_param {
    num_output: 3
    kernel_size: 11
    stride: 4
    weight_filler {
      type: "msra"
    }
    bias_filler {
      type: "constant"
      value: 0
    }
  }
}
layer {
  name: "outputrelu"
  type: "PReLU"
  bottom: "output"
  top: "output"
}
layer {
  name: "loss_img"
  type: "EuclideanLoss"
  bottom: "output"
  bottom: "data/img"
  top: "error/img"
  loss_weight: 1
}
I0718 08:24:24.570173   479 layer_factory.hpp:77] Creating layer data/img
I0718 08:24:24.570268   479 db_lmdb.cpp:35] Opened lmdb /home/lod/master-thesis/LMDB-datasets/prepared_dataSets/dataSet_5c_300_5_2_train/img_train_db
I0718 08:24:24.570297   479 net.cpp:84] Creating Layer data/img
I0718 08:24:24.570304   479 net.cpp:380] data/img -> data/img
I0718 08:24:24.571314   479 data_layer.cpp:45] output data size: 1,3,227,227
I0718 08:24:24.574092   479 net.cpp:122] Setting up data/img
I0718 08:24:24.574106   479 net.cpp:129] Top shape: 1 3 227 227 (154587)
I0718 08:24:24.574110   479 net.cpp:137] Memory required for data: 618348
I0718 08:24:24.574115   479 layer_factory.hpp:77] Creating layer data/img_data/img_0_split
I0718 08:24:24.574143   479 net.cpp:84] Creating Layer data/img_data/img_0_split
I0718 08:24:24.574148   479 net.cpp:406] data/img_data/img_0_split <- data/img
I0718 08:24:24.574154   479 net.cpp:380] data/img_data/img_0_split -> data/img_data/img_0_split_0
I0718 08:24:24.574162   479 net.cpp:380] data/img_data/img_0_split -> data/img_data/img_0_split_1
I0718 08:24:24.574196   479 net.cpp:122] Setting up data/img_data/img_0_split
I0718 08:24:24.574204   479 net.cpp:129] Top shape: 1 3 227 227 (154587)
I0718 08:24:24.574208   479 net.cpp:129] Top shape: 1 3 227 227 (154587)
I0718 08:24:24.574209   479 net.cpp:137] Memory required for data: 1855044
I0718 08:24:24.574213   479 layer_factory.hpp:77] Creating layer data
I0718 08:24:24.574270   479 db_lmdb.cpp:35] Opened lmdb /home/lod/master-thesis/LMDB-datasets/prepared_dataSets/dataSet_5c_300_5_2_train/nir_train_db
I0718 08:24:24.574285   479 net.cpp:84] Creating Layer data
I0718 08:24:24.574290   479 net.cpp:380] data -> data
I0718 08:24:24.575423   479 data_layer.cpp:45] output data size: 1,235,11,56
I0718 08:24:24.576861   479 net.cpp:122] Setting up data
I0718 08:24:24.576874   479 net.cpp:129] Top shape: 1 235 11 56 (144760)
I0718 08:24:24.576877   479 net.cpp:137] Memory required for data: 2434084
I0718 08:24:24.576880   479 layer_factory.hpp:77] Creating layer img_data/bn
I0718 08:24:24.576887   479 net.cpp:84] Creating Layer img_data/bn
I0718 08:24:24.576890   479 net.cpp:406] img_data/bn <- data/img_data/img_0_split_0
I0718 08:24:24.576898   479 net.cpp:380] img_data/bn -> img_data/bn
I0718 08:24:24.577929   479 net.cpp:122] Setting up img_data/bn
I0718 08:24:24.577940   479 net.cpp:129] Top shape: 1 3 227 227 (154587)
I0718 08:24:24.577944   479 net.cpp:137] Memory required for data: 3052432
I0718 08:24:24.577960   479 layer_factory.hpp:77] Creating layer conv1
I0718 08:24:24.577975   479 net.cpp:84] Creating Layer conv1
I0718 08:24:24.577982   479 net.cpp:406] conv1 <- img_data/bn
I0718 08:24:24.577987   479 net.cpp:380] conv1 -> conv1
I0718 08:24:25.092545   479 net.cpp:122] Setting up conv1
I0718 08:24:25.092571   479 net.cpp:129] Top shape: 1 96 55 55 (290400)
I0718 08:24:25.092574   479 net.cpp:137] Memory required for data: 4214032
I0718 08:24:25.092588   479 layer_factory.hpp:77] Creating layer relu1conv1
I0718 08:24:25.092597   479 net.cpp:84] Creating Layer relu1conv1
I0718 08:24:25.092600   479 net.cpp:406] relu1conv1 <- conv1
I0718 08:24:25.092607   479 net.cpp:367] relu1conv1 -> conv1 (in-place)
I0718 08:24:25.093516   479 net.cpp:122] Setting up relu1conv1
I0718 08:24:25.093530   479 net.cpp:129] Top shape: 1 96 55 55 (290400)
I0718 08:24:25.093533   479 net.cpp:137] Memory required for data: 5375632
I0718 08:24:25.093538   479 layer_factory.hpp:77] Creating layer pool1
I0718 08:24:25.093545   479 net.cpp:84] Creating Layer pool1
I0718 08:24:25.093549   479 net.cpp:406] pool1 <- conv1
I0718 08:24:25.093554   479 net.cpp:380] pool1 -> pool1
I0718 08:24:25.093596   479 net.cpp:122] Setting up pool1
I0718 08:24:25.093603   479 net.cpp:129] Top shape: 1 96 27 27 (69984)
I0718 08:24:25.093607   479 net.cpp:137] Memory required for data: 5655568
I0718 08:24:25.093610   479 layer_factory.hpp:77] Creating layer conv2
I0718 08:24:25.093621   479 net.cpp:84] Creating Layer conv2
I0718 08:24:25.093624   479 net.cpp:406] conv2 <- pool1
I0718 08:24:25.093629   479 net.cpp:380] conv2 -> conv2
I0718 08:24:25.100649   479 net.cpp:122] Setting up conv2
I0718 08:24:25.100677   479 net.cpp:129] Top shape: 1 256 27 27 (186624)
I0718 08:24:25.100679   479 net.cpp:137] Memory required for data: 6402064
I0718 08:24:25.100685   479 layer_factory.hpp:77] Creating layer reluconv2
I0718 08:24:25.100695   479 net.cpp:84] Creating Layer reluconv2
I0718 08:24:25.100698   479 net.cpp:406] reluconv2 <- conv2
I0718 08:24:25.100703   479 net.cpp:367] reluconv2 -> conv2 (in-place)
I0718 08:24:25.100853   479 net.cpp:122] Setting up reluconv2
I0718 08:24:25.100862   479 net.cpp:129] Top shape: 1 256 27 27 (186624)
I0718 08:24:25.100864   479 net.cpp:137] Memory required for data: 7148560
I0718 08:24:25.100872   479 layer_factory.hpp:77] Creating layer pool2
I0718 08:24:25.100879   479 net.cpp:84] Creating Layer pool2
I0718 08:24:25.100881   479 net.cpp:406] pool2 <- conv2
I0718 08:24:25.100885   479 net.cpp:380] pool2 -> pool2
I0718 08:24:25.100922   479 net.cpp:122] Setting up pool2
I0718 08:24:25.100929   479 net.cpp:129] Top shape: 1 256 13 13 (43264)
I0718 08:24:25.100931   479 net.cpp:137] Memory required for data: 7321616
I0718 08:24:25.100934   479 layer_factory.hpp:77] Creating layer conv3
I0718 08:24:25.100942   479 net.cpp:84] Creating Layer conv3
I0718 08:24:25.100945   479 net.cpp:406] conv3 <- pool2
I0718 08:24:25.100951   479 net.cpp:380] conv3 -> conv3
I0718 08:24:25.110368   479 net.cpp:122] Setting up conv3
I0718 08:24:25.110380   479 net.cpp:129] Top shape: 1 384 13 13 (64896)
I0718 08:24:25.110383   479 net.cpp:137] Memory required for data: 7581200
I0718 08:24:25.110389   479 layer_factory.hpp:77] Creating layer reluconv3
I0718 08:24:25.110397   479 net.cpp:84] Creating Layer reluconv3
I0718 08:24:25.110401   479 net.cpp:406] reluconv3 <- conv3
I0718 08:24:25.110405   479 net.cpp:367] reluconv3 -> conv3 (in-place)
I0718 08:24:25.110527   479 net.cpp:122] Setting up reluconv3
I0718 08:24:25.110535   479 net.cpp:129] Top shape: 1 384 13 13 (64896)
I0718 08:24:25.110538   479 net.cpp:137] Memory required for data: 7840784
I0718 08:24:25.110541   479 layer_factory.hpp:77] Creating layer conv4
I0718 08:24:25.110551   479 net.cpp:84] Creating Layer conv4
I0718 08:24:25.110554   479 net.cpp:406] conv4 <- conv3
I0718 08:24:25.110559   479 net.cpp:380] conv4 -> conv4
I0718 08:24:25.119559   479 net.cpp:122] Setting up conv4
I0718 08:24:25.119571   479 net.cpp:129] Top shape: 1 384 13 13 (64896)
I0718 08:24:25.119575   479 net.cpp:137] Memory required for data: 8100368
I0718 08:24:25.119580   479 layer_factory.hpp:77] Creating layer reluconv4
I0718 08:24:25.119587   479 net.cpp:84] Creating Layer reluconv4
I0718 08:24:25.119590   479 net.cpp:406] reluconv4 <- conv4
I0718 08:24:25.119594   479 net.cpp:367] reluconv4 -> conv4 (in-place)
I0718 08:24:25.119716   479 net.cpp:122] Setting up reluconv4
I0718 08:24:25.119724   479 net.cpp:129] Top shape: 1 384 13 13 (64896)
I0718 08:24:25.119727   479 net.cpp:137] Memory required for data: 8359952
I0718 08:24:25.119730   479 layer_factory.hpp:77] Creating layer conv5
I0718 08:24:25.119740   479 net.cpp:84] Creating Layer conv5
I0718 08:24:25.119742   479 net.cpp:406] conv5 <- conv4
I0718 08:24:25.119747   479 net.cpp:380] conv5 -> conv5
I0718 08:24:25.127218   479 net.cpp:122] Setting up conv5
I0718 08:24:25.127230   479 net.cpp:129] Top shape: 1 256 13 13 (43264)
I0718 08:24:25.127233   479 net.cpp:137] Memory required for data: 8533008
I0718 08:24:25.127243   479 layer_factory.hpp:77] Creating layer reluconv5
I0718 08:24:25.127249   479 net.cpp:84] Creating Layer reluconv5
I0718 08:24:25.127252   479 net.cpp:406] reluconv5 <- conv5
I0718 08:24:25.127256   479 net.cpp:367] reluconv5 -> conv5 (in-place)
I0718 08:24:25.127368   479 net.cpp:122] Setting up reluconv5
I0718 08:24:25.127377   479 net.cpp:129] Top shape: 1 256 13 13 (43264)
I0718 08:24:25.127378   479 net.cpp:137] Memory required for data: 8706064
I0718 08:24:25.127382   479 layer_factory.hpp:77] Creating layer pool3
I0718 08:24:25.127391   479 net.cpp:84] Creating Layer pool3
I0718 08:24:25.127394   479 net.cpp:406] pool3 <- conv5
I0718 08:24:25.127398   479 net.cpp:380] pool3 -> pool3
I0718 08:24:25.127454   479 net.cpp:122] Setting up pool3
I0718 08:24:25.127460   479 net.cpp:129] Top shape: 1 256 6 6 (9216)
I0718 08:24:25.127462   479 net.cpp:137] Memory required for data: 8742928
I0718 08:24:25.127465   479 layer_factory.hpp:77] Creating layer img/flatten
I0718 08:24:25.127475   479 net.cpp:84] Creating Layer img/flatten
I0718 08:24:25.127476   479 net.cpp:406] img/flatten <- pool3
I0718 08:24:25.127481   479 net.cpp:380] img/flatten -> img/flatten
I0718 08:24:25.127516   479 net.cpp:122] Setting up img/flatten
I0718 08:24:25.127523   479 net.cpp:129] Top shape: 1 9216 (9216)
I0718 08:24:25.127526   479 net.cpp:137] Memory required for data: 8779792
I0718 08:24:25.127527   479 layer_factory.hpp:77] Creating layer img/fc1
I0718 08:24:25.127534   479 net.cpp:84] Creating Layer img/fc1
I0718 08:24:25.127537   479 net.cpp:406] img/fc1 <- img/flatten
I0718 08:24:25.127542   479 net.cpp:380] img/fc1 -> img/fc1
I0718 08:24:25.412045   479 net.cpp:122] Setting up img/fc1
I0718 08:24:25.412067   479 net.cpp:129] Top shape: 1 4096 (4096)
I0718 08:24:25.412070   479 net.cpp:137] Memory required for data: 8796176
I0718 08:24:25.412076   479 layer_factory.hpp:77] Creating layer img_relu/fc1
I0718 08:24:25.412083   479 net.cpp:84] Creating Layer img_relu/fc1
I0718 08:24:25.412086   479 net.cpp:406] img_relu/fc1 <- img/fc1
I0718 08:24:25.412092   479 net.cpp:367] img_relu/fc1 -> img/fc1 (in-place)
I0718 08:24:25.412159   479 net.cpp:122] Setting up img_relu/fc1
I0718 08:24:25.412165   479 net.cpp:129] Top shape: 1 4096 (4096)
I0718 08:24:25.412168   479 net.cpp:137] Memory required for data: 8812560
I0718 08:24:25.412170   479 layer_factory.hpp:77] Creating layer img/fc2
I0718 08:24:25.412175   479 net.cpp:84] Creating Layer img/fc2
I0718 08:24:25.412178   479 net.cpp:406] img/fc2 <- img/fc1
I0718 08:24:25.412183   479 net.cpp:380] img/fc2 -> img/fc2
I0718 08:24:25.534050   479 net.cpp:122] Setting up img/fc2
I0718 08:24:25.534072   479 net.cpp:129] Top shape: 1 4096 (4096)
I0718 08:24:25.534075   479 net.cpp:137] Memory required for data: 8828944
I0718 08:24:25.534081   479 layer_factory.hpp:77] Creating layer img_relu/fc2
I0718 08:24:25.534088   479 net.cpp:84] Creating Layer img_relu/fc2
I0718 08:24:25.534091   479 net.cpp:406] img_relu/fc2 <- img/fc2
I0718 08:24:25.534096   479 net.cpp:367] img_relu/fc2 -> img/fc2 (in-place)
I0718 08:24:25.534165   479 net.cpp:122] Setting up img_relu/fc2
I0718 08:24:25.534171   479 net.cpp:129] Top shape: 1 4096 (4096)
I0718 08:24:25.534173   479 net.cpp:137] Memory required for data: 8845328
I0718 08:24:25.534176   479 layer_factory.hpp:77] Creating layer img_fc3
I0718 08:24:25.534183   479 net.cpp:84] Creating Layer img_fc3
I0718 08:24:25.534185   479 net.cpp:406] img_fc3 <- img/fc2
I0718 08:24:25.534190   479 net.cpp:380] img_fc3 -> img_fc3
I0718 08:24:25.563951   479 net.cpp:122] Setting up img_fc3
I0718 08:24:25.563972   479 net.cpp:129] Top shape: 1 1000 (1000)
I0718 08:24:25.563976   479 net.cpp:137] Memory required for data: 8849328
I0718 08:24:25.563982   479 layer_factory.hpp:77] Creating layer img_relu/fc3r
I0718 08:24:25.563992   479 net.cpp:84] Creating Layer img_relu/fc3r
I0718 08:24:25.563994   479 net.cpp:406] img_relu/fc3r <- img_fc3
I0718 08:24:25.563998   479 net.cpp:367] img_relu/fc3r -> img_fc3 (in-place)
I0718 08:24:25.564079   479 net.cpp:122] Setting up img_relu/fc3r
I0718 08:24:25.564085   479 net.cpp:129] Top shape: 1 1000 (1000)
I0718 08:24:25.564087   479 net.cpp:137] Memory required for data: 8853328
I0718 08:24:25.564090   479 layer_factory.hpp:77] Creating layer img_fc3_img_relu/fc3r_0_split
I0718 08:24:25.564095   479 net.cpp:84] Creating Layer img_fc3_img_relu/fc3r_0_split
I0718 08:24:25.564098   479 net.cpp:406] img_fc3_img_relu/fc3r_0_split <- img_fc3
I0718 08:24:25.564102   479 net.cpp:380] img_fc3_img_relu/fc3r_0_split -> img_fc3_img_relu/fc3r_0_split_0
I0718 08:24:25.564107   479 net.cpp:380] img_fc3_img_relu/fc3r_0_split -> img_fc3_img_relu/fc3r_0_split_1
I0718 08:24:25.564136   479 net.cpp:122] Setting up img_fc3_img_relu/fc3r_0_split
I0718 08:24:25.564153   479 net.cpp:129] Top shape: 1 1000 (1000)
I0718 08:24:25.564157   479 net.cpp:129] Top shape: 1 1000 (1000)
I0718 08:24:25.564158   479 net.cpp:137] Memory required for data: 8861328
I0718 08:24:25.564160   479 layer_factory.hpp:77] Creating layer nir/fc3
I0718 08:24:25.564167   479 net.cpp:84] Creating Layer nir/fc3
I0718 08:24:25.564168   479 net.cpp:406] nir/fc3 <- img_fc3_img_relu/fc3r_0_split_0
I0718 08:24:25.564172   479 net.cpp:380] nir/fc3 -> nir/fc3
I0718 08:24:25.568997   479 net.cpp:122] Setting up nir/fc3
I0718 08:24:25.569007   479 net.cpp:129] Top shape: 1 616 (616)
I0718 08:24:25.569010   479 net.cpp:137] Memory required for data: 8863792
I0718 08:24:25.569015   479 layer_factory.hpp:77] Creating layer relu_nir/fc3
I0718 08:24:25.569020   479 net.cpp:84] Creating Layer relu_nir/fc3
I0718 08:24:25.569021   479 net.cpp:406] relu_nir/fc3 <- nir/fc3
I0718 08:24:25.569025   479 net.cpp:367] relu_nir/fc3 -> nir/fc3 (in-place)
I0718 08:24:25.569459   479 net.cpp:122] Setting up relu_nir/fc3
I0718 08:24:25.569469   479 net.cpp:129] Top shape: 1 616 (616)
I0718 08:24:25.569471   479 net.cpp:137] Memory required for data: 8866256
I0718 08:24:25.569473   479 layer_factory.hpp:77] Creating layer reshape
I0718 08:24:25.569479   479 net.cpp:84] Creating Layer reshape
I0718 08:24:25.569483   479 net.cpp:406] reshape <- nir/fc3
I0718 08:24:25.569486   479 net.cpp:380] reshape -> nir_fc3/reshaped
I0718 08:24:25.569519   479 net.cpp:122] Setting up reshape
I0718 08:24:25.569525   479 net.cpp:129] Top shape: 1 1 11 56 (616)
I0718 08:24:25.569527   479 net.cpp:137] Memory required for data: 8868720
I0718 08:24:25.569530   479 layer_factory.hpp:77] Creating layer deconv1_nir
I0718 08:24:25.569537   479 net.cpp:84] Creating Layer deconv1_nir
I0718 08:24:25.569540   479 net.cpp:406] deconv1_nir <- nir_fc3/reshaped
I0718 08:24:25.569545   479 net.cpp:380] deconv1_nir -> deconv1_nir
I0718 08:24:25.569738   479 net.cpp:122] Setting up deconv1_nir
I0718 08:24:25.569744   479 net.cpp:129] Top shape: 1 235 11 56 (144760)
I0718 08:24:25.569746   479 net.cpp:137] Memory required for data: 9447760
I0718 08:24:25.569751   479 layer_factory.hpp:77] Creating layer loss_nir
I0718 08:24:25.569756   479 net.cpp:84] Creating Layer loss_nir
I0718 08:24:25.569757   479 net.cpp:406] loss_nir <- deconv1_nir
I0718 08:24:25.569761   479 net.cpp:406] loss_nir <- data
I0718 08:24:25.569764   479 net.cpp:380] loss_nir -> error/nir
I0718 08:24:25.569795   479 net.cpp:122] Setting up loss_nir
I0718 08:24:25.569800   479 net.cpp:129] Top shape: (1)
I0718 08:24:25.569803   479 net.cpp:132]     with loss weight 1
I0718 08:24:25.569816   479 net.cpp:137] Memory required for data: 9447764
I0718 08:24:25.569818   479 layer_factory.hpp:77] Creating layer img/fc4
I0718 08:24:25.569825   479 net.cpp:84] Creating Layer img/fc4
I0718 08:24:25.569828   479 net.cpp:406] img/fc4 <- img_fc3_img_relu/fc3r_0_split_1
I0718 08:24:25.569833   479 net.cpp:380] img/fc4 -> img/fc4
I0718 08:24:25.599740   479 net.cpp:122] Setting up img/fc4
I0718 08:24:25.599761   479 net.cpp:129] Top shape: 1 4096 (4096)
I0718 08:24:25.599764   479 net.cpp:137] Memory required for data: 9464148
I0718 08:24:25.599779   479 layer_factory.hpp:77] Creating layer img_relu/fc4
I0718 08:24:25.599786   479 net.cpp:84] Creating Layer img_relu/fc4
I0718 08:24:25.599789   479 net.cpp:406] img_relu/fc4 <- img/fc4
I0718 08:24:25.599795   479 net.cpp:367] img_relu/fc4 -> img/fc4 (in-place)
I0718 08:24:25.599867   479 net.cpp:122] Setting up img_relu/fc4
I0718 08:24:25.599874   479 net.cpp:129] Top shape: 1 4096 (4096)
I0718 08:24:25.599876   479 net.cpp:137] Memory required for data: 9480532
I0718 08:24:25.599879   479 layer_factory.hpp:77] Creating layer img/fc5
I0718 08:24:25.599889   479 net.cpp:84] Creating Layer img/fc5
I0718 08:24:25.599891   479 net.cpp:406] img/fc5 <- img/fc4
I0718 08:24:25.599895   479 net.cpp:380] img/fc5 -> img/fc5
I0718 08:24:25.721997   479 net.cpp:122] Setting up img/fc5
I0718 08:24:25.722018   479 net.cpp:129] Top shape: 1 4096 (4096)
I0718 08:24:25.722038   479 net.cpp:137] Memory required for data: 9496916
I0718 08:24:25.722048   479 layer_factory.hpp:77] Creating layer img_relu/fc5
I0718 08:24:25.722054   479 net.cpp:84] Creating Layer img_relu/fc5
I0718 08:24:25.722057   479 net.cpp:406] img_relu/fc5 <- img/fc5
I0718 08:24:25.722062   479 net.cpp:367] img_relu/fc5 -> img/fc5 (in-place)
I0718 08:24:25.722136   479 net.cpp:122] Setting up img_relu/fc5
I0718 08:24:25.722141   479 net.cpp:129] Top shape: 1 4096 (4096)
I0718 08:24:25.722143   479 net.cpp:137] Memory required for data: 9513300
I0718 08:24:25.722146   479 layer_factory.hpp:77] Creating layer img/fc6
I0718 08:24:25.722151   479 net.cpp:84] Creating Layer img/fc6
I0718 08:24:25.722153   479 net.cpp:406] img/fc6 <- img/fc5
I0718 08:24:25.722157   479 net.cpp:380] img/fc6 -> img/fc6
I0718 08:24:25.996232   479 net.cpp:122] Setting up img/fc6
I0718 08:24:25.996253   479 net.cpp:129] Top shape: 1 9216 (9216)
I0718 08:24:25.996254   479 net.cpp:137] Memory required for data: 9550164
I0718 08:24:25.996261   479 layer_factory.hpp:77] Creating layer img_relu/fc6
I0718 08:24:25.996269   479 net.cpp:84] Creating Layer img_relu/fc6
I0718 08:24:25.996273   479 net.cpp:406] img_relu/fc6 <- img/fc6
I0718 08:24:25.996279   479 net.cpp:367] img_relu/fc6 -> img/fc6 (in-place)
I0718 08:24:25.996356   479 net.cpp:122] Setting up img_relu/fc6
I0718 08:24:25.996361   479 net.cpp:129] Top shape: 1 9216 (9216)
I0718 08:24:25.996363   479 net.cpp:137] Memory required for data: 9587028
I0718 08:24:25.996366   479 layer_factory.hpp:77] Creating layer img/reshape
I0718 08:24:25.996372   479 net.cpp:84] Creating Layer img/reshape
I0718 08:24:25.996374   479 net.cpp:406] img/reshape <- img/fc6
I0718 08:24:25.996379   479 net.cpp:380] img/reshape -> img/reshape
I0718 08:24:25.996407   479 net.cpp:122] Setting up img/reshape
I0718 08:24:25.996412   479 net.cpp:129] Top shape: 1 256 6 6 (9216)
I0718 08:24:25.996414   479 net.cpp:137] Memory required for data: 9623892
I0718 08:24:25.996417   479 layer_factory.hpp:77] Creating layer unpool1
I0718 08:24:25.996421   479 net.cpp:84] Creating Layer unpool1
I0718 08:24:25.996423   479 net.cpp:406] unpool1 <- img/reshape
I0718 08:24:25.996428   479 net.cpp:380] unpool1 -> unpool1
I0718 08:24:25.996454   479 net.cpp:122] Setting up unpool1
I0718 08:24:25.996459   479 net.cpp:129] Top shape: 1 256 13 13 (43264)
I0718 08:24:25.996461   479 net.cpp:137] Memory required for data: 9796948
I0718 08:24:25.996464   479 layer_factory.hpp:77] Creating layer deconv1
I0718 08:24:25.996470   479 net.cpp:84] Creating Layer deconv1
I0718 08:24:25.996472   479 net.cpp:406] deconv1 <- unpool1
I0718 08:24:25.996477   479 net.cpp:380] deconv1 -> deconv1
I0718 08:24:26.001057   479 net.cpp:122] Setting up deconv1
I0718 08:24:26.001067   479 net.cpp:129] Top shape: 1 256 13 13 (43264)
I0718 08:24:26.001070   479 net.cpp:137] Memory required for data: 9970004
I0718 08:24:26.001075   479 layer_factory.hpp:77] Creating layer deconv1relu
I0718 08:24:26.001080   479 net.cpp:84] Creating Layer deconv1relu
I0718 08:24:26.001082   479 net.cpp:406] deconv1relu <- deconv1
I0718 08:24:26.001085   479 net.cpp:367] deconv1relu -> deconv1 (in-place)
I0718 08:24:26.001180   479 net.cpp:122] Setting up deconv1relu
I0718 08:24:26.001186   479 net.cpp:129] Top shape: 1 256 13 13 (43264)
I0718 08:24:26.001189   479 net.cpp:137] Memory required for data: 10143060
I0718 08:24:26.001193   479 layer_factory.hpp:77] Creating layer deconv2
I0718 08:24:26.001199   479 net.cpp:84] Creating Layer deconv2
I0718 08:24:26.001200   479 net.cpp:406] deconv2 <- deconv1
I0718 08:24:26.001205   479 net.cpp:380] deconv2 -> deconv2
I0718 08:24:26.007853   479 net.cpp:122] Setting up deconv2
I0718 08:24:26.007863   479 net.cpp:129] Top shape: 1 384 13 13 (64896)
I0718 08:24:26.007865   479 net.cpp:137] Memory required for data: 10402644
I0718 08:24:26.007869   479 layer_factory.hpp:77] Creating layer deconv2relu
I0718 08:24:26.007874   479 net.cpp:84] Creating Layer deconv2relu
I0718 08:24:26.007876   479 net.cpp:406] deconv2relu <- deconv2
I0718 08:24:26.007899   479 net.cpp:367] deconv2relu -> deconv2 (in-place)
I0718 08:24:26.007995   479 net.cpp:122] Setting up deconv2relu
I0718 08:24:26.008002   479 net.cpp:129] Top shape: 1 384 13 13 (64896)
I0718 08:24:26.008004   479 net.cpp:137] Memory required for data: 10662228
I0718 08:24:26.008008   479 layer_factory.hpp:77] Creating layer deconv3
I0718 08:24:26.008013   479 net.cpp:84] Creating Layer deconv3
I0718 08:24:26.008016   479 net.cpp:406] deconv3 <- deconv2
I0718 08:24:26.008021   479 net.cpp:380] deconv3 -> deconv3
I0718 08:24:26.017788   479 net.cpp:122] Setting up deconv3
I0718 08:24:26.017798   479 net.cpp:129] Top shape: 1 384 13 13 (64896)
I0718 08:24:26.017802   479 net.cpp:137] Memory required for data: 10921812
I0718 08:24:26.017805   479 layer_factory.hpp:77] Creating layer deconv3relu
I0718 08:24:26.017809   479 net.cpp:84] Creating Layer deconv3relu
I0718 08:24:26.017812   479 net.cpp:406] deconv3relu <- deconv3
I0718 08:24:26.017817   479 net.cpp:367] deconv3relu -> deconv3 (in-place)
I0718 08:24:26.017915   479 net.cpp:122] Setting up deconv3relu
I0718 08:24:26.017921   479 net.cpp:129] Top shape: 1 384 13 13 (64896)
I0718 08:24:26.017923   479 net.cpp:137] Memory required for data: 11181396
I0718 08:24:26.017926   479 layer_factory.hpp:77] Creating layer unpool2
I0718 08:24:26.017930   479 net.cpp:84] Creating Layer unpool2
I0718 08:24:26.017932   479 net.cpp:406] unpool2 <- deconv3
I0718 08:24:26.017938   479 net.cpp:380] unpool2 -> unpool2
I0718 08:24:26.017961   479 net.cpp:122] Setting up unpool2
I0718 08:24:26.017966   479 net.cpp:129] Top shape: 1 384 27 27 (279936)
I0718 08:24:26.017967   479 net.cpp:137] Memory required for data: 12301140
I0718 08:24:26.017969   479 layer_factory.hpp:77] Creating layer deconv4
I0718 08:24:26.017976   479 net.cpp:84] Creating Layer deconv4
I0718 08:24:26.017977   479 net.cpp:406] deconv4 <- unpool2
I0718 08:24:26.017982   479 net.cpp:380] deconv4 -> deconv4
I0718 08:24:26.024636   479 net.cpp:122] Setting up deconv4
I0718 08:24:26.024646   479 net.cpp:129] Top shape: 1 256 27 27 (186624)
I0718 08:24:26.024647   479 net.cpp:137] Memory required for data: 13047636
I0718 08:24:26.024652   479 layer_factory.hpp:77] Creating layer deconv4relu
I0718 08:24:26.024657   479 net.cpp:84] Creating Layer deconv4relu
I0718 08:24:26.024658   479 net.cpp:406] deconv4relu <- deconv4
I0718 08:24:26.024663   479 net.cpp:367] deconv4relu -> deconv4 (in-place)
I0718 08:24:26.024821   479 net.cpp:122] Setting up deconv4relu
I0718 08:24:26.024827   479 net.cpp:129] Top shape: 1 256 27 27 (186624)
I0718 08:24:26.024829   479 net.cpp:137] Memory required for data: 13794132
I0718 08:24:26.024832   479 layer_factory.hpp:77] Creating layer unpool3
I0718 08:24:26.024837   479 net.cpp:84] Creating Layer unpool3
I0718 08:24:26.024838   479 net.cpp:406] unpool3 <- deconv4
I0718 08:24:26.024843   479 net.cpp:380] unpool3 -> unpool3
I0718 08:24:26.024863   479 net.cpp:122] Setting up unpool3
I0718 08:24:26.024869   479 net.cpp:129] Top shape: 1 256 55 55 (774400)
I0718 08:24:26.024871   479 net.cpp:137] Memory required for data: 16891732
I0718 08:24:26.024873   479 layer_factory.hpp:77] Creating layer deconv5
I0718 08:24:26.024878   479 net.cpp:84] Creating Layer deconv5
I0718 08:24:26.024881   479 net.cpp:406] deconv5 <- unpool3
I0718 08:24:26.024886   479 net.cpp:380] deconv5 -> deconv5
I0718 08:24:26.026509   479 net.cpp:122] Setting up deconv5
I0718 08:24:26.026515   479 net.cpp:129] Top shape: 1 96 55 55 (290400)
I0718 08:24:26.026517   479 net.cpp:137] Memory required for data: 18053332
I0718 08:24:26.026521   479 layer_factory.hpp:77] Creating layer deconv5relu
I0718 08:24:26.026525   479 net.cpp:84] Creating Layer deconv5relu
I0718 08:24:26.026526   479 net.cpp:406] deconv5relu <- deconv5
I0718 08:24:26.026531   479 net.cpp:367] deconv5relu -> deconv5 (in-place)
I0718 08:24:26.027278   479 net.cpp:122] Setting up deconv5relu
I0718 08:24:26.027288   479 net.cpp:129] Top shape: 1 96 55 55 (290400)
I0718 08:24:26.027292   479 net.cpp:137] Memory required for data: 19214932
I0718 08:24:26.027305   479 layer_factory.hpp:77] Creating layer output
I0718 08:24:26.027313   479 net.cpp:84] Creating Layer output
I0718 08:24:26.027315   479 net.cpp:406] output <- deconv5
I0718 08:24:26.027321   479 net.cpp:380] output -> output
I0718 08:24:26.027768   479 net.cpp:122] Setting up output
I0718 08:24:26.027776   479 net.cpp:129] Top shape: 1 3 227 227 (154587)
I0718 08:24:26.027778   479 net.cpp:137] Memory required for data: 19833280
I0718 08:24:26.027781   479 layer_factory.hpp:77] Creating layer outputrelu
I0718 08:24:26.027786   479 net.cpp:84] Creating Layer outputrelu
I0718 08:24:26.027788   479 net.cpp:406] outputrelu <- output
I0718 08:24:26.027792   479 net.cpp:367] outputrelu -> output (in-place)
I0718 08:24:26.027914   479 net.cpp:122] Setting up outputrelu
I0718 08:24:26.027920   479 net.cpp:129] Top shape: 1 3 227 227 (154587)
I0718 08:24:26.027922   479 net.cpp:137] Memory required for data: 20451628
I0718 08:24:26.027925   479 layer_factory.hpp:77] Creating layer loss_img
I0718 08:24:26.027930   479 net.cpp:84] Creating Layer loss_img
I0718 08:24:26.027931   479 net.cpp:406] loss_img <- output
I0718 08:24:26.027935   479 net.cpp:406] loss_img <- data/img_data/img_0_split_1
I0718 08:24:26.027940   479 net.cpp:380] loss_img -> error/img
…
  top: "data/img"
  top: "label"
  include {
    phase: TEST
  }
  transform_param {
    scale: 0.0039215689
  }
  data_param {
    source: "/home/lod/master-thesis/LMDB-datasets/prepared_dataSets/dataSet_5c_250_5_2_eval/img_eval_db"
    batch_size: 1
    backend: LMDB
  }
}
layer {
  name: "data"
  type: "Data"
  top: "data"
  include {
    phase: TEST
  }
  transform_param {
    scale: 0.83333
  }
  data_param {
    source: "/home/lod/master-thesis/LMDB-datasets/prepared_dataSets/dataSet_5c_250_5_2_eval/nir_eval_db"
    batch_size: 1
    backend: LMDB
  }
}
layer {
  name: "img_data/bn"
  type: "BatchNorm"
  bottom: "data/img"
  top: "img_data/bn"
  batch_norm_param {
    moving_average_fraction: 0.9
  }
}
layer {
  name: "conv1"
  type: "Convolution"
  bottom: "img_data/bn"
  top: "conv1"
  param {
    lr_mult: 0.0001
    decay_mult: 1
  }
  param {
    lr_mult: 0.0002
    decay_mult: 0
  }
  convolution_param {
    num_output: 96
    kernel_size: 11
    stride: 4
    weight_filler {
      type: "msra"
    }
    bias_filler {
      type: "constant"
      value: 0
    }
  }
}
layer {
  name: "relu1conv1"
  type: "PReLU"
  bottom: "conv1"
  top: "conv1"
}
layer {
  name: "pool1"
  type: "Pooling"
  bottom: "conv1"
  top: "pool1"
  pooling_param {
    pool: MAX
    kernel_size: 3
    stride: 2
  }
}
layer {
  name: "conv2"
  type: "Convolution"
  bottom: "pool1"
  top: "conv2"
  param {
    lr_mult: 0.001
    decay_mult: 1
  }
  param {
    lr_mult: 0.002
    decay_mult: 0
  }
  convolution_param {
    num_output: 256
    pad: 2
    kernel_size: 5
    group: 2
    stride: 1
    weight_filler {
      type: "msra"
    }
    bias_filler {
      type: "constant"
      value: 0
    }
  }
}
layer {
  name: "reluconv2"
  type: "PReLU"
  bottom: "conv2"
  top: "conv2"
}
layer {
  name: "pool2"
  type: "Pooling"
  bottom: "conv2"
  top: "pool2"
  pooling_param {
    pool: MAX
    kernel_size: 3
    stride: 2
  }
}
layer {
  name: "conv3"
  type: "Convolution"
  bottom: "pool2"
  top: "conv3"
  param {
    lr_mult: 0.01
    decay_mult: 1
  }
  param {
    lr_mult: 0.02
    decay_mult: 0
  }
  convolution_param {
    num_output: 384
    pad: 1
    kernel_size: 3
    stride: 1
    weight_filler {
      type: "msra"
    }
    bias_filler {
      type: "constant"
      value: 0
    }
  }
}
layer {
  name: "reluconv3"
  type: "PReLU"
  bottom: "conv3"
  top: "conv3"
}
layer {
  name: "conv4"
  type: "Convolution"
  bottom: "conv3"
  top: "conv4"
  param {
    lr_mult: 0.1
    decay_mult: 1
  }
  param {
    lr_mult: 0.2
    decay_mult: 0
  }
  convolution_param {
    num_output: 384
    pad: 1
    kernel_size: 3
    group: 2
    stride: 1
    weight_filler {
      type: "msra"
    }
    bias_filler {
      type: "constant"
      value: 0
    }
  }
}
layer {
  name: "reluconv4"
  type: "PReLU"
  bottom: "conv4"
  top: "conv4"
}
layer {
  name: "conv5"
  type: "Convolution"
  bottom: "conv4"
  top: "conv5"
  param {
    lr_mult: 1
    decay_mult: 1
  }
  param {
    lr_mult: 2
    decay_mult: 0
  }
  convolution_param {
    num_output: 256
    pad: 1
    kernel_size: 3
    group: 2
    stride: 1
    weight_filler {
      type: "msra"
    }
    bias_filler {
      type: "constant"
      value: 0
    }
  }
}
layer {
  name: "reluconv5"
  type: "PReLU"
  bottom: "conv5"
  top: "conv5"
}
layer {
  name: "pool3"
  type: "Pooling"
  bottom: "conv5"
  top: "pool3"
  pooling_param {
    pool: MAX
    kernel_size: 3
    stride: 2
  }
}
layer {
  name: "img/flatten"
  type: "Flatten"
  bottom: "pool3"
  top: "img/flatten"
}
layer {
  name: "img/fc1"
  type: "InnerProduct"
  bottom: "img/flatten"
  top: "img/fc1"
  param {
    lr_mult: 1
    decay_mult: 1
  }
  param {
    lr_mult: 2
    decay_mult: 0
  }
  inner_product_param {
    num_output: 4096
    weight_filler {
      type: "msra"
    }
    bias_filler {
      type: "constant"
      value: 0
    }
  }
}
layer {
  name: "img_relu/fc1"
  type: "PReLU"
  bottom: "img/fc1"
  top: "img/fc1"
}
layer {
  name: "img/fc2"
  type: "InnerProduct"
  bottom: "img/fc1"
  top: "img/fc2"
  param {
    lr_mult: 1
    decay_mult: 1
  }
  param {
    lr_mult: 2
    decay_mult: 0
  }
  inner_product_param {
    num_output: 4096
    weight_filler {
      type: "msra"
    }
    bias_filler {
      type: "constant"
      value: 0
    }
  }
}
layer {
  name: "img_relu/fc2"
  type: "PReLU"
  bottom: "img/fc2"
  top: "img/fc2"
}
layer {
  name: "img_fc3"
  type: "InnerProduct"
  bottom: "img/fc2"
  top: "img_fc3"
  param {
    lr_mult: 1
    decay_mult: 1
  }
  param {
    lr_mult: 2
    decay_mult: 0
  }
  inner_product_param {
    num_output: 1000
    weight_filler {
      type: "msra"
    }
    bias_filler {
      type: "constant"
      value: 0
    }
  }
}
layer {
  name: "img_relu/fc3r"
  type: "PReLU"
  bottom: "img_fc3"
  top: "img_fc3"
}
layer {
  name: "nir/fc3"
  type: "InnerProduct"
  bottom: "img_fc3"
  top: "nir/fc3"
  param {
    lr_mult: 1
    decay_mult: 1
  }
  param {
    lr_mult: 2
    decay_mult: 0
  }
  inner_product_param {
    num_output: 616
    weight_filler {
      type: "msra"
    }
    bias_filler {
      type: "constant"
      value: 0
    }
  }
}
layer {
  name: "relu_nir/fc3"
  type: "ReLU"
  bottom: "nir/fc3"
  top: "nir/fc3"
}
layer {
  name: "reshape"
  type: "Reshape"
  bottom: "nir/fc3"
  top: "nir_fc3/reshaped"
  reshape_param {
    shape {
      dim: 0
      dim: 1
      dim: 11
      dim: 56
    }
  }
}
layer {
  name: "deconv1_nir"
  type: "Deconvolution"
  bottom: "nir_fc3/reshaped"
  top: "deconv1_nir"
  param {
    lr_mult: 1
    decay_mult: 1
  }
  param {
    lr_mult: 2
    decay_mult: 0
  }
  convolution_param {
    num_output: 235
    kernel_size: 1
    stride: 1
    weight_filler {
      type: "msra"
    }
    bias_filler {
      type: "constant"
      value: 0
    }
  }
}
layer {
  name: "loss_nir"
  type: "EuclideanLoss"
  bottom: "deconv1_nir"
  bottom: "data"
  top: "error/nir"
  loss_weight: 1
}
layer {
  name: "img/fc4"
  type: "InnerProduct"
  bottom: "img_fc3"
  top: "img/fc4"
  param {
    lr_mult: 1
    decay_mult: 1
  }
  param {
    lr_mult: 2
    decay_mult: 0
  }
  inner_product_param {
    num_output: 4096
    weight_filler {
      type: "msra"
    }
    bias_filler {
      type: "constant"
      value: 0
    }
  }
}
layer {
  name: "img_relu/fc4"
  type: "PReLU"
  bottom: "img/fc4"
  top: "img/fc4"
}
layer {
  name: "img/fc5"
  type: "InnerProduct"
  bottom: "img/fc4"
  top: "img/fc5"
  param {
    lr_mult: 1
    decay_mult: 1
  }
  param {
    lr_mult: 2
    decay_mult: 0
  }
  inner_product_param {
    num_output: 4096
    weight_filler {
      type: "msra"
    }
    bias_filler {
      type: "constant"
      value: 0
    }
  }
}
layer {
  name: "img_relu/fc5"
  type: "PReLU"
  bottom: "img/fc5"
  top: "img/fc5"
}
layer {
  name: "img/fc6"
  type: "InnerProduct"
  bottom: "img/fc5"
  top: "img/fc6"
  param {
    lr_mult: 1
    decay_mult: 1
  }
  param {
    lr_mult: 2
    decay_mult: 0
  }
  inner_product_param {
    num_output: 9216
    weight_filler {
      type: "msra"
    }
    bias_filler {
      type: "constant"
      value: 0
    }
  }
}
layer {
  name: "img_relu/fc6"
  type: "PReLU"
  bottom: "img/fc6"
  top: "img/fc6"
}
layer {
  name: "img/reshape"
  type: "Reshape"
  bottom: "img/fc6"
  top: "img/reshape"
  reshape_param {
    shape {
      dim: 0
      dim: 256
      dim: 6
      dim: 6
    }
  }
}
layer {
  name: "unpool1"
  type: "UNPOOLING"
  bottom: "img/reshape"
  top: "unpool1"
  unpooling_param {
    unpool: MAX
    kernel_size: 3
    stride: 2
    unpool_size: 13
  }
}
layer {
  name: "deconv1"
  type: "Deconvolution"
  bottom: "unpool1"
  top: "deconv1"
  param {
    lr_mult: 1
    decay_mult: 1
  }
  param {
    lr_mult: 2
    decay_mult: 0
  }
  convolution_param {
    num_output: 256
    pad: 1
    kernel_size: 3
    stride: 1
    weight_filler {
      type: "msra"
    }
    bias_filler {
      type: "constant"
      value: 0
    }
  }
}
layer {
  name: "deconv1relu"
  type: "PReLU"
  bottom: "deconv1"
  top: "deconv1"
}
layer {
  name: "deconv2"
  type: "Deconvolution"
  bottom: "deconv1"
  top: "deconv2"
  param {
    lr_mult: 1
    decay_mult: 1
  }
  param {
    lr_mult: 2
    decay_mult: 0
  }
  convolution_param {
    num_output: 384
    pad: 1
    kernel_size: 3
    stride: 1
    weight_filler {
      type: "msra"
    }
    bias_filler {
      type: "constant"
      value: 0
    }
  }
}
layer {
  name: "deconv2relu"
  type: "PReLU"
  bottom: "deconv2"
  top: "deconv2"
}
layer {
  name: "deconv3"
  type: "Deconvolution"
  bottom: "deconv2"
  top: "deconv3"
  param {
    lr_mult: 1
    decay_mult: 1
  }
  param {
    lr_mult: 2
    decay_mult: 0
  }
  convolution_param {
    num_output: 384
    pad: 1
    kernel_size: 3
    stride: 1
    weight_filler {
      type: "msra"
    }
    bias_filler {
      type: "constant"
      value: 0
    }
  }
}
layer {
  name: "deconv3relu"
  type: "PReLU"
  bottom: "deconv3"
  top: "deconv3"
}
layer {
  name: "unpool2"
  type: "UNPOOLING"
  bottom: "deconv3"
  top: "unpool2"
  unpooling_param {
    unpool: MAX
    kernel_size: 3
    stride: 2
    unpool_size: 27
  }
}
layer {
  name: "deconv4"
  type: "Deconvolution"
  bottom: "unpool2"
  top: "deconv4"
  param {
    lr_mult: 1
    decay_mult: 1
  }
  param {
    lr_mult: 2
    decay_mult: 0
  }
  convolution_param {
    num_output: 256
    pad: 1
    kernel_size: 3
    stride: 1
    weight_filler {
      type: "msra"
    }
    bias_filler {
      type: "constant"
      value: 0
    }
  }
}
layer {
  name: "deconv4relu"
  type: "PReLU"
  bottom: "deconv4"
  top: "deconv4"
}
layer {
  name: "unpool3"
  type: "UNPOOLING"
  bottom: "deconv4"
  top: "unpool3"
  unpooling_param {
    unpool: MAX
    kernel_size: 3
    stride: 2
    unpool_size: 55
  }
}
layer {
  name: "deconv5"
  type: "Deconvolution"
  bottom: "unpool3"
  top: "deconv5"
  param {
    lr_mult: 1
    decay_mult: 1
  }
  param {
    lr_mult: 2
    decay_mult: 0
  }
  convolution_param {
    num_output: 96
    pad: 1
    kernel_size: 3
    stride: 1
    weight_filler {
      type: "msra"
    }
    bias_filler {
      type: "constant"
      value: 0
    }
  }
}
layer {
  name: "deconv5relu"
  type: "PReLU"
  bottom: "deconv5"
  top: "deconv5"
}
layer {
  name: "output"
  type: "Deconvolution"
  bottom: "deconv5"
  top: "output"
  param {
    lr_mult: 1
    decay_mult: 1
  }
  param {
    lr_mult: 2
    decay_mult: 0
  }
  convolution_param {
    num_output: 3
    kernel_size: 11
    stride: 4
    weight_filler {
      type: "msra"
    }
    bias_filler {
      type: "constant"
      value: 0
    }
  }
}
layer {
  name: "outputrelu"
  type: "PReLU"
  bottom: "output"
  top: "output"
}
layer {
  name: "loss_img"
  type: "EuclideanLoss"
  bottom: "output"
  bottom: "data/img"
  top: "error/img"
  loss_weight: 1
}
I0718 08:24:26.028942   479 layer_factory.hpp:77] Creating layer data/img
I0718 08:24:26.028995   479 db_lmdb.cpp:35] Opened lmdb /home/lod/master-thesis/LMDB-datasets/prepared_dataSets/dataSet_5c_250_5_2_eval/img_eval_db
I0718 08:24:26.029006   479 net.cpp:84] Creating Layer data/img
I0718 08:24:26.029011   479 net.cpp:380] data/img -> data/img
I0718 08:24:26.029016   479 net.cpp:380] data/img -> label
I0718 08:24:26.029212   479 data_layer.cpp:45] output data size: 1,3,227,227
I0718 08:24:26.031152   479 net.cpp:122] Setting up data/img
I0718 08:24:26.031162   479 net.cpp:129] Top shape: 1 3 227 227 (154587)
I0718 08:24:26.031165   479 net.cpp:129] Top shape: 1 (1)
I0718 08:24:26.031167   479 net.cpp:137] Memory required for data: 618352
I0718 08:24:26.031169   479 layer_factory.hpp:77] Creating layer data/img_data/img_0_split
I0718 08:24:26.031175   479 net.cpp:84] Creating Layer data/img_data/img_0_split
I0718 08:24:26.031177   479 net.cpp:406] data/img_data/img_0_split <- data/img
I0718 08:24:26.031181   479 net.cpp:380] data/img_data/img_0_split -> data/img_data/img_0_split_0
I0718 08:24:26.031188   479 net.cpp:380] data/img_data/img_0_split -> data/img_data/img_0_split_1
I0718 08:24:26.031230   479 net.cpp:122] Setting up data/img_data/img_0_split
I0718 08:24:26.031235   479 net.cpp:129] Top shape: 1 3 227 227 (154587)
I0718 08:24:26.031239   479 net.cpp:129] Top shape: 1 3 227 227 (154587)
I0718 08:24:26.031241   479 net.cpp:137] Memory required for data: 1855048
I0718 08:24:26.031244   479 layer_factory.hpp:77] Creating layer data
I0718 08:24:26.031286   479 db_lmdb.cpp:35] Opened lmdb /home/lod/master-thesis/LMDB-datasets/prepared_dataSets/dataSet_5c_250_5_2_eval/nir_eval_db
I0718 08:24:26.031297   479 net.cpp:84] Creating Layer data
I0718 08:24:26.031301   479 net.cpp:380] data -> data
I0718 08:24:26.032270   479 data_layer.cpp:45] output data size: 1,235,11,56
I0718 08:24:26.033885   479 net.cpp:122] Setting up data
I0718 08:24:26.033895   479 net.cpp:129] Top shape: 1 235 11 56 (144760)
I0718 08:24:26.033897   479 net.cpp:137] Memory required for data: 2434088
I0718 08:24:26.033900   479 layer_factory.hpp:77] Creating layer img_data/bn
I0718 08:24:26.033905   479 net.cpp:84] Creating Layer img_data/bn
I0718 08:24:26.033908   479 net.cpp:406] img_data/bn <- data/img_data/img_0_split_0
I0718 08:24:26.033912   479 net.cpp:380] img_data/bn -> img_data/bn
I0718 08:24:26.034883   479 net.cpp:122] Setting up img_data/bn
I0718 08:24:26.034893   479 net.cpp:129] Top shape: 1 3 227 227 (154587)
I0718 08:24:26.034894   479 net.cpp:137] Memory required for data: 3052436
I0718 08:24:26.034904   479 layer_factory.hpp:77] Creating layer conv1
I0718 08:24:26.034914   479 net.cpp:84] Creating Layer conv1
I0718 08:24:26.034917   479 net.cpp:406] conv1 <- img_data/bn
I0718 08:24:26.034922   479 net.cpp:380] conv1 -> conv1
I0718 08:24:26.036875   479 net.cpp:122] Setting up conv1
I0718 08:24:26.036885   479 net.cpp:129] Top shape: 1 96 55 55 (290400)
I0718 08:24:26.036900   479 net.cpp:137] Memory required for data: 4214036
I0718 08:24:26.036906   479 layer_factory.hpp:77] Creating layer relu1conv1
I0718 08:24:26.036911   479 net.cpp:84] Creating Layer relu1conv1
I0718 08:24:26.036913   479 net.cpp:406] relu1conv1 <- conv1
I0718 08:24:26.036917   479 net.cpp:367] relu1conv1 -> conv1 (in-place)
I0718 08:24:26.037688   479 net.cpp:122] Setting up relu1conv1
I0718 08:24:26.037698   479 net.cpp:129] Top shape: 1 96 55 55 (290400)
I0718 08:24:26.037700   479 net.cpp:137] Memory required for data: 5375636
I0718 08:24:26.037704   479 layer_factory.hpp:77] Creating layer pool1
I0718 08:24:26.037710   479 net.cpp:84] Creating Layer pool1
I0718 08:24:26.037712   479 net.cpp:406] pool1 <- conv1
I0718 08:24:26.037716   479 net.cpp:380] pool1 -> pool1
I0718 08:24:26.037751   479 net.cpp:122] Setting up pool1
I0718 08:24:26.037757   479 net.cpp:129] Top shape: 1 96 27 27 (69984)
I0718 08:24:26.037760   479 net.cpp:137] Memory required for data: 5655572
I0718 08:24:26.037761   479 layer_factory.hpp:77] Creating layer conv2
I0718 08:24:26.037768   479 net.cpp:84] Creating Layer conv2
I0718 08:24:26.037770   479 net.cpp:406] conv2 <- pool1
I0718 08:24:26.037775   479 net.cpp:380] conv2 -> conv2
I0718 08:24:26.043107   479 net.cpp:122] Setting up conv2
I0718 08:24:26.043121   479 net.cpp:129] Top shape: 1 256 27 27 (186624)
I0718 08:24:26.043123   479 net.cpp:137] Memory required for data: 6402068
I0718 08:24:26.043128   479 layer_factory.hpp:77] Creating layer reluconv2
I0718 08:24:26.043135   479 net.cpp:84] Creating Layer reluconv2
I0718 08:24:26.043138   479 net.cpp:406] reluconv2 <- conv2
I0718 08:24:26.043143   479 net.cpp:367] reluconv2 -> conv2 (in-place)
I0718 08:24:26.043283   479 net.cpp:122] Setting up reluconv2
I0718 08:24:26.043290   479 net.cpp:129] Top shape: 1 256 27 27 (186624)
I0718 08:24:26.043292   479 net.cpp:137] Memory required for data: 7148564
I0718 08:24:26.043298   479 layer_factory.hpp:77] Creating layer pool2
I0718 08:24:26.043304   479 net.cpp:84] Creating Layer pool2
I0718 08:24:26.043306   479 net.cpp:406] pool2 <- conv2
I0718 08:24:26.043309   479 net.cpp:380] pool2 -> pool2
I0718 08:24:26.043344   479 net.cpp:122] Setting up pool2
I0718 08:24:26.043349   479 net.cpp:129] Top shape: 1 256 13 13 (43264)
I0718 08:24:26.043351   479 net.cpp:137] Memory required for data: 7321620
I0718 08:24:26.043354   479 layer_factory.hpp:77] Creating layer conv3
I0718 08:24:26.043361   479 net.cpp:84] Creating Layer conv3
I0718 08:24:26.043364   479 net.cpp:406] conv3 <- pool2
I0718 08:24:26.043368   479 net.cpp:380] conv3 -> conv3
I0718 08:24:26.051663   479 net.cpp:122] Setting up conv3
I0718 08:24:26.051676   479 net.cpp:129] Top shape: 1 384 13 13 (64896)
I0718 08:24:26.051681   479 net.cpp:137] Memory required for data: 7581204
I0718 08:24:26.051686   479 layer_factory.hpp:77] Creating layer reluconv3
I0718 08:24:26.051690   479 net.cpp:84] Creating Layer reluconv3
I0718 08:24:26.051692   479 net.cpp:406] reluconv3 <- conv3
I0718 08:24:26.051697   479 net.cpp:367] reluconv3 -> conv3 (in-place)
I0718 08:24:26.051807   479 net.cpp:122] Setting up reluconv3
I0718 08:24:26.051815   479 net.cpp:129] Top shape: 1 384 13 13 (64896)
I0718 08:24:26.051816   479 net.cpp:137] Memory required for data: 7840788
I0718 08:24:26.051820   479 layer_factory.hpp:77] Creating layer conv4
I0718 08:24:26.051827   479 net.cpp:84] Creating Layer conv4
I0718 08:24:26.051831   479 net.cpp:406] conv4 <- conv3
I0718 08:24:26.051836   479 net.cpp:380] conv4 -> conv4
I0718 08:24:26.059756   479 net.cpp:122] Setting up conv4
I0718 08:24:26.059767   479 net.cpp:129] Top shape: 1 384 13 13 (64896)
I0718 08:24:26.059770   479 net.cpp:137] Memory required for data: 8100372
I0718 08:24:26.059774   479 layer_factory.hpp:77] Creating layer reluconv4
I0718 08:24:26.059779   479 net.cpp:84] Creating Layer reluconv4
I0718 08:24:26.059782   479 net.cpp:406] reluconv4 <- conv4
I0718 08:24:26.059785   479 net.cpp:367] reluconv4 -> conv4 (in-place)
I0718 08:24:26.059891   479 net.cpp:122] Setting up reluconv4
I0718 08:24:26.059908   479 net.cpp:129] Top shape: 1 384 13 13 (64896)
I0718 08:24:26.059911   479 net.cpp:137] Memory required for data: 8359956
I0718 08:24:26.059914   479 layer_factory.hpp:77] Creating layer conv5
I0718 08:24:26.059922   479 net.cpp:84] Creating Layer conv5
I0718 08:24:26.059924   479 net.cpp:406] conv5 <- conv4
I0718 08:24:26.059929   479 net.cpp:380] conv5 -> conv5
I0718 08:24:26.066496   479 net.cpp:122] Setting up conv5
I0718 08:24:26.066507   479 net.cpp:129] Top shape: 1 256 13 13 (43264)
I0718 08:24:26.066509   479 net.cpp:137] Memory required for data: 8533012
I0718 08:24:26.066519   479 layer_factory.hpp:77] Creating layer reluconv5
I0718 08:24:26.066524   479 net.cpp:84] Creating Layer reluconv5
I0718 08:24:26.066526   479 net.cpp:406] reluconv5 <- conv5
I0718 08:24:26.066531   479 net.cpp:367] reluconv5 -> conv5 (in-place)
I0718 08:24:26.066630   479 net.cpp:122] Setting up reluconv5
I0718 08:24:26.066637   479 net.cpp:129] Top shape: 1 256 13 13 (43264)
I0718 08:24:26.066639   479 net.cpp:137] Memory required for data: 8706068
I0718 08:24:26.066642   479 layer_factory.hpp:77] Creating layer pool3
I0718 08:24:26.066651   479 net.cpp:84] Creating Layer pool3
I0718 08:24:26.066654   479 net.cpp:406] pool3 <- conv5
I0718 08:24:26.066658   479 net.cpp:380] pool3 -> pool3
I0718 08:24:26.066695   479 net.cpp:122] Setting up pool3
I0718 08:24:26.066701   479 net.cpp:129] Top shape: 1 256 6 6 (9216)
I0718 08:24:26.066704   479 net.cpp:137] Memory required for data: 8742932
I0718 08:24:26.066705   479 layer_factory.hpp:77] Creating layer img/flatten
I0718 08:24:26.066710   479 net.cpp:84] Creating Layer img/flatten
I0718 08:24:26.066712   479 net.cpp:406] img/flatten <- pool3
I0718 08:24:26.066715   479 net.cpp:380] img/flatten -> img/flatten
I0718 08:24:26.066737   479 net.cpp:122] Setting up img/flatten
I0718 08:24:26.066742   479 net.cpp:129] Top shape: 1 9216 (9216)
I0718 08:24:26.066745   479 net.cpp:137] Memory required for data: 8779796
I0718 08:24:26.066746   479 layer_factory.hpp:77] Creating layer img/fc1
I0718 08:24:26.066752   479 net.cpp:84] Creating Layer img/fc1
I0718 08:24:26.066754   479 net.cpp:406] img/fc1 <- img/flatten
I0718 08:24:26.066758   479 net.cpp:380] img/fc1 -> img/fc1
I0718 08:24:26.340384   479 net.cpp:122] Setting up img/fc1
I0718 08:24:26.340406   479 net.cpp:129] Top shape: 1 4096 (4096)
I0718 08:24:26.340409   479 net.cpp:137] Memory required for data: 8796180
I0718 08:24:26.340415   479 layer_factory.hpp:77] Creating layer img_relu/fc1
I0718 08:24:26.340422   479 net.cpp:84] Creating Layer img_relu/fc1
I0718 08:24:26.340426   479 net.cpp:406] img_relu/fc1 <- img/fc1
I0718 08:24:26.340432   479 net.cpp:367] img_relu/fc1 -> img/fc1 (in-place)
I0718 08:24:26.340512   479 net.cpp:122] Setting up img_relu/fc1
I0718 08:24:26.340517   479 net.cpp:129] Top shape: 1 4096 (4096)
I0718 08:24:26.340518   479 net.cpp:137] Memory required for data: 8812564
I0718 08:24:26.340523   479 layer_factory.hpp:77] Creating layer img/fc2
I0718 08:24:26.340528   479 net.cpp:84] Creating Layer img/fc2
I0718 08:24:26.340530   479 net.cpp:406] img/fc2 <- img/fc1
I0718 08:24:26.340534   479 net.cpp:380] img/fc2 -> img/fc2
I0718 08:24:26.462342   479 net.cpp:122] Setting up img/fc2
I0718 08:24:26.462363   479 net.cpp:129] Top shape: 1 4096 (4096)
I0718 08:24:26.462366   479 net.cpp:137] Memory required for data: 8828948
I0718 08:24:26.462373   479 layer_factory.hpp:77] Creating layer img_relu/fc2
I0718 08:24:26.462380   479 net.cpp:84] Creating Layer img_relu/fc2
I0718 08:24:26.462384   479 net.cpp:406] img_relu/fc2 <- img/fc2
I0718 08:24:26.462391   479 net.cpp:367] img_relu/fc2 -> img/fc2 (in-place)
I0718 08:24:26.462482   479 net.cpp:122] Setting up img_relu/fc2
I0718 08:24:26.462488   479 net.cpp:129] Top shape: 1 4096 (4096)
I0718 08:24:26.462491   479 net.cpp:137] Memory required for data: 8845332
I0718 08:24:26.462493   479 layer_factory.hpp:77] Creating layer img_fc3
I0718 08:24:26.462502   479 net.cpp:84] Creating Layer img_fc3
I0718 08:24:26.462504   479 net.cpp:406] img_fc3 <- img/fc2
I0718 08:24:26.462527   479 net.cpp:380] img_fc3 -> img_fc3
I0718 08:24:26.492357   479 net.cpp:122] Setting up img_fc3
I0718 08:24:26.492378   479 net.cpp:129] Top shape: 1 1000 (1000)
I0718 08:24:26.492382   479 net.cpp:137] Memory required for data: 8849332
I0718 08:24:26.492388   479 layer_factory.hpp:77] Creating layer img_relu/fc3r
I0718 08:24:26.492394   479 net.cpp:84] Creating Layer img_relu/fc3r
I0718 08:24:26.492398   479 net.cpp:406] img_relu/fc3r <- img_fc3
I0718 08:24:26.492403   479 net.cpp:367] img_relu/fc3r -> img_fc3 (in-place)
I0718 08:24:26.492502   479 net.cpp:122] Setting up img_relu/fc3r
I0718 08:24:26.492508   479 net.cpp:129] Top shape: 1 1000 (1000)
I0718 08:24:26.492511   479 net.cpp:137] Memory required for data: 8853332
I0718 08:24:26.492514   479 layer_factory.hpp:77] Creating layer img_fc3_img_relu/fc3r_0_split
I0718 08:24:26.492518   479 net.cpp:84] Creating Layer img_fc3_img_relu/fc3r_0_split
I0718 08:24:26.492521   479 net.cpp:406] img_fc3_img_relu/fc3r_0_split <- img_fc3
I0718 08:24:26.492525   479 net.cpp:380] img_fc3_img_relu/fc3r_0_split -> img_fc3_img_relu/fc3r_0_split_0
I0718 08:24:26.492532   479 net.cpp:380] img_fc3_img_relu/fc3r_0_split -> img_fc3_img_relu/fc3r_0_split_1
I0718 08:24:26.492563   479 net.cpp:122] Setting up img_fc3_img_relu/fc3r_0_split
I0718 08:24:26.492568   479 net.cpp:129] Top shape: 1 1000 (1000)
I0718 08:24:26.492569   479 net.cpp:129] Top shape: 1 1000 (1000)
I0718 08:24:26.492571   479 net.cpp:137] Memory required for data: 8861332
I0718 08:24:26.492573   479 layer_factory.hpp:77] Creating layer nir/fc3
I0718 08:24:26.492580   479 net.cpp:84] Creating Layer nir/fc3
I0718 08:24:26.492583   479 net.cpp:406] nir/fc3 <- img_fc3_img_relu/fc3r_0_split_0
I0718 08:24:26.492588   479 net.cpp:380] nir/fc3 -> nir/fc3
I0718 08:24:26.497359   479 net.cpp:122] Setting up nir/fc3
I0718 08:24:26.497370   479 net.cpp:129] Top shape: 1 616 (616)
I0718 08:24:26.497371   479 net.cpp:137] Memory required for data: 8863796
I0718 08:24:26.497375   479 layer_factory.hpp:77] Creating layer relu_nir/fc3
I0718 08:24:26.497382   479 net.cpp:84] Creating Layer relu_nir/fc3
I0718 08:24:26.497385   479 net.cpp:406] relu_nir/fc3 <- nir/fc3
I0718 08:24:26.497388   479 net.cpp:367] relu_nir/fc3 -> nir/fc3 (in-place)
I0718 08:24:26.497833   479 net.cpp:122] Setting up relu_nir/fc3
I0718 08:24:26.497841   479 net.cpp:129] Top shape: 1 616 (616)
I0718 08:24:26.497843   479 net.cpp:137] Memory required for data: 8866260
I0718 08:24:26.497845   479 layer_factory.hpp:77] Creating layer reshape
I0718 08:24:26.497853   479 net.cpp:84] Creating Layer reshape
I0718 08:24:26.497855   479 net.cpp:406] reshape <- nir/fc3
I0718 08:24:26.497859   479 net.cpp:380] reshape -> nir_fc3/reshaped
I0718 08:24:26.497894   479 net.cpp:122] Setting up reshape
I0718 08:24:26.497898   479 net.cpp:129] Top shape: 1 1 11 56 (616)
I0718 08:24:26.497900   479 net.cpp:137] Memory required for data: 8868724
I0718 08:24:26.497903   479 layer_factory.hpp:77] Creating layer deconv1_nir
I0718 08:24:26.497911   479 net.cpp:84] Creating Layer deconv1_nir
I0718 08:24:26.497913   479 net.cpp:406] deconv1_nir <- nir_fc3/reshaped
I0718 08:24:26.497920   479 net.cpp:380] deconv1_nir -> deconv1_nir
I0718 08:24:26.498148   479 net.cpp:122] Setting up deconv1_nir
I0718 08:24:26.498155   479 net.cpp:129] Top shape: 1 235 11 56 (144760)
I0718 08:24:26.498158   479 net.cpp:137] Memory required for data: 9447764
I0718 08:24:26.498162   479 layer_factory.hpp:77] Creating layer loss_nir
I0718 08:24:26.498168   479 net.cpp:84] Creating Layer loss_nir
I0718 08:24:26.498172   479 net.cpp:406] loss_nir <- deconv1_nir
I0718 08:24:26.498176   479 net.cpp:406] loss_nir <- data
I0718 08:24:26.498181   479 net.cpp:380] loss_nir -> error/nir
I0718 08:24:26.498219   479 net.cpp:122] Setting up loss_nir
I0718 08:24:26.498224   479 net.cpp:129] Top shape: (1)
I0718 08:24:26.498226   479 net.cpp:132]     with loss weight 1
I0718 08:24:26.498234   479 net.cpp:137] Memory required for data: 9447768
I0718 08:24:26.498237   479 layer_factory.hpp:77] Creating layer img/fc4
I0718 08:24:26.498255   479 net.cpp:84] Creating Layer img/fc4
I0718 08:24:26.498257   479 net.cpp:406] img/fc4 <- img_fc3_img_relu/fc3r_0_split_1
I0718 08:24:26.498262   479 net.cpp:380] img/fc4 -> img/fc4
I0718 08:24:26.528097   479 net.cpp:122] Setting up img/fc4
I0718 08:24:26.528120   479 net.cpp:129] Top shape: 1 4096 (4096)
I0718 08:24:26.528122   479 net.cpp:137] Memory required for data: 9464152
I0718 08:24:26.528136   479 layer_factory.hpp:77] Creating layer img_relu/fc4
I0718 08:24:26.528144   479 net.cpp:84] Creating Layer img_relu/fc4
I0718 08:24:26.528147   479 net.cpp:406] img_relu/fc4 <- img/fc4
I0718 08:24:26.528156   479 net.cpp:367] img_relu/fc4 -> img/fc4 (in-place)
I0718 08:24:26.528244   479 net.cpp:122] Setting up img_relu/fc4
I0718 08:24:26.528249   479 net.cpp:129] Top shape: 1 4096 (4096)
I0718 08:24:26.528252   479 net.cpp:137] Memory required for data: 9480536
I0718 08:24:26.528255   479 layer_factory.hpp:77] Creating layer img/fc5
I0718 08:24:26.528267   479 net.cpp:84] Creating Layer img/fc5
I0718 08:24:26.528271   479 net.cpp:406] img/fc5 <- img/fc4
I0718 08:24:26.528276   479 net.cpp:380] img/fc5 -> img/fc5
I0718 08:24:26.650112   479 net.cpp:122] Setting up img/fc5
I0718 08:24:26.650135   479 net.cpp:129] Top shape: 1 4096 (4096)
I0718 08:24:26.650137   479 net.cpp:137] Memory required for data: 9496920
I0718 08:24:26.650151   479 layer_factory.hpp:77] Creating layer img_relu/fc5
I0718 08:24:26.650164   479 net.cpp:84] Creating Layer img_relu/fc5
I0718 08:24:26.650168   479 net.cpp:406] img_relu/fc5 <- img/fc5
I0718 08:24:26.650173   479 net.cpp:367] img_relu/fc5 -> img/fc5 (in-place)
I0718 08:24:26.650261   479 net.cpp:122] Setting up img_relu/fc5
I0718 08:24:26.650269   479 net.cpp:129] Top shape: 1 4096 (4096)
I0718 08:24:26.650270   479 net.cpp:137] Memory required for data: 9513304
I0718 08:24:26.650274   479 layer_factory.hpp:77] Creating layer img/fc6
I0718 08:24:26.650282   479 net.cpp:84] Creating Layer img/fc6
I0718 08:24:26.650285   479 net.cpp:406] img/fc6 <- img/fc5
I0718 08:24:26.650290   479 net.cpp:380] img/fc6 -> img/fc6
I0718 08:24:26.923483   479 net.cpp:122] Setting up img/fc6
I0718 08:24:26.923509   479 net.cpp:129] Top shape: 1 9216 (9216)
I0718 08:24:26.923511   479 net.cpp:137] Memory required for data: 9550168
I0718 08:24:26.923518   479 layer_factory.hpp:77] Creating layer img_relu/fc6
I0718 08:24:26.923527   479 net.cpp:84] Creating Layer img_relu/fc6
I0718 08:24:26.923530   479 net.cpp:406] img_relu/fc6 <- img/fc6
I0718 08:24:26.923534   479 net.cpp:367] img_relu/fc6 -> img/fc6 (in-place)
I0718 08:24:26.923621   479 net.cpp:122] Setting up img_relu/fc6
I0718 08:24:26.923627   479 net.cpp:129] Top shape: 1 9216 (9216)
I0718 08:24:26.923629   479 net.cpp:137] Memory required for data: 9587032
I0718 08:24:26.923632   479 layer_factory.hpp:77] Creating layer img/reshape
I0718 08:24:26.923638   479 net.cpp:84] Creating Layer img/reshape
I0718 08:24:26.923641   479 net.cpp:406] img/reshape <- img/fc6
I0718 08:24:26.923646   479 net.cpp:380] img/reshape -> img/reshape
I0718 08:24:26.923672   479 net.cpp:122] Setting up img/reshape
I0718 08:24:26.923677   479 net.cpp:129] Top shape: 1 256 6 6 (9216)
I0718 08:24:26.923679   479 net.cpp:137] Memory required for data: 9623896
I0718 08:24:26.923681   479 layer_factory.hpp:77] Creating layer unpool1
I0718 08:24:26.923686   479 net.cpp:84] Creating Layer unpool1
I0718 08:24:26.923688   479 net.cpp:406] unpool1 <- img/reshape
I0718 08:24:26.923692   479 net.cpp:380] unpool1 -> unpool1
I0718 08:24:26.923719   479 net.cpp:122] Setting up unpool1
I0718 08:24:26.923724   479 net.cpp:129] Top shape: 1 256 13 13 (43264)
I0718 08:24:26.923727   479 net.cpp:137] Memory required for data: 9796952
I0718 08:24:26.923728   479 layer_factory.hpp:77] Creating layer deconv1
I0718 08:24:26.923735   479 net.cpp:84] Creating Layer deconv1
I0718 08:24:26.923738   479 net.cpp:406] deconv1 <- unpool1
I0718 08:24:26.923743   479 net.cpp:380] deconv1 -> deconv1
I0718 08:24:26.928429   479 net.cpp:122] Setting up deconv1
I0718 08:24:26.928448   479 net.cpp:129] Top shape: 1 256 13 13 (43264)
I0718 08:24:26.928452   479 net.cpp:137] Memory required for data: 9970008
I0718 08:24:26.928455   479 layer_factory.hpp:77] Creating layer deconv1relu
I0718 08:24:26.928462   479 net.cpp:84] Creating Layer deconv1relu
I0718 08:24:26.928464   479 net.cpp:406] deconv1relu <- deconv1
I0718 08:24:26.928467   479 net.cpp:367] deconv1relu -> deconv1 (in-place)
I0718 08:24:26.928573   479 net.cpp:122] Setting up deconv1relu
I0718 08:24:26.928580   479 net.cpp:129] Top shape: 1 256 13 13 (43264)
I0718 08:24:26.928582   479 net.cpp:137] Memory required for data: 10143064
I0718 08:24:26.928586   479 layer_factory.hpp:77] Creating layer deconv2
I0718 08:24:26.928592   479 net.cpp:84] Creating Layer deconv2
I0718 08:24:26.928594   479 net.cpp:406] deconv2 <- deconv1
I0718 08:24:26.928598   479 net.cpp:380] deconv2 -> deconv2
I0718 08:24:26.935268   479 net.cpp:122] Setting up deconv2
I0718 08:24:26.935278   479 net.cpp:129] Top shape: 1 384 13 13 (64896)
I0718 08:24:26.935281   479 net.cpp:137] Memory required for data: 10402648
I0718 08:24:26.935284   479 layer_factory.hpp:77] Creating layer deconv2relu
I0718 08:24:26.935288   479 net.cpp:84] Creating Layer deconv2relu
I0718 08:24:26.935290   479 net.cpp:406] deconv2relu <- deconv2
I0718 08:24:26.935294   479 net.cpp:367] deconv2relu -> deconv2 (in-place)
I0718 08:24:26.935405   479 net.cpp:122] Setting up deconv2relu
I0718 08:24:26.935411   479 net.cpp:129] Top shape: 1 384 13 13 (64896)
I0718 08:24:26.935415   479 net.cpp:137] Memory required for data: 10662232
I0718 08:24:26.935417   479 layer_factory.hpp:77] Creating layer deconv3
I0718 08:24:26.935425   479 net.cpp:84] Creating Layer deconv3
I0718 08:24:26.935426   479 net.cpp:406] deconv3 <- deconv2
I0718 08:24:26.935431   479 net.cpp:380] deconv3 -> deconv3
I0718 08:24:26.945224   479 net.cpp:122] Setting up deconv3
I0718 08:24:26.945233   479 net.cpp:129] Top shape: 1 384 13 13 (64896)
I0718 08:24:26.945235   479 net.cpp:137] Memory required for data: 10921816
I0718 08:24:26.945240   479 layer_factory.hpp:77] Creating layer deconv3relu
I0718 08:24:26.945245   479 net.cpp:84] Creating Layer deconv3relu
I0718 08:24:26.945247   479 net.cpp:406] deconv3relu <- deconv3
I0718 08:24:26.945252   479 net.cpp:367] deconv3relu -> deconv3 (in-place)
I0718 08:24:26.945360   479 net.cpp:122] Setting up deconv3relu
I0718 08:24:26.945366   479 net.cpp:129] Top shape: 1 384 13 13 (64896)
I0718 08:24:26.945369   479 net.cpp:137] Memory required for data: 11181400
I0718 08:24:26.945372   479 layer_factory.hpp:77] Creating layer unpool2
I0718 08:24:26.945376   479 net.cpp:84] Creating Layer unpool2
I0718 08:24:26.945379   479 net.cpp:406] unpool2 <- deconv3
I0718 08:24:26.945384   479 net.cpp:380] unpool2 -> unpool2
I0718 08:24:26.945411   479 net.cpp:122] Setting up unpool2
I0718 08:24:26.945420   479 net.cpp:129] Top shape: 1 384 27 27 (279936)
I0718 08:24:26.945421   479 net.cpp:137] Memory required for data: 12301144
I0718 08:24:26.945422   479 layer_factory.hpp:77] Creating layer deconv4
I0718 08:24:26.945428   479 net.cpp:84] Creating Layer deconv4
I0718 08:24:26.945431   479 net.cpp:406] deconv4 <- unpool2
I0718 08:24:26.945435   479 net.cpp:380] deconv4 -> deconv4
I0718 08:24:26.952083   479 net.cpp:122] Setting up deconv4
I0718 08:24:26.952093   479 net.cpp:129] Top shape: 1 256 27 27 (186624)
I0718 08:24:26.952095   479 net.cpp:137] Memory required for data: 13047640
I0718 08:24:26.952100   479 layer_factory.hpp:77] Creating layer deconv4relu
I0718 08:24:26.952103   479 net.cpp:84] Creating Layer deconv4relu
I0718 08:24:26.952106   479 net.cpp:406] deconv4relu <- deconv4
I0718 08:24:26.952111   479 net.cpp:367] deconv4relu -> deconv4 (in-place)
I0718 08:24:26.952268   479 net.cpp:122] Setting up deconv4relu
I0718 08:24:26.952276   479 net.cpp:129] Top shape: 1 256 27 27 (186624)
I0718 08:24:26.952278   479 net.cpp:137] Memory required for data: 13794136
I0718 08:24:26.952281   479 layer_factory.hpp:77] Creating layer unpool3
I0718 08:24:26.952286   479 net.cpp:84] Creating Layer unpool3
I0718 08:24:26.952297   479 net.cpp:406] unpool3 <- deconv4
I0718 08:24:26.952301   479 net.cpp:380] unpool3 -> unpool3
I0718 08:24:26.952327   479 net.cpp:122] Setting up unpool3
I0718 08:24:26.952333   479 net.cpp:129] Top shape: 1 256 55 55 (774400)
I0718 08:24:26.952335   479 net.cpp:137] Memory required for data: 16891736
I0718 08:24:26.952337   479 layer_factory.hpp:77] Creating layer deconv5
I0718 08:24:26.952343   479 net.cpp:84] Creating Layer deconv5
I0718 08:24:26.952347   479 net.cpp:406] deconv5 <- unpool3
I0718 08:24:26.952350   479 net.cpp:380] deconv5 -> deconv5
I0718 08:24:26.954000   479 net.cpp:122] Setting up deconv5
I0718 08:24:26.954006   479 net.cpp:129] Top shape: 1 96 55 55 (290400)
I0718 08:24:26.954008   479 net.cpp:137] Memory required for data: 18053336
I0718 08:24:26.954012   479 layer_factory.hpp:77] Creating layer deconv5relu
I0718 08:24:26.954016   479 net.cpp:84] Creating Layer deconv5relu
I0718 08:24:26.954018   479 net.cpp:406] deconv5relu <- deconv5
I0718 08:24:26.954022   479 net.cpp:367] deconv5relu -> deconv5 (in-place)
I0718 08:24:26.954778   479 net.cpp:122] Setting up deconv5relu
I0718 08:24:26.954788   479 net.cpp:129] Top shape: 1 96 55 55 (290400)
I0718 08:24:26.954790   479 net.cpp:137] Memory required for data: 19214936
I0718 08:24:26.954794   479 layer_factory.hpp:77] Creating layer output
I0718 08:24:26.954800   479 net.cpp:84] Creating Layer output
I0718 08:24:26.954803   479 net.cpp:406] output <- deconv5
I0718 08:24:26.954807   479 net.cpp:380] output -> output
I0718 08:24:26.955266   479 net.cpp:122] Setting up output
I0718 08:24:26.955273   479 net.cpp:129] Top shape: 1 3 227 227 (154587)
I0718 08:24:26.955276   479 net.cpp:137] Memory required for data: 19833284
I0718 08:24:26.955279   479 layer_factory.hpp:77] Creating layer outputrelu
I0718 08:24:26.955283   479 net.cpp:84] Creating Layer outputrelu
I0718 08:24:26.955286   479 net.cpp:406] outputrelu <- output
I0718 08:24:26.955288   479 net.cpp:367] outputrelu -> output (in-place)
I0718 08:24:26.955418   479 net.cpp:122] Setting up outputrelu
I0718 08:24:26.955426   479 net.cpp:129] Top shape: 1 3 227 227 (154587)
I0718 08:24:26.955428   479 net.cpp:137] Memory required for data: 20451632
I0718 08:24:26.955431   479 layer_factory.hpp:77] Creating layer loss_img
I0718 08:24:26.955435   479 net.cpp:84] Creating Layer loss_img
I0718 08:24:26.955437   479 net.cpp:406] loss_img <- output
I0718 08:24:26.955440   479 net.cpp:406] loss_img <- data/img_data/img_0_split_1
I0718 08:24:26.955444   479 net.cpp:380] loss_img -> error/img
…
