…
  top: "data/img"
  include {
    phase: TRAIN
  }
  transform_param {
    scale: 0.0039215689
  }
  data_param {
    source: "/home/lod/master-thesis/LMDB-datasets/prepared_dataSets/dataSet_5c_300_5_2_train/img_train_db"
    batch_size: 1
    backend: LMDB
  }
}
layer {
  name: "data"
  type: "Data"
  top: "data"
  include {
    phase: TRAIN
  }
  transform_param {
    scale: 0.83333
  }
  data_param {
    source: "/home/lod/master-thesis/LMDB-datasets/prepared_dataSets/dataSet_5c_300_5_2_train/nir_train_db"
    batch_size: 1
    backend: LMDB
  }
}
layer {
  name: "img_data/bn"
  type: "BatchNorm"
  bottom: "data/img"
  top: "img_data/bn"
  batch_norm_param {
    moving_average_fraction: 0.9
  }
}
layer {
  name: "conv1"
  type: "Convolution"
  bottom: "img_data/bn"
  top: "conv1"
  param {
    lr_mult: 0.0001
    decay_mult: 1
  }
  param {
    lr_mult: 0.0002
    decay_mult: 0
  }
  convolution_param {
    num_output: 96
    kernel_size: 11
    stride: 4
    weight_filler {
      type: "msra"
    }
    bias_filler {
      type: "constant"
      value: 0
    }
  }
}
layer {
  name: "relu1conv1"
  type: "PReLU"
  bottom: "conv1"
  top: "conv1"
}
layer {
  name: "pool1"
  type: "Pooling"
  bottom: "conv1"
  top: "pool1"
  pooling_param {
    pool: MAX
    kernel_size: 3
    stride: 2
  }
}
layer {
  name: "conv2"
  type: "Convolution"
  bottom: "pool1"
  top: "conv2"
  param {
    lr_mult: 0.001
    decay_mult: 1
  }
  param {
    lr_mult: 0.002
    decay_mult: 0
  }
  convolution_param {
    num_output: 256
    pad: 2
    kernel_size: 5
    group: 2
    stride: 1
    weight_filler {
      type: "msra"
    }
    bias_filler {
      type: "constant"
      value: 0
    }
  }
}
layer {
  name: "reluconv2"
  type: "PReLU"
  bottom: "conv2"
  top: "conv2"
}
layer {
  name: "pool2"
  type: "Pooling"
  bottom: "conv2"
  top: "pool2"
  pooling_param {
    pool: MAX
    kernel_size: 3
    stride: 2
  }
}
layer {
  name: "conv3"
  type: "Convolution"
  bottom: "pool2"
  top: "conv3"
  param {
    lr_mult: 0.01
    decay_mult: 1
  }
  param {
    lr_mult: 0.02
    decay_mult: 0
  }
  convolution_param {
    num_output: 384
    pad: 1
    kernel_size: 3
    stride: 1
    weight_filler {
      type: "msra"
    }
    bias_filler {
      type: "constant"
      value: 0
    }
  }
}
layer {
  name: "reluconv3"
  type: "PReLU"
  bottom: "conv3"
  top: "conv3"
}
layer {
  name: "conv4"
  type: "Convolution"
  bottom: "conv3"
  top: "conv4"
  param {
    lr_mult: 0.1
    decay_mult: 1
  }
  param {
    lr_mult: 0.2
    decay_mult: 0
  }
  convolution_param {
    num_output: 384
    pad: 1
    kernel_size: 3
    group: 2
    stride: 1
    weight_filler {
      type: "msra"
    }
    bias_filler {
      type: "constant"
      value: 0
    }
  }
}
layer {
  name: "reluconv4"
  type: "PReLU"
  bottom: "conv4"
  top: "conv4"
}
layer {
  name: "conv5"
  type: "Convolution"
  bottom: "conv4"
  top: "conv5"
  param {
    lr_mult: 1
    decay_mult: 1
  }
  param {
    lr_mult: 2
    decay_mult: 0
  }
  convolution_param {
    num_output: 256
    pad: 1
    kernel_size: 3
    group: 2
    stride: 1
    weight_filler {
      type: "msra"
    }
    bias_filler {
      type: "constant"
      value: 0
    }
  }
}
layer {
  name: "reluconv5"
  type: "PReLU"
  bottom: "conv5"
  top: "conv5"
}
layer {
  name: "pool3"
  type: "Pooling"
  bottom: "conv5"
  top: "pool3"
  pooling_param {
    pool: MAX
    kernel_size: 3
    stride: 2
  }
}
layer {
  name: "img/flatten"
  type: "Flatten"
  bottom: "pool3"
  top: "img/flatten"
}
layer {
  name: "img/fc1"
  type: "InnerProduct"
  bottom: "img/flatten"
  top: "img/fc1"
  param {
    lr_mult: 1
    decay_mult: 1
  }
  param {
    lr_mult: 2
    decay_mult: 0
  }
  inner_product_param {
    num_output: 4096
    weight_filler {
      type: "msra"
    }
    bias_filler {
      type: "constant"
      value: 0
    }
  }
}
layer {
  name: "img_relu/fc1"
  type: "PReLU"
  bottom: "img/fc1"
  top: "img/fc1"
}
layer {
  name: "img/fc2"
  type: "InnerProduct"
  bottom: "img/fc1"
  top: "img/fc2"
  param {
    lr_mult: 1
    decay_mult: 1
  }
  param {
    lr_mult: 2
    decay_mult: 0
  }
  inner_product_param {
    num_output: 4096
    weight_filler {
      type: "msra"
    }
    bias_filler {
      type: "constant"
      value: 0
    }
  }
}
layer {
  name: "img_relu/fc2"
  type: "PReLU"
  bottom: "img/fc2"
  top: "img/fc2"
}
layer {
  name: "img_fc3"
  type: "InnerProduct"
  bottom: "img/fc2"
  top: "img_fc3"
  param {
    lr_mult: 1
    decay_mult: 1
  }
  param {
    lr_mult: 2
    decay_mult: 0
  }
  inner_product_param {
    num_output: 1000
    weight_filler {
      type: "msra"
    }
    bias_filler {
      type: "constant"
      value: 0
    }
  }
}
layer {
  name: "img_relu/fc3r"
  type: "PReLU"
  bottom: "img_fc3"
  top: "img_fc3"
}
layer {
  name: "nir/fc3"
  type: "InnerProduct"
  bottom: "img_fc3"
  top: "nir/fc3"
  param {
    lr_mult: 1
    decay_mult: 1
  }
  param {
    lr_mult: 2
    decay_mult: 0
  }
  inner_product_param {
    num_output: 616
    weight_filler {
      type: "msra"
    }
    bias_filler {
      type: "constant"
      value: 0
    }
  }
}
layer {
  name: "relu_nir/fc3"
  type: "ReLU"
  bottom: "nir/fc3"
  top: "nir/fc3"
}
layer {
  name: "reshape"
  type: "Reshape"
  bottom: "nir/fc3"
  top: "nir_fc3/reshaped"
  reshape_param {
    shape {
      dim: 0
      dim: 1
      dim: 11
      dim: 56
    }
  }
}
layer {
  name: "deconv1_nir"
  type: "Deconvolution"
  bottom: "nir_fc3/reshaped"
  top: "deconv1_nir"
  param {
    lr_mult: 1
    decay_mult: 1
  }
  param {
    lr_mult: 2
    decay_mult: 0
  }
  convolution_param {
    num_output: 235
    kernel_size: 1
    stride: 1
    weight_filler {
      type: "msra"
    }
    bias_filler {
      type: "constant"
      value: 0
    }
  }
}
layer {
  name: "loss_nir"
  type: "EuclideanLoss"
  bottom: "deconv1_nir"
  bottom: "data"
  top: "error/nir"
  loss_weight: 1
}
layer {
  name: "img/fc4"
  type: "InnerProduct"
  bottom: "img_fc3"
  top: "img/fc4"
  param {
    lr_mult: 1
    decay_mult: 1
  }
  param {
    lr_mult: 2
    decay_mult: 0
  }
  inner_product_param {
    num_output: 4096
    weight_filler {
      type: "msra"
    }
    bias_filler {
      type: "constant"
      value: 0
    }
  }
}
layer {
  name: "img_relu/fc4"
  type: "PReLU"
  bottom: "img/fc4"
  top: "img/fc4"
}
layer {
  name: "img/fc5"
  type: "InnerProduct"
  bottom: "img/fc4"
  top: "img/fc5"
  param {
    lr_mult: 1
    decay_mult: 1
  }
  param {
    lr_mult: 2
    decay_mult: 0
  }
  inner_product_param {
    num_output: 4096
    weight_filler {
      type: "msra"
    }
    bias_filler {
      type: "constant"
      value: 0
    }
  }
}
layer {
  name: "img_relu/fc5"
  type: "PReLU"
  bottom: "img/fc5"
  top: "img/fc5"
}
layer {
  name: "img/fc6"
  type: "InnerProduct"
  bottom: "img/fc5"
  top: "img/fc6"
  param {
    lr_mult: 1
    decay_mult: 1
  }
  param {
    lr_mult: 2
    decay_mult: 0
  }
  inner_product_param {
    num_output: 9216
    weight_filler {
      type: "msra"
    }
    bias_filler {
      type: "constant"
      value: 0
    }
  }
}
layer {
  name: "img_relu/fc6"
  type: "PReLU"
  bottom: "img/fc6"
  top: "img/fc6"
}
layer {
  name: "img/reshape"
  type: "Reshape"
  bottom: "img/fc6"
  top: "img/reshape"
  reshape_param {
    shape {
      dim: 0
      dim: 256
      dim: 6
      dim: 6
    }
  }
}
layer {
  name: "unpool1"
  type: "UNPOOLING"
  bottom: "img/reshape"
  top: "unpool1"
  unpooling_param {
    unpool: MAX
    kernel_size: 3
    stride: 2
    unpool_size: 13
  }
}
layer {
  name: "deconv1"
  type: "Deconvolution"
  bottom: "unpool1"
  top: "deconv1"
  param {
    lr_mult: 1
    decay_mult: 1
  }
  param {
    lr_mult: 2
    decay_mult: 0
  }
  convolution_param {
    num_output: 256
    pad: 1
    kernel_size: 3
    stride: 1
    weight_filler {
      type: "msra"
    }
    bias_filler {
      type: "constant"
      value: 0
    }
  }
}
layer {
  name: "deconv1relu"
  type: "PReLU"
  bottom: "deconv1"
  top: "deconv1"
}
layer {
  name: "deconv2"
  type: "Deconvolution"
  bottom: "deconv1"
  top: "deconv2"
  param {
    lr_mult: 1
    decay_mult: 1
  }
  param {
    lr_mult: 2
    decay_mult: 0
  }
  convolution_param {
    num_output: 384
    pad: 1
    kernel_size: 3
    stride: 1
    weight_filler {
      type: "msra"
    }
    bias_filler {
      type: "constant"
      value: 0
    }
  }
}
layer {
  name: "deconv2relu"
  type: "PReLU"
  bottom: "deconv2"
  top: "deconv2"
}
layer {
  name: "deconv3"
  type: "Deconvolution"
  bottom: "deconv2"
  top: "deconv3"
  param {
    lr_mult: 1
    decay_mult: 1
  }
  param {
    lr_mult: 2
    decay_mult: 0
  }
  convolution_param {
    num_output: 384
    pad: 1
    kernel_size: 3
    stride: 1
    weight_filler {
      type: "msra"
    }
    bias_filler {
      type: "constant"
      value: 0
    }
  }
}
layer {
  name: "deconv3relu"
  type: "PReLU"
  bottom: "deconv3"
  top: "deconv3"
}
layer {
  name: "unpool2"
  type: "UNPOOLING"
  bottom: "deconv3"
  top: "unpool2"
  unpooling_param {
    unpool: MAX
    kernel_size: 3
    stride: 2
    unpool_size: 27
  }
}
layer {
  name: "deconv4"
  type: "Deconvolution"
  bottom: "unpool2"
  top: "deconv4"
  param {
    lr_mult: 1
    decay_mult: 1
  }
  param {
    lr_mult: 2
    decay_mult: 0
  }
  convolution_param {
    num_output: 256
    pad: 1
    kernel_size: 3
    stride: 1
    weight_filler {
      type: "msra"
    }
    bias_filler {
      type: "constant"
      value: 0
    }
  }
}
layer {
  name: "deconv4relu"
  type: "PReLU"
  bottom: "deconv4"
  top: "deconv4"
}
layer {
  name: "unpool3"
  type: "UNPOOLING"
  bottom: "deconv4"
  top: "unpool3"
  unpooling_param {
    unpool: MAX
    kernel_size: 3
    stride: 2
    unpool_size: 55
  }
}
layer {
  name: "deconv5"
  type: "Deconvolution"
  bottom: "unpool3"
  top: "deconv5"
  param {
    lr_mult: 1
    decay_mult: 1
  }
  param {
    lr_mult: 2
    decay_mult: 0
  }
  convolution_param {
    num_output: 96
    pad: 1
    kernel_size: 3
    stride: 1
    weight_filler {
      type: "msra"
    }
    bias_filler {
      type: "constant"
      value: 0
    }
  }
}
layer {
  name: "deconv5relu"
  type: "PReLU"
  bottom: "deconv5"
  top: "deconv5"
}
layer {
  name: "output"
  type: "Deconvolution"
  bottom: "deconv5"
  top: "output"
  param {
    lr_mult: 1
    decay_mult: 1
  }
  param {
    lr_mult: 2
    decay_mult: 0
  }
  convolution_param {
    num_output: 3
    kernel_size: 11
    stride: 4
    weight_filler {
      type: "msra"
    }
    bias_filler {
      type: "constant"
      value: 0
    }
  }
}
layer {
  name: "outputrelu"
  type: "PReLU"
  bottom: "output"
  top: "output"
}
layer {
  name: "loss_img"
  type: "EuclideanLoss"
  bottom: "output"
  bottom: "data/img"
  top: "error/img"
  loss_weight: 1
}
I0718 08:25:56.352741   523 layer_factory.hpp:77] Creating layer data/img
I0718 08:25:56.352843   523 db_lmdb.cpp:35] Opened lmdb /home/lod/master-thesis/LMDB-datasets/prepared_dataSets/dataSet_5c_300_5_2_train/img_train_db
I0718 08:25:56.352871   523 net.cpp:84] Creating Layer data/img
I0718 08:25:56.352881   523 net.cpp:380] data/img -> data/img
I0718 08:25:56.353898   523 data_layer.cpp:45] output data size: 1,3,227,227
I0718 08:25:56.356479   523 net.cpp:122] Setting up data/img
I0718 08:25:56.356494   523 net.cpp:129] Top shape: 1 3 227 227 (154587)
I0718 08:25:56.356498   523 net.cpp:137] Memory required for data: 618348
I0718 08:25:56.356505   523 layer_factory.hpp:77] Creating layer data/img_data/img_0_split
I0718 08:25:56.356516   523 net.cpp:84] Creating Layer data/img_data/img_0_split
I0718 08:25:56.356521   523 net.cpp:406] data/img_data/img_0_split <- data/img
I0718 08:25:56.356528   523 net.cpp:380] data/img_data/img_0_split -> data/img_data/img_0_split_0
I0718 08:25:56.356536   523 net.cpp:380] data/img_data/img_0_split -> data/img_data/img_0_split_1
I0718 08:25:56.356571   523 net.cpp:122] Setting up data/img_data/img_0_split
I0718 08:25:56.356578   523 net.cpp:129] Top shape: 1 3 227 227 (154587)
I0718 08:25:56.356582   523 net.cpp:129] Top shape: 1 3 227 227 (154587)
I0718 08:25:56.356585   523 net.cpp:137] Memory required for data: 1855044
I0718 08:25:56.356590   523 layer_factory.hpp:77] Creating layer data
I0718 08:25:56.356643   523 db_lmdb.cpp:35] Opened lmdb /home/lod/master-thesis/LMDB-datasets/prepared_dataSets/dataSet_5c_300_5_2_train/nir_train_db
I0718 08:25:56.356657   523 net.cpp:84] Creating Layer data
I0718 08:25:56.356664   523 net.cpp:380] data -> data
I0718 08:25:56.357820   523 data_layer.cpp:45] output data size: 1,235,11,56
I0718 08:25:56.359171   523 net.cpp:122] Setting up data
I0718 08:25:56.359184   523 net.cpp:129] Top shape: 1 235 11 56 (144760)
I0718 08:25:56.359187   523 net.cpp:137] Memory required for data: 2434084
I0718 08:25:56.359191   523 layer_factory.hpp:77] Creating layer img_data/bn
I0718 08:25:56.359199   523 net.cpp:84] Creating Layer img_data/bn
I0718 08:25:56.359201   523 net.cpp:406] img_data/bn <- data/img_data/img_0_split_0
I0718 08:25:56.359211   523 net.cpp:380] img_data/bn -> img_data/bn
I0718 08:25:56.360155   523 net.cpp:122] Setting up img_data/bn
I0718 08:25:56.360168   523 net.cpp:129] Top shape: 1 3 227 227 (154587)
I0718 08:25:56.360172   523 net.cpp:137] Memory required for data: 3052432
I0718 08:25:56.360188   523 layer_factory.hpp:77] Creating layer conv1
I0718 08:25:56.360204   523 net.cpp:84] Creating Layer conv1
I0718 08:25:56.360208   523 net.cpp:406] conv1 <- img_data/bn
I0718 08:25:56.360215   523 net.cpp:380] conv1 -> conv1
I0718 08:25:56.873318   523 net.cpp:122] Setting up conv1
I0718 08:25:56.873347   523 net.cpp:129] Top shape: 1 96 55 55 (290400)
I0718 08:25:56.873351   523 net.cpp:137] Memory required for data: 4214032
I0718 08:25:56.873364   523 layer_factory.hpp:77] Creating layer relu1conv1
I0718 08:25:56.873376   523 net.cpp:84] Creating Layer relu1conv1
I0718 08:25:56.873380   523 net.cpp:406] relu1conv1 <- conv1
I0718 08:25:56.873387   523 net.cpp:367] relu1conv1 -> conv1 (in-place)
I0718 08:25:56.874315   523 net.cpp:122] Setting up relu1conv1
I0718 08:25:56.874326   523 net.cpp:129] Top shape: 1 96 55 55 (290400)
I0718 08:25:56.874330   523 net.cpp:137] Memory required for data: 5375632
I0718 08:25:56.874336   523 layer_factory.hpp:77] Creating layer pool1
I0718 08:25:56.874344   523 net.cpp:84] Creating Layer pool1
I0718 08:25:56.874347   523 net.cpp:406] pool1 <- conv1
I0718 08:25:56.874353   523 net.cpp:380] pool1 -> pool1
I0718 08:25:56.874398   523 net.cpp:122] Setting up pool1
I0718 08:25:56.874404   523 net.cpp:129] Top shape: 1 96 27 27 (69984)
I0718 08:25:56.874408   523 net.cpp:137] Memory required for data: 5655568
I0718 08:25:56.874411   523 layer_factory.hpp:77] Creating layer conv2
I0718 08:25:56.874423   523 net.cpp:84] Creating Layer conv2
I0718 08:25:56.874425   523 net.cpp:406] conv2 <- pool1
I0718 08:25:56.874433   523 net.cpp:380] conv2 -> conv2
I0718 08:25:56.881706   523 net.cpp:122] Setting up conv2
I0718 08:25:56.881732   523 net.cpp:129] Top shape: 1 256 27 27 (186624)
I0718 08:25:56.881736   523 net.cpp:137] Memory required for data: 6402064
I0718 08:25:56.881742   523 layer_factory.hpp:77] Creating layer reluconv2
I0718 08:25:56.881752   523 net.cpp:84] Creating Layer reluconv2
I0718 08:25:56.881757   523 net.cpp:406] reluconv2 <- conv2
I0718 08:25:56.881763   523 net.cpp:367] reluconv2 -> conv2 (in-place)
I0718 08:25:56.881914   523 net.cpp:122] Setting up reluconv2
I0718 08:25:56.881922   523 net.cpp:129] Top shape: 1 256 27 27 (186624)
I0718 08:25:56.881925   523 net.cpp:137] Memory required for data: 7148560
I0718 08:25:56.881932   523 layer_factory.hpp:77] Creating layer pool2
I0718 08:25:56.881940   523 net.cpp:84] Creating Layer pool2
I0718 08:25:56.881944   523 net.cpp:406] pool2 <- conv2
I0718 08:25:56.881949   523 net.cpp:380] pool2 -> pool2
I0718 08:25:56.881988   523 net.cpp:122] Setting up pool2
I0718 08:25:56.881995   523 net.cpp:129] Top shape: 1 256 13 13 (43264)
I0718 08:25:56.881999   523 net.cpp:137] Memory required for data: 7321616
I0718 08:25:56.882002   523 layer_factory.hpp:77] Creating layer conv3
I0718 08:25:56.882011   523 net.cpp:84] Creating Layer conv3
I0718 08:25:56.882015   523 net.cpp:406] conv3 <- pool2
I0718 08:25:56.882021   523 net.cpp:380] conv3 -> conv3
I0718 08:25:56.891451   523 net.cpp:122] Setting up conv3
I0718 08:25:56.891465   523 net.cpp:129] Top shape: 1 384 13 13 (64896)
I0718 08:25:56.891469   523 net.cpp:137] Memory required for data: 7581200
I0718 08:25:56.891475   523 layer_factory.hpp:77] Creating layer reluconv3
I0718 08:25:56.891481   523 net.cpp:84] Creating Layer reluconv3
I0718 08:25:56.891484   523 net.cpp:406] reluconv3 <- conv3
I0718 08:25:56.891491   523 net.cpp:367] reluconv3 -> conv3 (in-place)
I0718 08:25:56.891620   523 net.cpp:122] Setting up reluconv3
I0718 08:25:56.891629   523 net.cpp:129] Top shape: 1 384 13 13 (64896)
I0718 08:25:56.891633   523 net.cpp:137] Memory required for data: 7840784
I0718 08:25:56.891638   523 layer_factory.hpp:77] Creating layer conv4
I0718 08:25:56.891646   523 net.cpp:84] Creating Layer conv4
I0718 08:25:56.891650   523 net.cpp:406] conv4 <- conv3
I0718 08:25:56.891657   523 net.cpp:380] conv4 -> conv4
I0718 08:25:56.900631   523 net.cpp:122] Setting up conv4
I0718 08:25:56.900645   523 net.cpp:129] Top shape: 1 384 13 13 (64896)
I0718 08:25:56.900650   523 net.cpp:137] Memory required for data: 8100368
I0718 08:25:56.900655   523 layer_factory.hpp:77] Creating layer reluconv4
I0718 08:25:56.900661   523 net.cpp:84] Creating Layer reluconv4
I0718 08:25:56.900665   523 net.cpp:406] reluconv4 <- conv4
I0718 08:25:56.900671   523 net.cpp:367] reluconv4 -> conv4 (in-place)
I0718 08:25:56.900789   523 net.cpp:122] Setting up reluconv4
I0718 08:25:56.900796   523 net.cpp:129] Top shape: 1 384 13 13 (64896)
I0718 08:25:56.900800   523 net.cpp:137] Memory required for data: 8359952
I0718 08:25:56.900804   523 layer_factory.hpp:77] Creating layer conv5
I0718 08:25:56.900815   523 net.cpp:84] Creating Layer conv5
I0718 08:25:56.900818   523 net.cpp:406] conv5 <- conv4
I0718 08:25:56.900825   523 net.cpp:380] conv5 -> conv5
I0718 08:25:56.908282   523 net.cpp:122] Setting up conv5
I0718 08:25:56.908295   523 net.cpp:129] Top shape: 1 256 13 13 (43264)
I0718 08:25:56.908299   523 net.cpp:137] Memory required for data: 8533008
I0718 08:25:56.908310   523 layer_factory.hpp:77] Creating layer reluconv5
I0718 08:25:56.908318   523 net.cpp:84] Creating Layer reluconv5
I0718 08:25:56.908323   523 net.cpp:406] reluconv5 <- conv5
I0718 08:25:56.908327   523 net.cpp:367] reluconv5 -> conv5 (in-place)
I0718 08:25:56.908435   523 net.cpp:122] Setting up reluconv5
I0718 08:25:56.908443   523 net.cpp:129] Top shape: 1 256 13 13 (43264)
I0718 08:25:56.908447   523 net.cpp:137] Memory required for data: 8706064
I0718 08:25:56.908450   523 layer_factory.hpp:77] Creating layer pool3
I0718 08:25:56.908462   523 net.cpp:84] Creating Layer pool3
I0718 08:25:56.908465   523 net.cpp:406] pool3 <- conv5
I0718 08:25:56.908475   523 net.cpp:380] pool3 -> pool3
I0718 08:25:56.908522   523 net.cpp:122] Setting up pool3
I0718 08:25:56.908530   523 net.cpp:129] Top shape: 1 256 6 6 (9216)
I0718 08:25:56.908533   523 net.cpp:137] Memory required for data: 8742928
I0718 08:25:56.908536   523 layer_factory.hpp:77] Creating layer img/flatten
I0718 08:25:56.908547   523 net.cpp:84] Creating Layer img/flatten
I0718 08:25:56.908550   523 net.cpp:406] img/flatten <- pool3
I0718 08:25:56.908555   523 net.cpp:380] img/flatten -> img/flatten
I0718 08:25:56.908584   523 net.cpp:122] Setting up img/flatten
I0718 08:25:56.908591   523 net.cpp:129] Top shape: 1 9216 (9216)
I0718 08:25:56.908592   523 net.cpp:137] Memory required for data: 8779792
I0718 08:25:56.908596   523 layer_factory.hpp:77] Creating layer img/fc1
I0718 08:25:56.908604   523 net.cpp:84] Creating Layer img/fc1
I0718 08:25:56.908607   523 net.cpp:406] img/fc1 <- img/flatten
I0718 08:25:56.908612   523 net.cpp:380] img/fc1 -> img/fc1
I0718 08:25:57.197981   523 net.cpp:122] Setting up img/fc1
I0718 08:25:57.198009   523 net.cpp:129] Top shape: 1 4096 (4096)
I0718 08:25:57.198011   523 net.cpp:137] Memory required for data: 8796176
I0718 08:25:57.198019   523 layer_factory.hpp:77] Creating layer img_relu/fc1
I0718 08:25:57.198026   523 net.cpp:84] Creating Layer img_relu/fc1
I0718 08:25:57.198030   523 net.cpp:406] img_relu/fc1 <- img/fc1
I0718 08:25:57.198036   523 net.cpp:367] img_relu/fc1 -> img/fc1 (in-place)
I0718 08:25:57.198105   523 net.cpp:122] Setting up img_relu/fc1
I0718 08:25:57.198112   523 net.cpp:129] Top shape: 1 4096 (4096)
I0718 08:25:57.198113   523 net.cpp:137] Memory required for data: 8812560
I0718 08:25:57.198117   523 layer_factory.hpp:77] Creating layer img/fc2
I0718 08:25:57.198123   523 net.cpp:84] Creating Layer img/fc2
I0718 08:25:57.198127   523 net.cpp:406] img/fc2 <- img/fc1
I0718 08:25:57.198130   523 net.cpp:380] img/fc2 -> img/fc2
I0718 08:25:57.321032   523 net.cpp:122] Setting up img/fc2
I0718 08:25:57.321059   523 net.cpp:129] Top shape: 1 4096 (4096)
I0718 08:25:57.321063   523 net.cpp:137] Memory required for data: 8828944
I0718 08:25:57.321070   523 layer_factory.hpp:77] Creating layer img_relu/fc2
I0718 08:25:57.321079   523 net.cpp:84] Creating Layer img_relu/fc2
I0718 08:25:57.321082   523 net.cpp:406] img_relu/fc2 <- img/fc2
I0718 08:25:57.321089   523 net.cpp:367] img_relu/fc2 -> img/fc2 (in-place)
I0718 08:25:57.321159   523 net.cpp:122] Setting up img_relu/fc2
I0718 08:25:57.321164   523 net.cpp:129] Top shape: 1 4096 (4096)
I0718 08:25:57.321167   523 net.cpp:137] Memory required for data: 8845328
I0718 08:25:57.321171   523 layer_factory.hpp:77] Creating layer img_fc3
I0718 08:25:57.321178   523 net.cpp:84] Creating Layer img_fc3
I0718 08:25:57.321182   523 net.cpp:406] img_fc3 <- img/fc2
I0718 08:25:57.321187   523 net.cpp:380] img_fc3 -> img_fc3
I0718 08:25:57.351161   523 net.cpp:122] Setting up img_fc3
I0718 08:25:57.351187   523 net.cpp:129] Top shape: 1 1000 (1000)
I0718 08:25:57.351191   523 net.cpp:137] Memory required for data: 8849328
I0718 08:25:57.351197   523 layer_factory.hpp:77] Creating layer img_relu/fc3r
I0718 08:25:57.351204   523 net.cpp:84] Creating Layer img_relu/fc3r
I0718 08:25:57.351208   523 net.cpp:406] img_relu/fc3r <- img_fc3
I0718 08:25:57.351215   523 net.cpp:367] img_relu/fc3r -> img_fc3 (in-place)
I0718 08:25:57.351295   523 net.cpp:122] Setting up img_relu/fc3r
I0718 08:25:57.351300   523 net.cpp:129] Top shape: 1 1000 (1000)
I0718 08:25:57.351303   523 net.cpp:137] Memory required for data: 8853328
I0718 08:25:57.351306   523 layer_factory.hpp:77] Creating layer img_fc3_img_relu/fc3r_0_split
I0718 08:25:57.351312   523 net.cpp:84] Creating Layer img_fc3_img_relu/fc3r_0_split
I0718 08:25:57.351315   523 net.cpp:406] img_fc3_img_relu/fc3r_0_split <- img_fc3
I0718 08:25:57.351322   523 net.cpp:380] img_fc3_img_relu/fc3r_0_split -> img_fc3_img_relu/fc3r_0_split_0
I0718 08:25:57.351328   523 net.cpp:380] img_fc3_img_relu/fc3r_0_split -> img_fc3_img_relu/fc3r_0_split_1
I0718 08:25:57.351366   523 net.cpp:122] Setting up img_fc3_img_relu/fc3r_0_split
I0718 08:25:57.351378   523 net.cpp:129] Top shape: 1 1000 (1000)
I0718 08:25:57.351382   523 net.cpp:129] Top shape: 1 1000 (1000)
I0718 08:25:57.351384   523 net.cpp:137] Memory required for data: 8861328
I0718 08:25:57.351387   523 layer_factory.hpp:77] Creating layer nir/fc3
I0718 08:25:57.351392   523 net.cpp:84] Creating Layer nir/fc3
I0718 08:25:57.351395   523 net.cpp:406] nir/fc3 <- img_fc3_img_relu/fc3r_0_split_0
I0718 08:25:57.351402   523 net.cpp:380] nir/fc3 -> nir/fc3
I0718 08:25:57.356191   523 net.cpp:122] Setting up nir/fc3
I0718 08:25:57.356201   523 net.cpp:129] Top shape: 1 616 (616)
I0718 08:25:57.356204   523 net.cpp:137] Memory required for data: 8863792
I0718 08:25:57.356209   523 layer_factory.hpp:77] Creating layer relu_nir/fc3
I0718 08:25:57.356216   523 net.cpp:84] Creating Layer relu_nir/fc3
I0718 08:25:57.356220   523 net.cpp:406] relu_nir/fc3 <- nir/fc3
I0718 08:25:57.356225   523 net.cpp:367] relu_nir/fc3 -> nir/fc3 (in-place)
I0718 08:25:57.356664   523 net.cpp:122] Setting up relu_nir/fc3
I0718 08:25:57.356673   523 net.cpp:129] Top shape: 1 616 (616)
I0718 08:25:57.356675   523 net.cpp:137] Memory required for data: 8866256
I0718 08:25:57.356678   523 layer_factory.hpp:77] Creating layer reshape
I0718 08:25:57.356684   523 net.cpp:84] Creating Layer reshape
I0718 08:25:57.356688   523 net.cpp:406] reshape <- nir/fc3
I0718 08:25:57.356693   523 net.cpp:380] reshape -> nir_fc3/reshaped
I0718 08:25:57.356729   523 net.cpp:122] Setting up reshape
I0718 08:25:57.356734   523 net.cpp:129] Top shape: 1 1 11 56 (616)
I0718 08:25:57.356736   523 net.cpp:137] Memory required for data: 8868720
I0718 08:25:57.356739   523 layer_factory.hpp:77] Creating layer deconv1_nir
I0718 08:25:57.356747   523 net.cpp:84] Creating Layer deconv1_nir
I0718 08:25:57.356750   523 net.cpp:406] deconv1_nir <- nir_fc3/reshaped
I0718 08:25:57.356755   523 net.cpp:380] deconv1_nir -> deconv1_nir
I0718 08:25:57.356951   523 net.cpp:122] Setting up deconv1_nir
I0718 08:25:57.356957   523 net.cpp:129] Top shape: 1 235 11 56 (144760)
I0718 08:25:57.356961   523 net.cpp:137] Memory required for data: 9447760
I0718 08:25:57.356964   523 layer_factory.hpp:77] Creating layer loss_nir
I0718 08:25:57.356971   523 net.cpp:84] Creating Layer loss_nir
I0718 08:25:57.356973   523 net.cpp:406] loss_nir <- deconv1_nir
I0718 08:25:57.356976   523 net.cpp:406] loss_nir <- data
I0718 08:25:57.356981   523 net.cpp:380] loss_nir -> error/nir
I0718 08:25:57.357014   523 net.cpp:122] Setting up loss_nir
I0718 08:25:57.357019   523 net.cpp:129] Top shape: (1)
I0718 08:25:57.357023   523 net.cpp:132]     with loss weight 1
I0718 08:25:57.357036   523 net.cpp:137] Memory required for data: 9447764
I0718 08:25:57.357039   523 layer_factory.hpp:77] Creating layer img/fc4
I0718 08:25:57.357046   523 net.cpp:84] Creating Layer img/fc4
I0718 08:25:57.357049   523 net.cpp:406] img/fc4 <- img_fc3_img_relu/fc3r_0_split_1
I0718 08:25:57.357055   523 net.cpp:380] img/fc4 -> img/fc4
I0718 08:25:57.387013   523 net.cpp:122] Setting up img/fc4
I0718 08:25:57.387038   523 net.cpp:129] Top shape: 1 4096 (4096)
I0718 08:25:57.387042   523 net.cpp:137] Memory required for data: 9464148
I0718 08:25:57.387056   523 layer_factory.hpp:77] Creating layer img_relu/fc4
I0718 08:25:57.387065   523 net.cpp:84] Creating Layer img_relu/fc4
I0718 08:25:57.387069   523 net.cpp:406] img_relu/fc4 <- img/fc4
I0718 08:25:57.387074   523 net.cpp:367] img_relu/fc4 -> img/fc4 (in-place)
I0718 08:25:57.387145   523 net.cpp:122] Setting up img_relu/fc4
I0718 08:25:57.387151   523 net.cpp:129] Top shape: 1 4096 (4096)
I0718 08:25:57.387153   523 net.cpp:137] Memory required for data: 9480532
I0718 08:25:57.387157   523 layer_factory.hpp:77] Creating layer img/fc5
I0718 08:25:57.387167   523 net.cpp:84] Creating Layer img/fc5
I0718 08:25:57.387171   523 net.cpp:406] img/fc5 <- img/fc4
I0718 08:25:57.387176   523 net.cpp:380] img/fc5 -> img/fc5
I0718 08:25:57.509796   523 net.cpp:122] Setting up img/fc5
I0718 08:25:57.509830   523 net.cpp:129] Top shape: 1 4096 (4096)
I0718 08:25:57.509841   523 net.cpp:137] Memory required for data: 9496916
I0718 08:25:57.509848   523 layer_factory.hpp:77] Creating layer img_relu/fc5
I0718 08:25:57.509856   523 net.cpp:84] Creating Layer img_relu/fc5
I0718 08:25:57.509860   523 net.cpp:406] img_relu/fc5 <- img/fc5
I0718 08:25:57.509865   523 net.cpp:367] img_relu/fc5 -> img/fc5 (in-place)
I0718 08:25:57.509938   523 net.cpp:122] Setting up img_relu/fc5
I0718 08:25:57.509944   523 net.cpp:129] Top shape: 1 4096 (4096)
I0718 08:25:57.509946   523 net.cpp:137] Memory required for data: 9513300
I0718 08:25:57.509950   523 layer_factory.hpp:77] Creating layer img/fc6
I0718 08:25:57.509958   523 net.cpp:84] Creating Layer img/fc6
I0718 08:25:57.509960   523 net.cpp:406] img/fc6 <- img/fc5
I0718 08:25:57.509966   523 net.cpp:380] img/fc6 -> img/fc6
I0718 08:25:57.786036   523 net.cpp:122] Setting up img/fc6
I0718 08:25:57.786059   523 net.cpp:129] Top shape: 1 9216 (9216)
I0718 08:25:57.786063   523 net.cpp:137] Memory required for data: 9550164
I0718 08:25:57.786070   523 layer_factory.hpp:77] Creating layer img_relu/fc6
I0718 08:25:57.786078   523 net.cpp:84] Creating Layer img_relu/fc6
I0718 08:25:57.786083   523 net.cpp:406] img_relu/fc6 <- img/fc6
I0718 08:25:57.786088   523 net.cpp:367] img_relu/fc6 -> img/fc6 (in-place)
I0718 08:25:57.786164   523 net.cpp:122] Setting up img_relu/fc6
I0718 08:25:57.786170   523 net.cpp:129] Top shape: 1 9216 (9216)
I0718 08:25:57.786173   523 net.cpp:137] Memory required for data: 9587028
I0718 08:25:57.786176   523 layer_factory.hpp:77] Creating layer img/reshape
I0718 08:25:57.786182   523 net.cpp:84] Creating Layer img/reshape
I0718 08:25:57.786185   523 net.cpp:406] img/reshape <- img/fc6
I0718 08:25:57.786190   523 net.cpp:380] img/reshape -> img/reshape
I0718 08:25:57.786216   523 net.cpp:122] Setting up img/reshape
I0718 08:25:57.786221   523 net.cpp:129] Top shape: 1 256 6 6 (9216)
I0718 08:25:57.786224   523 net.cpp:137] Memory required for data: 9623892
I0718 08:25:57.786226   523 layer_factory.hpp:77] Creating layer unpool1
I0718 08:25:57.786231   523 net.cpp:84] Creating Layer unpool1
I0718 08:25:57.786234   523 net.cpp:406] unpool1 <- img/reshape
I0718 08:25:57.786240   523 net.cpp:380] unpool1 -> unpool1
I0718 08:25:57.786267   523 net.cpp:122] Setting up unpool1
I0718 08:25:57.786272   523 net.cpp:129] Top shape: 1 256 13 13 (43264)
I0718 08:25:57.786273   523 net.cpp:137] Memory required for data: 9796948
I0718 08:25:57.786276   523 layer_factory.hpp:77] Creating layer deconv1
I0718 08:25:57.786285   523 net.cpp:84] Creating Layer deconv1
I0718 08:25:57.786288   523 net.cpp:406] deconv1 <- unpool1
I0718 08:25:57.786294   523 net.cpp:380] deconv1 -> deconv1
I0718 08:25:57.791033   523 net.cpp:122] Setting up deconv1
I0718 08:25:57.791043   523 net.cpp:129] Top shape: 1 256 13 13 (43264)
I0718 08:25:57.791046   523 net.cpp:137] Memory required for data: 9970004
I0718 08:25:57.791050   523 layer_factory.hpp:77] Creating layer deconv1relu
I0718 08:25:57.791055   523 net.cpp:84] Creating Layer deconv1relu
I0718 08:25:57.791059   523 net.cpp:406] deconv1relu <- deconv1
I0718 08:25:57.791064   523 net.cpp:367] deconv1relu -> deconv1 (in-place)
I0718 08:25:57.791158   523 net.cpp:122] Setting up deconv1relu
I0718 08:25:57.791164   523 net.cpp:129] Top shape: 1 256 13 13 (43264)
I0718 08:25:57.791167   523 net.cpp:137] Memory required for data: 10143060
I0718 08:25:57.791170   523 layer_factory.hpp:77] Creating layer deconv2
I0718 08:25:57.791177   523 net.cpp:84] Creating Layer deconv2
I0718 08:25:57.791180   523 net.cpp:406] deconv2 <- deconv1
I0718 08:25:57.791187   523 net.cpp:380] deconv2 -> deconv2
I0718 08:25:57.798116   523 net.cpp:122] Setting up deconv2
I0718 08:25:57.798127   523 net.cpp:129] Top shape: 1 384 13 13 (64896)
I0718 08:25:57.798130   523 net.cpp:137] Memory required for data: 10402644
I0718 08:25:57.798135   523 layer_factory.hpp:77] Creating layer deconv2relu
I0718 08:25:57.798141   523 net.cpp:84] Creating Layer deconv2relu
I0718 08:25:57.798149   523 net.cpp:406] deconv2relu <- deconv2
I0718 08:25:57.798161   523 net.cpp:367] deconv2relu -> deconv2 (in-place)
I0718 08:25:57.798262   523 net.cpp:122] Setting up deconv2relu
I0718 08:25:57.798269   523 net.cpp:129] Top shape: 1 384 13 13 (64896)
I0718 08:25:57.798271   523 net.cpp:137] Memory required for data: 10662228
I0718 08:25:57.798274   523 layer_factory.hpp:77] Creating layer deconv3
I0718 08:25:57.798282   523 net.cpp:84] Creating Layer deconv3
I0718 08:25:57.798286   523 net.cpp:406] deconv3 <- deconv2
I0718 08:25:57.798290   523 net.cpp:380] deconv3 -> deconv3
I0718 08:25:57.808506   523 net.cpp:122] Setting up deconv3
I0718 08:25:57.808516   523 net.cpp:129] Top shape: 1 384 13 13 (64896)
I0718 08:25:57.808519   523 net.cpp:137] Memory required for data: 10921812
I0718 08:25:57.808524   523 layer_factory.hpp:77] Creating layer deconv3relu
I0718 08:25:57.808531   523 net.cpp:84] Creating Layer deconv3relu
I0718 08:25:57.808533   523 net.cpp:406] deconv3relu <- deconv3
I0718 08:25:57.808537   523 net.cpp:367] deconv3relu -> deconv3 (in-place)
I0718 08:25:57.808635   523 net.cpp:122] Setting up deconv3relu
I0718 08:25:57.808642   523 net.cpp:129] Top shape: 1 384 13 13 (64896)
I0718 08:25:57.808645   523 net.cpp:137] Memory required for data: 11181396
I0718 08:25:57.808650   523 layer_factory.hpp:77] Creating layer unpool2
I0718 08:25:57.808655   523 net.cpp:84] Creating Layer unpool2
I0718 08:25:57.808657   523 net.cpp:406] unpool2 <- deconv3
I0718 08:25:57.808661   523 net.cpp:380] unpool2 -> unpool2
I0718 08:25:57.808684   523 net.cpp:122] Setting up unpool2
I0718 08:25:57.808691   523 net.cpp:129] Top shape: 1 384 27 27 (279936)
I0718 08:25:57.808692   523 net.cpp:137] Memory required for data: 12301140
I0718 08:25:57.808696   523 layer_factory.hpp:77] Creating layer deconv4
I0718 08:25:57.808701   523 net.cpp:84] Creating Layer deconv4
I0718 08:25:57.808703   523 net.cpp:406] deconv4 <- unpool2
I0718 08:25:57.808709   523 net.cpp:380] deconv4 -> deconv4
I0718 08:25:57.815649   523 net.cpp:122] Setting up deconv4
I0718 08:25:57.815661   523 net.cpp:129] Top shape: 1 256 27 27 (186624)
I0718 08:25:57.815665   523 net.cpp:137] Memory required for data: 13047636
I0718 08:25:57.815670   523 layer_factory.hpp:77] Creating layer deconv4relu
I0718 08:25:57.815673   523 net.cpp:84] Creating Layer deconv4relu
I0718 08:25:57.815677   523 net.cpp:406] deconv4relu <- deconv4
I0718 08:25:57.815681   523 net.cpp:367] deconv4relu -> deconv4 (in-place)
I0718 08:25:57.815831   523 net.cpp:122] Setting up deconv4relu
I0718 08:25:57.815837   523 net.cpp:129] Top shape: 1 256 27 27 (186624)
I0718 08:25:57.815840   523 net.cpp:137] Memory required for data: 13794132
I0718 08:25:57.815843   523 layer_factory.hpp:77] Creating layer unpool3
I0718 08:25:57.815850   523 net.cpp:84] Creating Layer unpool3
I0718 08:25:57.815852   523 net.cpp:406] unpool3 <- deconv4
I0718 08:25:57.815856   523 net.cpp:380] unpool3 -> unpool3
I0718 08:25:57.815879   523 net.cpp:122] Setting up unpool3
I0718 08:25:57.815884   523 net.cpp:129] Top shape: 1 256 55 55 (774400)
I0718 08:25:57.815886   523 net.cpp:137] Memory required for data: 16891732
I0718 08:25:57.815889   523 layer_factory.hpp:77] Creating layer deconv5
I0718 08:25:57.815896   523 net.cpp:84] Creating Layer deconv5
I0718 08:25:57.815898   523 net.cpp:406] deconv5 <- unpool3
I0718 08:25:57.815904   523 net.cpp:380] deconv5 -> deconv5
I0718 08:25:57.817600   523 net.cpp:122] Setting up deconv5
I0718 08:25:57.817607   523 net.cpp:129] Top shape: 1 96 55 55 (290400)
I0718 08:25:57.817610   523 net.cpp:137] Memory required for data: 18053332
I0718 08:25:57.817615   523 layer_factory.hpp:77] Creating layer deconv5relu
I0718 08:25:57.817618   523 net.cpp:84] Creating Layer deconv5relu
I0718 08:25:57.817621   523 net.cpp:406] deconv5relu <- deconv5
I0718 08:25:57.817625   523 net.cpp:367] deconv5relu -> deconv5 (in-place)
I0718 08:25:57.818370   523 net.cpp:122] Setting up deconv5relu
I0718 08:25:57.818382   523 net.cpp:129] Top shape: 1 96 55 55 (290400)
I0718 08:25:57.818389   523 net.cpp:137] Memory required for data: 19214932
I0718 08:25:57.818400   523 layer_factory.hpp:77] Creating layer output
I0718 08:25:57.818408   523 net.cpp:84] Creating Layer output
I0718 08:25:57.818411   523 net.cpp:406] output <- deconv5
I0718 08:25:57.818416   523 net.cpp:380] output -> output
I0718 08:25:57.818871   523 net.cpp:122] Setting up output
I0718 08:25:57.818877   523 net.cpp:129] Top shape: 1 3 227 227 (154587)
I0718 08:25:57.818881   523 net.cpp:137] Memory required for data: 19833280
I0718 08:25:57.818886   523 layer_factory.hpp:77] Creating layer outputrelu
I0718 08:25:57.818889   523 net.cpp:84] Creating Layer outputrelu
I0718 08:25:57.818892   523 net.cpp:406] outputrelu <- output
I0718 08:25:57.818897   523 net.cpp:367] outputrelu -> output (in-place)
I0718 08:25:57.819026   523 net.cpp:122] Setting up outputrelu
I0718 08:25:57.819032   523 net.cpp:129] Top shape: 1 3 227 227 (154587)
I0718 08:25:57.819036   523 net.cpp:137] Memory required for data: 20451628
I0718 08:25:57.819038   523 layer_factory.hpp:77] Creating layer loss_img
I0718 08:25:57.819046   523 net.cpp:84] Creating Layer loss_img
I0718 08:25:57.819048   523 net.cpp:406] loss_img <- output
I0718 08:25:57.819052   523 net.cpp:406] loss_img <- data/img_data/img_0_split_1
I0718 08:25:57.819056   523 net.cpp:380] loss_img -> error/img
…
  top: "data/img"
  top: "label"
  include {
    phase: TEST
  }
  transform_param {
    scale: 0.0039215689
  }
  data_param {
    source: "/home/lod/master-thesis/LMDB-datasets/prepared_dataSets/dataSet_5c_250_5_2_eval/img_eval_db"
    batch_size: 1
    backend: LMDB
  }
}
layer {
  name: "data"
  type: "Data"
  top: "data"
  include {
    phase: TEST
  }
  transform_param {
    scale: 0.83333
  }
  data_param {
    source: "/home/lod/master-thesis/LMDB-datasets/prepared_dataSets/dataSet_5c_250_5_2_eval/nir_eval_db"
    batch_size: 1
    backend: LMDB
  }
}
layer {
  name: "img_data/bn"
  type: "BatchNorm"
  bottom: "data/img"
  top: "img_data/bn"
  batch_norm_param {
    moving_average_fraction: 0.9
  }
}
layer {
  name: "conv1"
  type: "Convolution"
  bottom: "img_data/bn"
  top: "conv1"
  param {
    lr_mult: 0.0001
    decay_mult: 1
  }
  param {
    lr_mult: 0.0002
    decay_mult: 0
  }
  convolution_param {
    num_output: 96
    kernel_size: 11
    stride: 4
    weight_filler {
      type: "msra"
    }
    bias_filler {
      type: "constant"
      value: 0
    }
  }
}
layer {
  name: "relu1conv1"
  type: "PReLU"
  bottom: "conv1"
  top: "conv1"
}
layer {
  name: "pool1"
  type: "Pooling"
  bottom: "conv1"
  top: "pool1"
  pooling_param {
    pool: MAX
    kernel_size: 3
    stride: 2
  }
}
layer {
  name: "conv2"
  type: "Convolution"
  bottom: "pool1"
  top: "conv2"
  param {
    lr_mult: 0.001
    decay_mult: 1
  }
  param {
    lr_mult: 0.002
    decay_mult: 0
  }
  convolution_param {
    num_output: 256
    pad: 2
    kernel_size: 5
    group: 2
    stride: 1
    weight_filler {
      type: "msra"
    }
    bias_filler {
      type: "constant"
      value: 0
    }
  }
}
layer {
  name: "reluconv2"
  type: "PReLU"
  bottom: "conv2"
  top: "conv2"
}
layer {
  name: "pool2"
  type: "Pooling"
  bottom: "conv2"
  top: "pool2"
  pooling_param {
    pool: MAX
    kernel_size: 3
    stride: 2
  }
}
layer {
  name: "conv3"
  type: "Convolution"
  bottom: "pool2"
  top: "conv3"
  param {
    lr_mult: 0.01
    decay_mult: 1
  }
  param {
    lr_mult: 0.02
    decay_mult: 0
  }
  convolution_param {
    num_output: 384
    pad: 1
    kernel_size: 3
    stride: 1
    weight_filler {
      type: "msra"
    }
    bias_filler {
      type: "constant"
      value: 0
    }
  }
}
layer {
  name: "reluconv3"
  type: "PReLU"
  bottom: "conv3"
  top: "conv3"
}
layer {
  name: "conv4"
  type: "Convolution"
  bottom: "conv3"
  top: "conv4"
  param {
    lr_mult: 0.1
    decay_mult: 1
  }
  param {
    lr_mult: 0.2
    decay_mult: 0
  }
  convolution_param {
    num_output: 384
    pad: 1
    kernel_size: 3
    group: 2
    stride: 1
    weight_filler {
      type: "msra"
    }
    bias_filler {
      type: "constant"
      value: 0
    }
  }
}
layer {
  name: "reluconv4"
  type: "PReLU"
  bottom: "conv4"
  top: "conv4"
}
layer {
  name: "conv5"
  type: "Convolution"
  bottom: "conv4"
  top: "conv5"
  param {
    lr_mult: 1
    decay_mult: 1
  }
  param {
    lr_mult: 2
    decay_mult: 0
  }
  convolution_param {
    num_output: 256
    pad: 1
    kernel_size: 3
    group: 2
    stride: 1
    weight_filler {
      type: "msra"
    }
    bias_filler {
      type: "constant"
      value: 0
    }
  }
}
layer {
  name: "reluconv5"
  type: "PReLU"
  bottom: "conv5"
  top: "conv5"
}
layer {
  name: "pool3"
  type: "Pooling"
  bottom: "conv5"
  top: "pool3"
  pooling_param {
    pool: MAX
    kernel_size: 3
    stride: 2
  }
}
layer {
  name: "img/flatten"
  type: "Flatten"
  bottom: "pool3"
  top: "img/flatten"
}
layer {
  name: "img/fc1"
  type: "InnerProduct"
  bottom: "img/flatten"
  top: "img/fc1"
  param {
    lr_mult: 1
    decay_mult: 1
  }
  param {
    lr_mult: 2
    decay_mult: 0
  }
  inner_product_param {
    num_output: 4096
    weight_filler {
      type: "msra"
    }
    bias_filler {
      type: "constant"
      value: 0
    }
  }
}
layer {
  name: "img_relu/fc1"
  type: "PReLU"
  bottom: "img/fc1"
  top: "img/fc1"
}
layer {
  name: "img/fc2"
  type: "InnerProduct"
  bottom: "img/fc1"
  top: "img/fc2"
  param {
    lr_mult: 1
    decay_mult: 1
  }
  param {
    lr_mult: 2
    decay_mult: 0
  }
  inner_product_param {
    num_output: 4096
    weight_filler {
      type: "msra"
    }
    bias_filler {
      type: "constant"
      value: 0
    }
  }
}
layer {
  name: "img_relu/fc2"
  type: "PReLU"
  bottom: "img/fc2"
  top: "img/fc2"
}
layer {
  name: "img_fc3"
  type: "InnerProduct"
  bottom: "img/fc2"
  top: "img_fc3"
  param {
    lr_mult: 1
    decay_mult: 1
  }
  param {
    lr_mult: 2
    decay_mult: 0
  }
  inner_product_param {
    num_output: 1000
    weight_filler {
      type: "msra"
    }
    bias_filler {
      type: "constant"
      value: 0
    }
  }
}
layer {
  name: "img_relu/fc3r"
  type: "PReLU"
  bottom: "img_fc3"
  top: "img_fc3"
}
layer {
  name: "nir/fc3"
  type: "InnerProduct"
  bottom: "img_fc3"
  top: "nir/fc3"
  param {
    lr_mult: 1
    decay_mult: 1
  }
  param {
    lr_mult: 2
    decay_mult: 0
  }
  inner_product_param {
    num_output: 616
    weight_filler {
      type: "msra"
    }
    bias_filler {
      type: "constant"
      value: 0
    }
  }
}
layer {
  name: "relu_nir/fc3"
  type: "ReLU"
  bottom: "nir/fc3"
  top: "nir/fc3"
}
layer {
  name: "reshape"
  type: "Reshape"
  bottom: "nir/fc3"
  top: "nir_fc3/reshaped"
  reshape_param {
    shape {
      dim: 0
      dim: 1
      dim: 11
      dim: 56
    }
  }
}
layer {
  name: "deconv1_nir"
  type: "Deconvolution"
  bottom: "nir_fc3/reshaped"
  top: "deconv1_nir"
  param {
    lr_mult: 1
    decay_mult: 1
  }
  param {
    lr_mult: 2
    decay_mult: 0
  }
  convolution_param {
    num_output: 235
    kernel_size: 1
    stride: 1
    weight_filler {
      type: "msra"
    }
    bias_filler {
      type: "constant"
      value: 0
    }
  }
}
layer {
  name: "loss_nir"
  type: "EuclideanLoss"
  bottom: "deconv1_nir"
  bottom: "data"
  top: "error/nir"
  loss_weight: 1
}
layer {
  name: "img/fc4"
  type: "InnerProduct"
  bottom: "img_fc3"
  top: "img/fc4"
  param {
    lr_mult: 1
    decay_mult: 1
  }
  param {
    lr_mult: 2
    decay_mult: 0
  }
  inner_product_param {
    num_output: 4096
    weight_filler {
      type: "msra"
    }
    bias_filler {
      type: "constant"
      value: 0
    }
  }
}
layer {
  name: "img_relu/fc4"
  type: "PReLU"
  bottom: "img/fc4"
  top: "img/fc4"
}
layer {
  name: "img/fc5"
  type: "InnerProduct"
  bottom: "img/fc4"
  top: "img/fc5"
  param {
    lr_mult: 1
    decay_mult: 1
  }
  param {
    lr_mult: 2
    decay_mult: 0
  }
  inner_product_param {
    num_output: 4096
    weight_filler {
      type: "msra"
    }
    bias_filler {
      type: "constant"
      value: 0
    }
  }
}
layer {
  name: "img_relu/fc5"
  type: "PReLU"
  bottom: "img/fc5"
  top: "img/fc5"
}
layer {
  name: "img/fc6"
  type: "InnerProduct"
  bottom: "img/fc5"
  top: "img/fc6"
  param {
    lr_mult: 1
    decay_mult: 1
  }
  param {
    lr_mult: 2
    decay_mult: 0
  }
  inner_product_param {
    num_output: 9216
    weight_filler {
      type: "msra"
    }
    bias_filler {
      type: "constant"
      value: 0
    }
  }
}
layer {
  name: "img_relu/fc6"
  type: "PReLU"
  bottom: "img/fc6"
  top: "img/fc6"
}
layer {
  name: "img/reshape"
  type: "Reshape"
  bottom: "img/fc6"
  top: "img/reshape"
  reshape_param {
    shape {
      dim: 0
      dim: 256
      dim: 6
      dim: 6
    }
  }
}
layer {
  name: "unpool1"
  type: "UNPOOLING"
  bottom: "img/reshape"
  top: "unpool1"
  unpooling_param {
    unpool: MAX
    kernel_size: 3
    stride: 2
    unpool_size: 13
  }
}
layer {
  name: "deconv1"
  type: "Deconvolution"
  bottom: "unpool1"
  top: "deconv1"
  param {
    lr_mult: 1
    decay_mult: 1
  }
  param {
    lr_mult: 2
    decay_mult: 0
  }
  convolution_param {
    num_output: 256
    pad: 1
    kernel_size: 3
    stride: 1
    weight_filler {
      type: "msra"
    }
    bias_filler {
      type: "constant"
      value: 0
    }
  }
}
layer {
  name: "deconv1relu"
  type: "PReLU"
  bottom: "deconv1"
  top: "deconv1"
}
layer {
  name: "deconv2"
  type: "Deconvolution"
  bottom: "deconv1"
  top: "deconv2"
  param {
    lr_mult: 1
    decay_mult: 1
  }
  param {
    lr_mult: 2
    decay_mult: 0
  }
  convolution_param {
    num_output: 384
    pad: 1
    kernel_size: 3
    stride: 1
    weight_filler {
      type: "msra"
    }
    bias_filler {
      type: "constant"
      value: 0
    }
  }
}
layer {
  name: "deconv2relu"
  type: "PReLU"
  bottom: "deconv2"
  top: "deconv2"
}
layer {
  name: "deconv3"
  type: "Deconvolution"
  bottom: "deconv2"
  top: "deconv3"
  param {
    lr_mult: 1
    decay_mult: 1
  }
  param {
    lr_mult: 2
    decay_mult: 0
  }
  convolution_param {
    num_output: 384
    pad: 1
    kernel_size: 3
    stride: 1
    weight_filler {
      type: "msra"
    }
    bias_filler {
      type: "constant"
      value: 0
    }
  }
}
layer {
  name: "deconv3relu"
  type: "PReLU"
  bottom: "deconv3"
  top: "deconv3"
}
layer {
  name: "unpool2"
  type: "UNPOOLING"
  bottom: "deconv3"
  top: "unpool2"
  unpooling_param {
    unpool: MAX
    kernel_size: 3
    stride: 2
    unpool_size: 27
  }
}
layer {
  name: "deconv4"
  type: "Deconvolution"
  bottom: "unpool2"
  top: "deconv4"
  param {
    lr_mult: 1
    decay_mult: 1
  }
  param {
    lr_mult: 2
    decay_mult: 0
  }
  convolution_param {
    num_output: 256
    pad: 1
    kernel_size: 3
    stride: 1
    weight_filler {
      type: "msra"
    }
    bias_filler {
      type: "constant"
      value: 0
    }
  }
}
layer {
  name: "deconv4relu"
  type: "PReLU"
  bottom: "deconv4"
  top: "deconv4"
}
layer {
  name: "unpool3"
  type: "UNPOOLING"
  bottom: "deconv4"
  top: "unpool3"
  unpooling_param {
    unpool: MAX
    kernel_size: 3
    stride: 2
    unpool_size: 55
  }
}
layer {
  name: "deconv5"
  type: "Deconvolution"
  bottom: "unpool3"
  top: "deconv5"
  param {
    lr_mult: 1
    decay_mult: 1
  }
  param {
    lr_mult: 2
    decay_mult: 0
  }
  convolution_param {
    num_output: 96
    pad: 1
    kernel_size: 3
    stride: 1
    weight_filler {
      type: "msra"
    }
    bias_filler {
      type: "constant"
      value: 0
    }
  }
}
layer {
  name: "deconv5relu"
  type: "PReLU"
  bottom: "deconv5"
  top: "deconv5"
}
layer {
  name: "output"
  type: "Deconvolution"
  bottom: "deconv5"
  top: "output"
  param {
    lr_mult: 1
    decay_mult: 1
  }
  param {
    lr_mult: 2
    decay_mult: 0
  }
  convolution_param {
    num_output: 3
    kernel_size: 11
    stride: 4
    weight_filler {
      type: "msra"
    }
    bias_filler {
      type: "constant"
      value: 0
    }
  }
}
layer {
  name: "outputrelu"
  type: "PReLU"
  bottom: "output"
  top: "output"
}
layer {
  name: "loss_img"
  type: "EuclideanLoss"
  bottom: "output"
  bottom: "data/img"
  top: "error/img"
  loss_weight: 1
}
I0718 08:25:57.820122   523 layer_factory.hpp:77] Creating layer data/img
I0718 08:25:57.820171   523 db_lmdb.cpp:35] Opened lmdb /home/lod/master-thesis/LMDB-datasets/prepared_dataSets/dataSet_5c_250_5_2_eval/img_eval_db
I0718 08:25:57.820184   523 net.cpp:84] Creating Layer data/img
I0718 08:25:57.820191   523 net.cpp:380] data/img -> data/img
I0718 08:25:57.820199   523 net.cpp:380] data/img -> label
I0718 08:25:57.820384   523 data_layer.cpp:45] output data size: 1,3,227,227
I0718 08:25:57.822432   523 net.cpp:122] Setting up data/img
I0718 08:25:57.822443   523 net.cpp:129] Top shape: 1 3 227 227 (154587)
I0718 08:25:57.822448   523 net.cpp:129] Top shape: 1 (1)
I0718 08:25:57.822450   523 net.cpp:137] Memory required for data: 618352
I0718 08:25:57.822453   523 layer_factory.hpp:77] Creating layer data/img_data/img_0_split
I0718 08:25:57.822460   523 net.cpp:84] Creating Layer data/img_data/img_0_split
I0718 08:25:57.822463   523 net.cpp:406] data/img_data/img_0_split <- data/img
I0718 08:25:57.822468   523 net.cpp:380] data/img_data/img_0_split -> data/img_data/img_0_split_0
I0718 08:25:57.822474   523 net.cpp:380] data/img_data/img_0_split -> data/img_data/img_0_split_1
I0718 08:25:57.822513   523 net.cpp:122] Setting up data/img_data/img_0_split
I0718 08:25:57.822518   523 net.cpp:129] Top shape: 1 3 227 227 (154587)
I0718 08:25:57.822522   523 net.cpp:129] Top shape: 1 3 227 227 (154587)
I0718 08:25:57.822525   523 net.cpp:137] Memory required for data: 1855048
I0718 08:25:57.822530   523 layer_factory.hpp:77] Creating layer data
I0718 08:25:57.822578   523 db_lmdb.cpp:35] Opened lmdb /home/lod/master-thesis/LMDB-datasets/prepared_dataSets/dataSet_5c_250_5_2_eval/nir_eval_db
I0718 08:25:57.822590   523 net.cpp:84] Creating Layer data
I0718 08:25:57.822595   523 net.cpp:380] data -> data
I0718 08:25:57.823546   523 data_layer.cpp:45] output data size: 1,235,11,56
I0718 08:25:57.825047   523 net.cpp:122] Setting up data
I0718 08:25:57.825057   523 net.cpp:129] Top shape: 1 235 11 56 (144760)
I0718 08:25:57.825060   523 net.cpp:137] Memory required for data: 2434088
I0718 08:25:57.825063   523 layer_factory.hpp:77] Creating layer img_data/bn
I0718 08:25:57.825069   523 net.cpp:84] Creating Layer img_data/bn
I0718 08:25:57.825073   523 net.cpp:406] img_data/bn <- data/img_data/img_0_split_0
I0718 08:25:57.825078   523 net.cpp:380] img_data/bn -> img_data/bn
I0718 08:25:57.826038   523 net.cpp:122] Setting up img_data/bn
I0718 08:25:57.826048   523 net.cpp:129] Top shape: 1 3 227 227 (154587)
I0718 08:25:57.826051   523 net.cpp:137] Memory required for data: 3052436
I0718 08:25:57.826062   523 layer_factory.hpp:77] Creating layer conv1
I0718 08:25:57.826072   523 net.cpp:84] Creating Layer conv1
I0718 08:25:57.826076   523 net.cpp:406] conv1 <- img_data/bn
I0718 08:25:57.826081   523 net.cpp:380] conv1 -> conv1
I0718 08:25:57.828058   523 net.cpp:122] Setting up conv1
I0718 08:25:57.828074   523 net.cpp:129] Top shape: 1 96 55 55 (290400)
I0718 08:25:57.828084   523 net.cpp:137] Memory required for data: 4214036
I0718 08:25:57.828091   523 layer_factory.hpp:77] Creating layer relu1conv1
I0718 08:25:57.828097   523 net.cpp:84] Creating Layer relu1conv1
I0718 08:25:57.828100   523 net.cpp:406] relu1conv1 <- conv1
I0718 08:25:57.828104   523 net.cpp:367] relu1conv1 -> conv1 (in-place)
I0718 08:25:57.828898   523 net.cpp:122] Setting up relu1conv1
I0718 08:25:57.828910   523 net.cpp:129] Top shape: 1 96 55 55 (290400)
I0718 08:25:57.828913   523 net.cpp:137] Memory required for data: 5375636
I0718 08:25:57.828917   523 layer_factory.hpp:77] Creating layer pool1
I0718 08:25:57.828924   523 net.cpp:84] Creating Layer pool1
I0718 08:25:57.828927   523 net.cpp:406] pool1 <- conv1
I0718 08:25:57.828932   523 net.cpp:380] pool1 -> pool1
I0718 08:25:57.828966   523 net.cpp:122] Setting up pool1
I0718 08:25:57.828971   523 net.cpp:129] Top shape: 1 96 27 27 (69984)
I0718 08:25:57.828974   523 net.cpp:137] Memory required for data: 5655572
I0718 08:25:57.828976   523 layer_factory.hpp:77] Creating layer conv2
I0718 08:25:57.828984   523 net.cpp:84] Creating Layer conv2
I0718 08:25:57.828987   523 net.cpp:406] conv2 <- pool1
I0718 08:25:57.828992   523 net.cpp:380] conv2 -> conv2
I0718 08:25:57.834461   523 net.cpp:122] Setting up conv2
I0718 08:25:57.834477   523 net.cpp:129] Top shape: 1 256 27 27 (186624)
I0718 08:25:57.834481   523 net.cpp:137] Memory required for data: 6402068
I0718 08:25:57.834486   523 layer_factory.hpp:77] Creating layer reluconv2
I0718 08:25:57.834493   523 net.cpp:84] Creating Layer reluconv2
I0718 08:25:57.834496   523 net.cpp:406] reluconv2 <- conv2
I0718 08:25:57.834502   523 net.cpp:367] reluconv2 -> conv2 (in-place)
I0718 08:25:57.834635   523 net.cpp:122] Setting up reluconv2
I0718 08:25:57.834642   523 net.cpp:129] Top shape: 1 256 27 27 (186624)
I0718 08:25:57.834645   523 net.cpp:137] Memory required for data: 7148564
I0718 08:25:57.834651   523 layer_factory.hpp:77] Creating layer pool2
I0718 08:25:57.834657   523 net.cpp:84] Creating Layer pool2
I0718 08:25:57.834661   523 net.cpp:406] pool2 <- conv2
I0718 08:25:57.834666   523 net.cpp:380] pool2 -> pool2
I0718 08:25:57.834700   523 net.cpp:122] Setting up pool2
I0718 08:25:57.834705   523 net.cpp:129] Top shape: 1 256 13 13 (43264)
I0718 08:25:57.834708   523 net.cpp:137] Memory required for data: 7321620
I0718 08:25:57.834710   523 layer_factory.hpp:77] Creating layer conv3
I0718 08:25:57.834720   523 net.cpp:84] Creating Layer conv3
I0718 08:25:57.834723   523 net.cpp:406] conv3 <- pool2
I0718 08:25:57.834728   523 net.cpp:380] conv3 -> conv3
I0718 08:25:57.842991   523 net.cpp:122] Setting up conv3
I0718 08:25:57.843003   523 net.cpp:129] Top shape: 1 384 13 13 (64896)
I0718 08:25:57.843008   523 net.cpp:137] Memory required for data: 7581204
I0718 08:25:57.843013   523 layer_factory.hpp:77] Creating layer reluconv3
I0718 08:25:57.843019   523 net.cpp:84] Creating Layer reluconv3
I0718 08:25:57.843021   523 net.cpp:406] reluconv3 <- conv3
I0718 08:25:57.843027   523 net.cpp:367] reluconv3 -> conv3 (in-place)
I0718 08:25:57.843140   523 net.cpp:122] Setting up reluconv3
I0718 08:25:57.843147   523 net.cpp:129] Top shape: 1 384 13 13 (64896)
I0718 08:25:57.843149   523 net.cpp:137] Memory required for data: 7840788
I0718 08:25:57.843153   523 layer_factory.hpp:77] Creating layer conv4
I0718 08:25:57.843163   523 net.cpp:84] Creating Layer conv4
I0718 08:25:57.843165   523 net.cpp:406] conv4 <- conv3
I0718 08:25:57.843171   523 net.cpp:380] conv4 -> conv4
I0718 08:25:57.851116   523 net.cpp:122] Setting up conv4
I0718 08:25:57.851127   523 net.cpp:129] Top shape: 1 384 13 13 (64896)
I0718 08:25:57.851131   523 net.cpp:137] Memory required for data: 8100372
I0718 08:25:57.851136   523 layer_factory.hpp:77] Creating layer reluconv4
I0718 08:25:57.851141   523 net.cpp:84] Creating Layer reluconv4
I0718 08:25:57.851146   523 net.cpp:406] reluconv4 <- conv4
I0718 08:25:57.851150   523 net.cpp:367] reluconv4 -> conv4 (in-place)
I0718 08:25:57.851263   523 net.cpp:122] Setting up reluconv4
I0718 08:25:57.851277   523 net.cpp:129] Top shape: 1 384 13 13 (64896)
I0718 08:25:57.851280   523 net.cpp:137] Memory required for data: 8359956
I0718 08:25:57.851284   523 layer_factory.hpp:77] Creating layer conv5
I0718 08:25:57.851294   523 net.cpp:84] Creating Layer conv5
I0718 08:25:57.851297   523 net.cpp:406] conv5 <- conv4
I0718 08:25:57.851302   523 net.cpp:380] conv5 -> conv5
I0718 08:25:57.857898   523 net.cpp:122] Setting up conv5
I0718 08:25:57.857910   523 net.cpp:129] Top shape: 1 256 13 13 (43264)
I0718 08:25:57.857913   523 net.cpp:137] Memory required for data: 8533012
I0718 08:25:57.857923   523 layer_factory.hpp:77] Creating layer reluconv5
I0718 08:25:57.857929   523 net.cpp:84] Creating Layer reluconv5
I0718 08:25:57.857933   523 net.cpp:406] reluconv5 <- conv5
I0718 08:25:57.857937   523 net.cpp:367] reluconv5 -> conv5 (in-place)
I0718 08:25:57.858041   523 net.cpp:122] Setting up reluconv5
I0718 08:25:57.858047   523 net.cpp:129] Top shape: 1 256 13 13 (43264)
I0718 08:25:57.858049   523 net.cpp:137] Memory required for data: 8706068
I0718 08:25:57.858053   523 layer_factory.hpp:77] Creating layer pool3
I0718 08:25:57.858062   523 net.cpp:84] Creating Layer pool3
I0718 08:25:57.858067   523 net.cpp:406] pool3 <- conv5
I0718 08:25:57.858070   523 net.cpp:380] pool3 -> pool3
I0718 08:25:57.858108   523 net.cpp:122] Setting up pool3
I0718 08:25:57.858112   523 net.cpp:129] Top shape: 1 256 6 6 (9216)
I0718 08:25:57.858115   523 net.cpp:137] Memory required for data: 8742932
I0718 08:25:57.858119   523 layer_factory.hpp:77] Creating layer img/flatten
I0718 08:25:57.858122   523 net.cpp:84] Creating Layer img/flatten
I0718 08:25:57.858125   523 net.cpp:406] img/flatten <- pool3
I0718 08:25:57.858130   523 net.cpp:380] img/flatten -> img/flatten
I0718 08:25:57.858151   523 net.cpp:122] Setting up img/flatten
I0718 08:25:57.858156   523 net.cpp:129] Top shape: 1 9216 (9216)
I0718 08:25:57.858158   523 net.cpp:137] Memory required for data: 8779796
I0718 08:25:57.858161   523 layer_factory.hpp:77] Creating layer img/fc1
I0718 08:25:57.858168   523 net.cpp:84] Creating Layer img/fc1
I0718 08:25:57.858171   523 net.cpp:406] img/fc1 <- img/flatten
I0718 08:25:57.858177   523 net.cpp:380] img/fc1 -> img/fc1
I0718 08:25:58.132861   523 net.cpp:122] Setting up img/fc1
I0718 08:25:58.132886   523 net.cpp:129] Top shape: 1 4096 (4096)
I0718 08:25:58.132889   523 net.cpp:137] Memory required for data: 8796180
I0718 08:25:58.132897   523 layer_factory.hpp:77] Creating layer img_relu/fc1
I0718 08:25:58.132905   523 net.cpp:84] Creating Layer img_relu/fc1
I0718 08:25:58.132908   523 net.cpp:406] img_relu/fc1 <- img/fc1
I0718 08:25:58.132915   523 net.cpp:367] img_relu/fc1 -> img/fc1 (in-place)
I0718 08:25:58.132995   523 net.cpp:122] Setting up img_relu/fc1
I0718 08:25:58.133000   523 net.cpp:129] Top shape: 1 4096 (4096)
I0718 08:25:58.133003   523 net.cpp:137] Memory required for data: 8812564
I0718 08:25:58.133007   523 layer_factory.hpp:77] Creating layer img/fc2
I0718 08:25:58.133014   523 net.cpp:84] Creating Layer img/fc2
I0718 08:25:58.133018   523 net.cpp:406] img/fc2 <- img/fc1
I0718 08:25:58.133023   523 net.cpp:380] img/fc2 -> img/fc2
I0718 08:25:58.255758   523 net.cpp:122] Setting up img/fc2
I0718 08:25:58.255785   523 net.cpp:129] Top shape: 1 4096 (4096)
I0718 08:25:58.255789   523 net.cpp:137] Memory required for data: 8828948
I0718 08:25:58.255796   523 layer_factory.hpp:77] Creating layer img_relu/fc2
I0718 08:25:58.255805   523 net.cpp:84] Creating Layer img_relu/fc2
I0718 08:25:58.255810   523 net.cpp:406] img_relu/fc2 <- img/fc2
I0718 08:25:58.255815   523 net.cpp:367] img_relu/fc2 -> img/fc2 (in-place)
I0718 08:25:58.255897   523 net.cpp:122] Setting up img_relu/fc2
I0718 08:25:58.255901   523 net.cpp:129] Top shape: 1 4096 (4096)
I0718 08:25:58.255904   523 net.cpp:137] Memory required for data: 8845332
I0718 08:25:58.255908   523 layer_factory.hpp:77] Creating layer img_fc3
I0718 08:25:58.255914   523 net.cpp:84] Creating Layer img_fc3
I0718 08:25:58.255923   523 net.cpp:406] img_fc3 <- img/fc2
I0718 08:25:58.255939   523 net.cpp:380] img_fc3 -> img_fc3
I0718 08:25:58.285915   523 net.cpp:122] Setting up img_fc3
I0718 08:25:58.285941   523 net.cpp:129] Top shape: 1 1000 (1000)
I0718 08:25:58.285944   523 net.cpp:137] Memory required for data: 8849332
I0718 08:25:58.285951   523 layer_factory.hpp:77] Creating layer img_relu/fc3r
I0718 08:25:58.285959   523 net.cpp:84] Creating Layer img_relu/fc3r
I0718 08:25:58.285962   523 net.cpp:406] img_relu/fc3r <- img_fc3
I0718 08:25:58.285969   523 net.cpp:367] img_relu/fc3r -> img_fc3 (in-place)
I0718 08:25:58.286058   523 net.cpp:122] Setting up img_relu/fc3r
I0718 08:25:58.286064   523 net.cpp:129] Top shape: 1 1000 (1000)
I0718 08:25:58.286067   523 net.cpp:137] Memory required for data: 8853332
I0718 08:25:58.286072   523 layer_factory.hpp:77] Creating layer img_fc3_img_relu/fc3r_0_split
I0718 08:25:58.286075   523 net.cpp:84] Creating Layer img_fc3_img_relu/fc3r_0_split
I0718 08:25:58.286078   523 net.cpp:406] img_fc3_img_relu/fc3r_0_split <- img_fc3
I0718 08:25:58.286082   523 net.cpp:380] img_fc3_img_relu/fc3r_0_split -> img_fc3_img_relu/fc3r_0_split_0
I0718 08:25:58.286088   523 net.cpp:380] img_fc3_img_relu/fc3r_0_split -> img_fc3_img_relu/fc3r_0_split_1
I0718 08:25:58.286124   523 net.cpp:122] Setting up img_fc3_img_relu/fc3r_0_split
I0718 08:25:58.286129   523 net.cpp:129] Top shape: 1 1000 (1000)
I0718 08:25:58.286132   523 net.cpp:129] Top shape: 1 1000 (1000)
I0718 08:25:58.286134   523 net.cpp:137] Memory required for data: 8861332
I0718 08:25:58.286137   523 layer_factory.hpp:77] Creating layer nir/fc3
I0718 08:25:58.286144   523 net.cpp:84] Creating Layer nir/fc3
I0718 08:25:58.286149   523 net.cpp:406] nir/fc3 <- img_fc3_img_relu/fc3r_0_split_0
I0718 08:25:58.286152   523 net.cpp:380] nir/fc3 -> nir/fc3
I0718 08:25:58.290940   523 net.cpp:122] Setting up nir/fc3
I0718 08:25:58.290951   523 net.cpp:129] Top shape: 1 616 (616)
I0718 08:25:58.290953   523 net.cpp:137] Memory required for data: 8863796
I0718 08:25:58.290958   523 layer_factory.hpp:77] Creating layer relu_nir/fc3
I0718 08:25:58.290964   523 net.cpp:84] Creating Layer relu_nir/fc3
I0718 08:25:58.290967   523 net.cpp:406] relu_nir/fc3 <- nir/fc3
I0718 08:25:58.290972   523 net.cpp:367] relu_nir/fc3 -> nir/fc3 (in-place)
I0718 08:25:58.291417   523 net.cpp:122] Setting up relu_nir/fc3
I0718 08:25:58.291426   523 net.cpp:129] Top shape: 1 616 (616)
I0718 08:25:58.291429   523 net.cpp:137] Memory required for data: 8866260
I0718 08:25:58.291431   523 layer_factory.hpp:77] Creating layer reshape
I0718 08:25:58.291438   523 net.cpp:84] Creating Layer reshape
I0718 08:25:58.291441   523 net.cpp:406] reshape <- nir/fc3
I0718 08:25:58.291447   523 net.cpp:380] reshape -> nir_fc3/reshaped
I0718 08:25:58.291481   523 net.cpp:122] Setting up reshape
I0718 08:25:58.291486   523 net.cpp:129] Top shape: 1 1 11 56 (616)
I0718 08:25:58.291488   523 net.cpp:137] Memory required for data: 8868724
I0718 08:25:58.291491   523 layer_factory.hpp:77] Creating layer deconv1_nir
I0718 08:25:58.291501   523 net.cpp:84] Creating Layer deconv1_nir
I0718 08:25:58.291507   523 net.cpp:406] deconv1_nir <- nir_fc3/reshaped
I0718 08:25:58.291512   523 net.cpp:380] deconv1_nir -> deconv1_nir
I0718 08:25:58.291738   523 net.cpp:122] Setting up deconv1_nir
I0718 08:25:58.291744   523 net.cpp:129] Top shape: 1 235 11 56 (144760)
I0718 08:25:58.291746   523 net.cpp:137] Memory required for data: 9447764
I0718 08:25:58.291751   523 layer_factory.hpp:77] Creating layer loss_nir
I0718 08:25:58.291757   523 net.cpp:84] Creating Layer loss_nir
I0718 08:25:58.291760   523 net.cpp:406] loss_nir <- deconv1_nir
I0718 08:25:58.291764   523 net.cpp:406] loss_nir <- data
I0718 08:25:58.291769   523 net.cpp:380] loss_nir -> error/nir
I0718 08:25:58.291811   523 net.cpp:122] Setting up loss_nir
I0718 08:25:58.291816   523 net.cpp:129] Top shape: (1)
I0718 08:25:58.291820   523 net.cpp:132]     with loss weight 1
I0718 08:25:58.291828   523 net.cpp:137] Memory required for data: 9447768
I0718 08:25:58.291836   523 layer_factory.hpp:77] Creating layer img/fc4
I0718 08:25:58.291851   523 net.cpp:84] Creating Layer img/fc4
I0718 08:25:58.291854   523 net.cpp:406] img/fc4 <- img_fc3_img_relu/fc3r_0_split_1
I0718 08:25:58.291859   523 net.cpp:380] img/fc4 -> img/fc4
I0718 08:25:58.321794   523 net.cpp:122] Setting up img/fc4
I0718 08:25:58.321817   523 net.cpp:129] Top shape: 1 4096 (4096)
I0718 08:25:58.321820   523 net.cpp:137] Memory required for data: 9464152
I0718 08:25:58.321833   523 layer_factory.hpp:77] Creating layer img_relu/fc4
I0718 08:25:58.321843   523 net.cpp:84] Creating Layer img_relu/fc4
I0718 08:25:58.321847   523 net.cpp:406] img_relu/fc4 <- img/fc4
I0718 08:25:58.321853   523 net.cpp:367] img_relu/fc4 -> img/fc4 (in-place)
I0718 08:25:58.321934   523 net.cpp:122] Setting up img_relu/fc4
I0718 08:25:58.321939   523 net.cpp:129] Top shape: 1 4096 (4096)
I0718 08:25:58.321943   523 net.cpp:137] Memory required for data: 9480536
I0718 08:25:58.321945   523 layer_factory.hpp:77] Creating layer img/fc5
I0718 08:25:58.321956   523 net.cpp:84] Creating Layer img/fc5
I0718 08:25:58.321960   523 net.cpp:406] img/fc5 <- img/fc4
I0718 08:25:58.321964   523 net.cpp:380] img/fc5 -> img/fc5
I0718 08:25:58.444314   523 net.cpp:122] Setting up img/fc5
I0718 08:25:58.444339   523 net.cpp:129] Top shape: 1 4096 (4096)
I0718 08:25:58.444341   523 net.cpp:137] Memory required for data: 9496920
I0718 08:25:58.444350   523 layer_factory.hpp:77] Creating layer img_relu/fc5
I0718 08:25:58.444357   523 net.cpp:84] Creating Layer img_relu/fc5
I0718 08:25:58.444362   523 net.cpp:406] img_relu/fc5 <- img/fc5
I0718 08:25:58.444367   523 net.cpp:367] img_relu/fc5 -> img/fc5 (in-place)
I0718 08:25:58.444448   523 net.cpp:122] Setting up img_relu/fc5
I0718 08:25:58.444454   523 net.cpp:129] Top shape: 1 4096 (4096)
I0718 08:25:58.444456   523 net.cpp:137] Memory required for data: 9513304
I0718 08:25:58.444460   523 layer_factory.hpp:77] Creating layer img/fc6
I0718 08:25:58.444466   523 net.cpp:84] Creating Layer img/fc6
I0718 08:25:58.444469   523 net.cpp:406] img/fc6 <- img/fc5
I0718 08:25:58.444474   523 net.cpp:380] img/fc6 -> img/fc6
I0718 08:25:58.719393   523 net.cpp:122] Setting up img/fc6
I0718 08:25:58.719421   523 net.cpp:129] Top shape: 1 9216 (9216)
I0718 08:25:58.719424   523 net.cpp:137] Memory required for data: 9550168
I0718 08:25:58.719432   523 layer_factory.hpp:77] Creating layer img_relu/fc6
I0718 08:25:58.719440   523 net.cpp:84] Creating Layer img_relu/fc6
I0718 08:25:58.719444   523 net.cpp:406] img_relu/fc6 <- img/fc6
I0718 08:25:58.719450   523 net.cpp:367] img_relu/fc6 -> img/fc6 (in-place)
I0718 08:25:58.719543   523 net.cpp:122] Setting up img_relu/fc6
I0718 08:25:58.719550   523 net.cpp:129] Top shape: 1 9216 (9216)
I0718 08:25:58.719552   523 net.cpp:137] Memory required for data: 9587032
I0718 08:25:58.719557   523 layer_factory.hpp:77] Creating layer img/reshape
I0718 08:25:58.719563   523 net.cpp:84] Creating Layer img/reshape
I0718 08:25:58.719565   523 net.cpp:406] img/reshape <- img/fc6
I0718 08:25:58.719570   523 net.cpp:380] img/reshape -> img/reshape
I0718 08:25:58.719599   523 net.cpp:122] Setting up img/reshape
I0718 08:25:58.719604   523 net.cpp:129] Top shape: 1 256 6 6 (9216)
I0718 08:25:58.719607   523 net.cpp:137] Memory required for data: 9623896
I0718 08:25:58.719610   523 layer_factory.hpp:77] Creating layer unpool1
I0718 08:25:58.719615   523 net.cpp:84] Creating Layer unpool1
I0718 08:25:58.719619   523 net.cpp:406] unpool1 <- img/reshape
I0718 08:25:58.719622   523 net.cpp:380] unpool1 -> unpool1
I0718 08:25:58.719650   523 net.cpp:122] Setting up unpool1
I0718 08:25:58.719655   523 net.cpp:129] Top shape: 1 256 13 13 (43264)
I0718 08:25:58.719657   523 net.cpp:137] Memory required for data: 9796952
I0718 08:25:58.719660   523 layer_factory.hpp:77] Creating layer deconv1
I0718 08:25:58.719668   523 net.cpp:84] Creating Layer deconv1
I0718 08:25:58.719671   523 net.cpp:406] deconv1 <- unpool1
I0718 08:25:58.719677   523 net.cpp:380] deconv1 -> deconv1
I0718 08:25:58.724581   523 net.cpp:122] Setting up deconv1
I0718 08:25:58.724598   523 net.cpp:129] Top shape: 1 256 13 13 (43264)
I0718 08:25:58.724601   523 net.cpp:137] Memory required for data: 9970008
I0718 08:25:58.724607   523 layer_factory.hpp:77] Creating layer deconv1relu
I0718 08:25:58.724611   523 net.cpp:84] Creating Layer deconv1relu
I0718 08:25:58.724615   523 net.cpp:406] deconv1relu <- deconv1
I0718 08:25:58.724620   523 net.cpp:367] deconv1relu -> deconv1 (in-place)
I0718 08:25:58.724727   523 net.cpp:122] Setting up deconv1relu
I0718 08:25:58.724733   523 net.cpp:129] Top shape: 1 256 13 13 (43264)
I0718 08:25:58.724736   523 net.cpp:137] Memory required for data: 10143064
I0718 08:25:58.724740   523 layer_factory.hpp:77] Creating layer deconv2
I0718 08:25:58.724747   523 net.cpp:84] Creating Layer deconv2
I0718 08:25:58.724750   523 net.cpp:406] deconv2 <- deconv1
I0718 08:25:58.724756   523 net.cpp:380] deconv2 -> deconv2
I0718 08:25:58.731729   523 net.cpp:122] Setting up deconv2
I0718 08:25:58.731739   523 net.cpp:129] Top shape: 1 384 13 13 (64896)
I0718 08:25:58.731742   523 net.cpp:137] Memory required for data: 10402648
I0718 08:25:58.731747   523 layer_factory.hpp:77] Creating layer deconv2relu
I0718 08:25:58.731753   523 net.cpp:84] Creating Layer deconv2relu
I0718 08:25:58.731756   523 net.cpp:406] deconv2relu <- deconv2
I0718 08:25:58.731761   523 net.cpp:367] deconv2relu -> deconv2 (in-place)
I0718 08:25:58.731871   523 net.cpp:122] Setting up deconv2relu
I0718 08:25:58.731878   523 net.cpp:129] Top shape: 1 384 13 13 (64896)
I0718 08:25:58.731880   523 net.cpp:137] Memory required for data: 10662232
I0718 08:25:58.731884   523 layer_factory.hpp:77] Creating layer deconv3
I0718 08:25:58.731892   523 net.cpp:84] Creating Layer deconv3
I0718 08:25:58.731896   523 net.cpp:406] deconv3 <- deconv2
I0718 08:25:58.731901   523 net.cpp:380] deconv3 -> deconv3
I0718 08:25:58.742142   523 net.cpp:122] Setting up deconv3
I0718 08:25:58.742153   523 net.cpp:129] Top shape: 1 384 13 13 (64896)
I0718 08:25:58.742156   523 net.cpp:137] Memory required for data: 10921816
I0718 08:25:58.742161   523 layer_factory.hpp:77] Creating layer deconv3relu
I0718 08:25:58.742166   523 net.cpp:84] Creating Layer deconv3relu
I0718 08:25:58.742169   523 net.cpp:406] deconv3relu <- deconv3
I0718 08:25:58.742177   523 net.cpp:367] deconv3relu -> deconv3 (in-place)
I0718 08:25:58.742285   523 net.cpp:122] Setting up deconv3relu
I0718 08:25:58.742292   523 net.cpp:129] Top shape: 1 384 13 13 (64896)
I0718 08:25:58.742295   523 net.cpp:137] Memory required for data: 11181400
I0718 08:25:58.742298   523 layer_factory.hpp:77] Creating layer unpool2
I0718 08:25:58.742303   523 net.cpp:84] Creating Layer unpool2
I0718 08:25:58.742306   523 net.cpp:406] unpool2 <- deconv3
I0718 08:25:58.742311   523 net.cpp:380] unpool2 -> unpool2
I0718 08:25:58.742341   523 net.cpp:122] Setting up unpool2
I0718 08:25:58.742347   523 net.cpp:129] Top shape: 1 384 27 27 (279936)
I0718 08:25:58.742349   523 net.cpp:137] Memory required for data: 12301144
I0718 08:25:58.742352   523 layer_factory.hpp:77] Creating layer deconv4
I0718 08:25:58.742359   523 net.cpp:84] Creating Layer deconv4
I0718 08:25:58.742362   523 net.cpp:406] deconv4 <- unpool2
I0718 08:25:58.742368   523 net.cpp:380] deconv4 -> deconv4
I0718 08:25:58.749284   523 net.cpp:122] Setting up deconv4
I0718 08:25:58.749295   523 net.cpp:129] Top shape: 1 256 27 27 (186624)
I0718 08:25:58.749300   523 net.cpp:137] Memory required for data: 13047640
I0718 08:25:58.749303   523 layer_factory.hpp:77] Creating layer deconv4relu
I0718 08:25:58.749308   523 net.cpp:84] Creating Layer deconv4relu
I0718 08:25:58.749312   523 net.cpp:406] deconv4relu <- deconv4
I0718 08:25:58.749316   523 net.cpp:367] deconv4relu -> deconv4 (in-place)
I0718 08:25:58.749475   523 net.cpp:122] Setting up deconv4relu
I0718 08:25:58.749481   523 net.cpp:129] Top shape: 1 256 27 27 (186624)
I0718 08:25:58.749485   523 net.cpp:137] Memory required for data: 13794136
I0718 08:25:58.749487   523 layer_factory.hpp:77] Creating layer unpool3
I0718 08:25:58.749497   523 net.cpp:84] Creating Layer unpool3
I0718 08:25:58.749508   523 net.cpp:406] unpool3 <- deconv4
I0718 08:25:58.749513   523 net.cpp:380] unpool3 -> unpool3
I0718 08:25:58.749539   523 net.cpp:122] Setting up unpool3
I0718 08:25:58.749544   523 net.cpp:129] Top shape: 1 256 55 55 (774400)
I0718 08:25:58.749547   523 net.cpp:137] Memory required for data: 16891736
I0718 08:25:58.749550   523 layer_factory.hpp:77] Creating layer deconv5
I0718 08:25:58.749557   523 net.cpp:84] Creating Layer deconv5
I0718 08:25:58.749559   523 net.cpp:406] deconv5 <- unpool3
I0718 08:25:58.749564   523 net.cpp:380] deconv5 -> deconv5
I0718 08:25:58.751276   523 net.cpp:122] Setting up deconv5
I0718 08:25:58.751284   523 net.cpp:129] Top shape: 1 96 55 55 (290400)
I0718 08:25:58.751287   523 net.cpp:137] Memory required for data: 18053336
I0718 08:25:58.751291   523 layer_factory.hpp:77] Creating layer deconv5relu
I0718 08:25:58.751296   523 net.cpp:84] Creating Layer deconv5relu
I0718 08:25:58.751298   523 net.cpp:406] deconv5relu <- deconv5
I0718 08:25:58.751302   523 net.cpp:367] deconv5relu -> deconv5 (in-place)
I0718 08:25:58.752074   523 net.cpp:122] Setting up deconv5relu
I0718 08:25:58.752084   523 net.cpp:129] Top shape: 1 96 55 55 (290400)
I0718 08:25:58.752087   523 net.cpp:137] Memory required for data: 19214936
I0718 08:25:58.752092   523 layer_factory.hpp:77] Creating layer output
I0718 08:25:58.752099   523 net.cpp:84] Creating Layer output
I0718 08:25:58.752102   523 net.cpp:406] output <- deconv5
I0718 08:25:58.752110   523 net.cpp:380] output -> output
I0718 08:25:58.752584   523 net.cpp:122] Setting up output
I0718 08:25:58.752591   523 net.cpp:129] Top shape: 1 3 227 227 (154587)
I0718 08:25:58.752594   523 net.cpp:137] Memory required for data: 19833284
I0718 08:25:58.752599   523 layer_factory.hpp:77] Creating layer outputrelu
I0718 08:25:58.752604   523 net.cpp:84] Creating Layer outputrelu
I0718 08:25:58.752606   523 net.cpp:406] outputrelu <- output
I0718 08:25:58.752610   523 net.cpp:367] outputrelu -> output (in-place)
I0718 08:25:58.752743   523 net.cpp:122] Setting up outputrelu
I0718 08:25:58.752748   523 net.cpp:129] Top shape: 1 3 227 227 (154587)
I0718 08:25:58.752750   523 net.cpp:137] Memory required for data: 20451632
I0718 08:25:58.752754   523 layer_factory.hpp:77] Creating layer loss_img
I0718 08:25:58.752759   523 net.cpp:84] Creating Layer loss_img
I0718 08:25:58.752763   523 net.cpp:406] loss_img <- output
I0718 08:25:58.752766   523 net.cpp:406] loss_img <- data/img_data/img_0_split_1
I0718 08:25:58.752771   523 net.cpp:380] loss_img -> error/img
…
